…
The value is the same before and after calling `init_weights` of FUTR3D  
2025-04-23 15:36:33,108 - mmdet - INFO - Model:
FUTR3D(
  (pts_voxel_layer): Voxelization(voxel_size=[0.075, 0.075, 0.2], point_cloud_range=[-54, -54, -5.0, 54, 54, 3.0], max_num_points=10, max_voxels=(120000, 160000), deterministic=True)
  (pts_voxel_encoder): HardSimpleVFE()
  (pts_middle_encoder): SparseEncoder(
    (conv_input): SparseSequential(
      (0): SubMConv3d(5, 16, kernel_size=[3, 3, 3], stride=[1, 1, 1], padding=[1, 1, 1], dilation=[1, 1, 1], output_padding=[0, 0, 0], bias=False, algo=ConvAlgo.MaskImplicitGemm)
      (1): BatchNorm1d(16, eps=0.001, momentum=0.01, affine=True, track_running_stats=True)
      (2): ReLU(inplace=True)
    )
    (encoder_layers): SparseSequential(
      (encoder_layer1): SparseSequential(
        (0): SparseBasicBlock(
          (conv1): SubMConv3d(16, 16, kernel_size=[3, 3, 3], stride=[1, 1, 1], padding=[1, 1, 1], dilation=[1, 1, 1], output_padding=[0, 0, 0], bias=False, algo=ConvAlgo.MaskImplicitGemm)
          (bn1): BatchNorm1d(16, eps=0.001, momentum=0.01, affine=True, track_running_stats=True)
          (conv2): SubMConv3d(16, 16, kernel_size=[3, 3, 3], stride=[1, 1, 1], padding=[1, 1, 1], dilation=[1, 1, 1], output_padding=[0, 0, 0], bias=False, algo=ConvAlgo.MaskImplicitGemm)
          (bn2): BatchNorm1d(16, eps=0.001, momentum=0.01, affine=True, track_running_stats=True)
          (relu): ReLU(inplace=True)
        )
        (1): SparseBasicBlock(
          (conv1): SubMConv3d(16, 16, kernel_size=[3, 3, 3], stride=[1, 1, 1], padding=[1, 1, 1], dilation=[1, 1, 1], output_padding=[0, 0, 0], bias=False, algo=ConvAlgo.MaskImplicitGemm)
          (bn1): BatchNorm1d(16, eps=0.001, momentum=0.01, affine=True, track_running_stats=True)
          (conv2): SubMConv3d(16, 16, kernel_size=[3, 3, 3], stride=[1, 1, 1], padding=[1, 1, 1], dilation=[1, 1, 1], output_padding=[0, 0, 0], bias=False, algo=ConvAlgo.MaskImplicitGemm)
          (bn2): BatchNorm1d(16, eps=0.001, momentum=0.01, affine=True, track_running_stats=True)
          (relu): ReLU(inplace=True)
        )
        (2): SparseSequential(
          (0): SparseConv3d(16, 32, kernel_size=[3, 3, 3], stride=[2, 2, 2], padding=[1, 1, 1], dilation=[1, 1, 1], output_padding=[0, 0, 0], bias=False, algo=ConvAlgo.MaskImplicitGemm)
          (1): BatchNorm1d(32, eps=0.001, momentum=0.01, affine=True, track_running_stats=True)
          (2): ReLU(inplace=True)
        )
      )
      (encoder_layer2): SparseSequential(
        (0): SparseBasicBlock(
          (conv1): SubMConv3d(32, 32, kernel_size=[3, 3, 3], stride=[1, 1, 1], padding=[1, 1, 1], dilation=[1, 1, 1], output_padding=[0, 0, 0], bias=False, algo=ConvAlgo.MaskImplicitGemm)
          (bn1): BatchNorm1d(32, eps=0.001, momentum=0.01, affine=True, track_running_stats=True)
          (conv2): SubMConv3d(32, 32, kernel_size=[3, 3, 3], stride=[1, 1, 1], padding=[1, 1, 1], dilation=[1, 1, 1], output_padding=[0, 0, 0], bias=False, algo=ConvAlgo.MaskImplicitGemm)
          (bn2): BatchNorm1d(32, eps=0.001, momentum=0.01, affine=True, track_running_stats=True)
          (relu): ReLU(inplace=True)
        )
        (1): SparseBasicBlock(
          (conv1): SubMConv3d(32, 32, kernel_size=[3, 3, 3], stride=[1, 1, 1], padding=[1, 1, 1], dilation=[1, 1, 1], output_padding=[0, 0, 0], bias=False, algo=ConvAlgo.MaskImplicitGemm)
          (bn1): BatchNorm1d(32, eps=0.001, momentum=0.01, affine=True, track_running_stats=True)
          (conv2): SubMConv3d(32, 32, kernel_size=[3, 3, 3], stride=[1, 1, 1], padding=[1, 1, 1], dilation=[1, 1, 1], output_padding=[0, 0, 0], bias=False, algo=ConvAlgo.MaskImplicitGemm)
          (bn2): BatchNorm1d(32, eps=0.001, momentum=0.01, affine=True, track_running_stats=True)
          (relu): ReLU(inplace=True)
        )
        (2): SparseSequential(
          (0): SparseConv3d(32, 64, kernel_size=[3, 3, 3], stride=[2, 2, 2], padding=[1, 1, 1], dilation=[1, 1, 1], output_padding=[0, 0, 0], bias=False, algo=ConvAlgo.MaskImplicitGemm)
          (1): BatchNorm1d(64, eps=0.001, momentum=0.01, affine=True, track_running_stats=True)
          (2): ReLU(inplace=True)
        )
      )
      (encoder_layer3): SparseSequential(
        (0): SparseBasicBlock(
          (conv1): SubMConv3d(64, 64, kernel_size=[3, 3, 3], stride=[1, 1, 1], padding=[1, 1, 1], dilation=[1, 1, 1], output_padding=[0, 0, 0], bias=False, algo=ConvAlgo.MaskImplicitGemm)
          (bn1): BatchNorm1d(64, eps=0.001, momentum=0.01, affine=True, track_running_stats=True)
          (conv2): SubMConv3d(64, 64, kernel_size=[3, 3, 3], stride=[1, 1, 1], padding=[1, 1, 1], dilation=[1, 1, 1], output_padding=[0, 0, 0], bias=False, algo=ConvAlgo.MaskImplicitGemm)
          (bn2): BatchNorm1d(64, eps=0.001, momentum=0.01, affine=True, track_running_stats=True)
          (relu): ReLU(inplace=True)
        )
        (1): SparseBasicBlock(
          (conv1): SubMConv3d(64, 64, kernel_size=[3, 3, 3], stride=[1, 1, 1], padding=[1, 1, 1], dilation=[1, 1, 1], output_padding=[0, 0, 0], bias=False, algo=ConvAlgo.MaskImplicitGemm)
          (bn1): BatchNorm1d(64, eps=0.001, momentum=0.01, affine=True, track_running_stats=True)
          (conv2): SubMConv3d(64, 64, kernel_size=[3, 3, 3], stride=[1, 1, 1], padding=[1, 1, 1], dilation=[1, 1, 1], output_padding=[0, 0, 0], bias=False, algo=ConvAlgo.MaskImplicitGemm)
          (bn2): BatchNorm1d(64, eps=0.001, momentum=0.01, affine=True, track_running_stats=True)
          (relu): ReLU(inplace=True)
        )
        (2): SparseSequential(
          (0): SparseConv3d(64, 128, kernel_size=[3, 3, 3], stride=[2, 2, 2], padding=[0, 1, 1], dilation=[1, 1, 1], output_padding=[0, 0, 0], bias=False, algo=ConvAlgo.MaskImplicitGemm)
          (1): BatchNorm1d(128, eps=0.001, momentum=0.01, affine=True, track_running_stats=True)
          (2): ReLU(inplace=True)
        )
      )
      (encoder_layer4): SparseSequential(
        (0): SparseBasicBlock(
          (conv1): SubMConv3d(128, 128, kernel_size=[3, 3, 3], stride=[1, 1, 1], padding=[1, 1, 1], dilation=[1, 1, 1], output_padding=[0, 0, 0], bias=False, algo=ConvAlgo.MaskImplicitGemm)
          (bn1): BatchNorm1d(128, eps=0.001, momentum=0.01, affine=True, track_running_stats=True)
          (conv2): SubMConv3d(128, 128, kernel_size=[3, 3, 3], stride=[1, 1, 1], padding=[1, 1, 1], dilation=[1, 1, 1], output_padding=[0, 0, 0], bias=False, algo=ConvAlgo.MaskImplicitGemm)
          (bn2): BatchNorm1d(128, eps=0.001, momentum=0.01, affine=True, track_running_stats=True)
          (relu): ReLU(inplace=True)
        )
        (1): SparseBasicBlock(
          (conv1): SubMConv3d(128, 128, kernel_size=[3, 3, 3], stride=[1, 1, 1], padding=[1, 1, 1], dilation=[1, 1, 1], output_padding=[0, 0, 0], bias=False, algo=ConvAlgo.MaskImplicitGemm)
          (bn1): BatchNorm1d(128, eps=0.001, momentum=0.01, affine=True, track_running_stats=True)
          (conv2): SubMConv3d(128, 128, kernel_size=[3, 3, 3], stride=[1, 1, 1], padding=[1, 1, 1], dilation=[1, 1, 1], output_padding=[0, 0, 0], bias=False, algo=ConvAlgo.MaskImplicitGemm)
          (bn2): BatchNorm1d(128, eps=0.001, momentum=0.01, affine=True, track_running_stats=True)
          (relu): ReLU(inplace=True)
        )
      )
    )
    (conv_out): SparseSequential(
      (0): SparseConv3d(128, 128, kernel_size=[3, 1, 1], stride=[2, 1, 1], padding=[0, 0, 0], dilation=[1, 1, 1], output_padding=[0, 0, 0], bias=False, algo=ConvAlgo.MaskImplicitGemm)
      (1): BatchNorm1d(128, eps=0.001, momentum=0.01, affine=True, track_running_stats=True)
      (2): ReLU(inplace=True)
    )
  )
  (pts_backbone): SECONDMamba(
    (blocks): ModuleList(
      (0): Sequential(
        (0): SECONDMambaBlock(
          (in_proj_H): Linear(in_features=256, out_features=524, bias=False)
          (in_proj_V): Linear(in_features=256, out_features=524, bias=False)
          (act): SiLU()
          (out_proj): Linear(in_features=512, out_features=128, bias=False)
          (out_norm): LayerNorm((128,), eps=1e-06, elementwise_affine=True)
          (conv1d_H): Conv1d(256, 512, kernel_size=(4,), stride=(4,), bias=False)
          (conv1d_V): Conv1d(256, 512, kernel_size=(4,), stride=(4,), bias=False)
        )
        (1): BatchNorm2d(128, eps=0.001, momentum=0.01, affine=True, track_running_stats=True)
        (2): ReLU(inplace=True)
        (3): DepthwiseSeparableConv2d(
          (depthwise): Conv2d(128, 128, kernel_size=(3, 3), stride=(1, 1), padding=(1, 1), groups=128, bias=False)
          (pointwise): Conv2d(128, 128, kernel_size=(1, 1), stride=(1, 1), bias=False)
        )
        (4): BatchNorm2d(128, eps=0.001, momentum=0.01, affine=True, track_running_stats=True)
        (5): ReLU(inplace=True)
        (6): DepthwiseSeparableConv2d(
          (depthwise): Conv2d(128, 128, kernel_size=(3, 3), stride=(1, 1), padding=(1, 1), groups=128, bias=False)
          (pointwise): Conv2d(128, 128, kernel_size=(1, 1), stride=(1, 1), bias=False)
        )
        (7): BatchNorm2d(128, eps=0.001, momentum=0.01, affine=True, track_running_stats=True)
        (8): ReLU(inplace=True)
        (9): DepthwiseSeparableConv2d(
          (depthwise): Conv2d(128, 128, kernel_size=(3, 3), stride=(1, 1), padding=(1, 1), groups=128, bias=False)
          (pointwise): Conv2d(128, 128, kernel_size=(1, 1), stride=(1, 1), bias=False)
        )
        (10): BatchNorm2d(128, eps=0.001, momentum=0.01, affine=True, track_running_stats=True)
        (11): ReLU(inplace=True)
      )
      (1): Sequential(
        (0): SECONDMambaBlock(
          (in_proj_H): Linear(in_features=128, out_features=266, bias=False)
          (in_proj_V): Linear(in_features=128, out_features=266, bias=False)
          (act): SiLU()
          (out_proj): Linear(in_features=512, out_features=256, bias=False)
          (out_norm): LayerNorm((256,), eps=1e-06, elementwise_affine=True)
          (conv1d_H): Conv1d(128, 256, kernel_size=(4,), stride=(4,), bias=False)
          (conv1d_V): Conv1d(128, 256, kernel_size=(4,), stride=(4,), bias=False)
        )
        (1): BatchNorm2d(256, eps=1e-05, momentum=0.1, affine=True, track_running_stats=True)
        (2): ReLU(inplace=True)
        (3): DepthwiseSeparableConv2d(
          (depthwise): Conv2d(256, 256, kernel_size=(3, 3), stride=(1, 1), padding=(1, 1), groups=256, bias=False)
          (pointwise): Conv2d(256, 256, kernel_size=(1, 1), stride=(1, 1), bias=False)
        )
        (4): BatchNorm2d(256, eps=0.001, momentum=0.01, affine=True, track_running_stats=True)
        (5): ReLU(inplace=True)
        (6): DepthwiseSeparableConv2d(
          (depthwise): Conv2d(256, 256, kernel_size=(3, 3), stride=(1, 1), padding=(1, 1), groups=256, bias=False)
          (pointwise): Conv2d(256, 256, kernel_size=(1, 1), stride=(1, 1), bias=False)
        )
        (7): BatchNorm2d(256, eps=0.001, momentum=0.01, affine=True, track_running_stats=True)
        (8): ReLU(inplace=True)
        (9): DepthwiseSeparableConv2d(
          (depthwise): Conv2d(256, 256, kernel_size=(3, 3), stride=(1, 1), padding=(1, 1), groups=256, bias=False)
          (pointwise): Conv2d(256, 256, kernel_size=(1, 1), stride=(1, 1), bias=False)
        )
        (10): BatchNorm2d(256, eps=0.001, momentum=0.01, affine=True, track_running_stats=True)
        (11): ReLU(inplace=True)
      )
    )
  )
  (pts_neck): FPN(
    (lateral_convs): ModuleList(
      (0): ConvModule(
        (conv): Conv2d(128, 256, kernel_size=(1, 1), stride=(1, 1), bias=False)
        (bn): BatchNorm2d(256, eps=0.001, momentum=0.01, affine=True, track_running_stats=True)
        (activate): ReLU()
      )
      (1): ConvModule(
        (conv): Conv2d(256, 256, kernel_size=(1, 1), stride=(1, 1), bias=False)
        (bn): BatchNorm2d(256, eps=0.001, momentum=0.01, affine=True, track_running_stats=True)
        (activate): ReLU()
      )
    )
    (fpn_convs): ModuleList(
      (0): ConvModule(
        (conv): Conv2d(256, 256, kernel_size=(3, 3), stride=(1, 1), padding=(1, 1), bias=False)
        (bn): BatchNorm2d(256, eps=0.001, momentum=0.01, affine=True, track_running_stats=True)
        (activate): ReLU()
      )
      (1): ConvModule(
        (conv): Conv2d(256, 256, kernel_size=(3, 3), stride=(1, 1), padding=(1, 1), bias=False)
        (bn): BatchNorm2d(256, eps=0.001, momentum=0.01, affine=True, track_running_stats=True)
        (activate): ReLU()
      )
      (2): ConvModule(
        (conv): Conv2d(256, 256, kernel_size=(3, 3), stride=(2, 2), padding=(1, 1), bias=False)
        (bn): BatchNorm2d(256, eps=0.001, momentum=0.01, affine=True, track_running_stats=True)
        (activate): ReLU()
      )
      (3): ConvModule(
        (conv): Conv2d(256, 256, kernel_size=(3, 3), stride=(2, 2), padding=(1, 1), bias=False)
        (bn): BatchNorm2d(256, eps=0.001, momentum=0.01, affine=True, track_running_stats=True)
        (activate): ReLU()
      )
    )
  )
  init_cfg={'type': 'Xavier', 'layer': 'Conv2d', 'distribution': 'uniform'}
  (pts_bbox_head): FUTR3DHead(
    (loss_cls): FocalLoss()
    (loss_bbox): L1Loss()
    (loss_iou): GIoULoss()
    (activate): ReLU(inplace=True)
    (positional_encoding): SinePositionalEncoding(num_feats=128, temperature=10000, normalize=True, scale=6.283185307179586, eps=1e-06)
    (transformer): FUTR3DTransformer(
      (decoder): FUTR3DTransformerDecoder(
        (layers): ModuleList(
          (0): DetrTransformerDecoderLayer(
            (attentions): ModuleList(
              (0): DSS(
                (layers): ModuleList(
                  (0): ModuleDict(
                    (mamba): DSSMamba(
                      (in_proj): Linear(in_features=256, out_features=1024, bias=False)
                      (in_proj_xy): Linear(in_features=256, out_features=1024, bias=False)
                      (act_f): SiLU()
                      (act_b): SiLU()
                      (x_proj_f): Linear(in_features=256, out_features=24, bias=False)
                      (x_proj_b): Linear(in_features=256, out_features=24, bias=False)
                      (dt_proj_f): Linear(in_features=16, out_features=256, bias=True)
                      (dt_proj_b): Linear(in_features=16, out_features=256, bias=True)
                      (act_f_xy): SiLU()
                      (act_b_xy): SiLU()
                      (x_proj_f_xy): Linear(in_features=256, out_features=24, bias=False)
                      (x_proj_b_xy): Linear(in_features=256, out_features=24, bias=False)
                      (dt_proj_f_xy): Linear(in_features=16, out_features=256, bias=True)
                      (dt_proj_b_xy): Linear(in_features=16, out_features=256, bias=True)
                      (out_proj): Linear(in_features=1024, out_features=256, bias=False)
                      (global_proj): Linear(in_features=1024, out_features=1024, bias=True)
                    )
                    (dropout): Identity()
                    (norm): LayerNorm((256,), eps=1e-05, elementwise_affine=True)
                  )
                  (1): ModuleDict(
                    (mamba): DSSMamba(
                      (in_proj): Linear(in_features=256, out_features=1024, bias=False)
                      (in_proj_xy): Linear(in_features=256, out_features=1024, bias=False)
                      (act_f): SiLU()
                      (act_b): SiLU()
                      (x_proj_f): Linear(in_features=256, out_features=24, bias=False)
                      (x_proj_b): Linear(in_features=256, out_features=24, bias=False)
                      (dt_proj_f): Linear(in_features=16, out_features=256, bias=True)
                      (dt_proj_b): Linear(in_features=16, out_features=256, bias=True)
                      (act_f_xy): SiLU()
                      (act_b_xy): SiLU()
                      (x_proj_f_xy): Linear(in_features=256, out_features=24, bias=False)
                      (x_proj_b_xy): Linear(in_features=256, out_features=24, bias=False)
                      (dt_proj_f_xy): Linear(in_features=16, out_features=256, bias=True)
                      (dt_proj_b_xy): Linear(in_features=16, out_features=256, bias=True)
                      (out_proj): Linear(in_features=1024, out_features=256, bias=False)
                      (global_proj): Linear(in_features=1024, out_features=1024, bias=True)
                    )
                    (dropout): DropPath(drop_prob=0.100)
                    (norm): Identity()
                  )
                )
              )
              (1): FUTR3DAttention(
                (dropout): Dropout(p=0.1, inplace=False)
                (sampling_offsets): Linear(in_features=256, out_features=256, bias=True)
                (attention_weights): Linear(in_features=256, out_features=128, bias=True)
                (value_proj): Linear(in_features=256, out_features=256, bias=True)
                (output_proj): Linear(in_features=256, out_features=256, bias=True)
              )
            )
            (ffns): ModuleList(
              (0): FFN(
                (activate): ReLU(inplace=True)
                (layers): Sequential(
                  (0): Sequential(
                    (0): Linear(in_features=256, out_features=1024, bias=True)
                    (1): ReLU(inplace=True)
                    (2): Dropout(p=0.1, inplace=False)
                  )
                  (1): Linear(in_features=1024, out_features=256, bias=True)
                  (2): Dropout(p=0.1, inplace=False)
                )
                (dropout_layer): Identity()
              )
            )
            (norms): ModuleList(
              (0): LayerNorm((256,), eps=1e-05, elementwise_affine=True)
              (1): LayerNorm((256,), eps=1e-05, elementwise_affine=True)
              (2): LayerNorm((256,), eps=1e-05, elementwise_affine=True)
            )
          )
          (1): DetrTransformerDecoderLayer(
            (attentions): ModuleList(
              (0): DSS(
                (layers): ModuleList(
                  (0): ModuleDict(
                    (mamba): DSSMamba(
                      (in_proj): Linear(in_features=256, out_features=1024, bias=False)
                      (in_proj_xy): Linear(in_features=256, out_features=1024, bias=False)
                      (act_f): SiLU()
                      (act_b): SiLU()
                      (x_proj_f): Linear(in_features=256, out_features=24, bias=False)
                      (x_proj_b): Linear(in_features=256, out_features=24, bias=False)
                      (dt_proj_f): Linear(in_features=16, out_features=256, bias=True)
                      (dt_proj_b): Linear(in_features=16, out_features=256, bias=True)
                      (act_f_xy): SiLU()
                      (act_b_xy): SiLU()
                      (x_proj_f_xy): Linear(in_features=256, out_features=24, bias=False)
                      (x_proj_b_xy): Linear(in_features=256, out_features=24, bias=False)
                      (dt_proj_f_xy): Linear(in_features=16, out_features=256, bias=True)
                      (dt_proj_b_xy): Linear(in_features=16, out_features=256, bias=True)
                      (out_proj): Linear(in_features=1024, out_features=256, bias=False)
                      (global_proj): Linear(in_features=1024, out_features=1024, bias=True)
                    )
                    (dropout): Identity()
                    (norm): LayerNorm((256,), eps=1e-05, elementwise_affine=True)
                  )
                  (1): ModuleDict(
                    (mamba): DSSMamba(
                      (in_proj): Linear(in_features=256, out_features=1024, bias=False)
                      (in_proj_xy): Linear(in_features=256, out_features=1024, bias=False)
                      (act_f): SiLU()
                      (act_b): SiLU()
                      (x_proj_f): Linear(in_features=256, out_features=24, bias=False)
                      (x_proj_b): Linear(in_features=256, out_features=24, bias=False)
                      (dt_proj_f): Linear(in_features=16, out_features=256, bias=True)
                      (dt_proj_b): Linear(in_features=16, out_features=256, bias=True)
                      (act_f_xy): SiLU()
                      (act_b_xy): SiLU()
                      (x_proj_f_xy): Linear(in_features=256, out_features=24, bias=False)
                      (x_proj_b_xy): Linear(in_features=256, out_features=24, bias=False)
                      (dt_proj_f_xy): Linear(in_features=16, out_features=256, bias=True)
                      (dt_proj_b_xy): Linear(in_features=16, out_features=256, bias=True)
                      (out_proj): Linear(in_features=1024, out_features=256, bias=False)
                      (global_proj): Linear(in_features=1024, out_features=1024, bias=True)
                    )
                    (dropout): DropPath(drop_prob=0.100)
                    (norm): Identity()
                  )
                )
              )
              (1): FUTR3DAttention(
                (dropout): Dropout(p=0.1, inplace=False)
                (sampling_offsets): Linear(in_features=256, out_features=256, bias=True)
                (attention_weights): Linear(in_features=256, out_features=128, bias=True)
                (value_proj): Linear(in_features=256, out_features=256, bias=True)
                (output_proj): Linear(in_features=256, out_features=256, bias=True)
              )
            )
            (ffns): ModuleList(
              (0): FFN(
                (activate): ReLU(inplace=True)
                (layers): Sequential(
                  (0): Sequential(
                    (0): Linear(in_features=256, out_features=1024, bias=True)
                    (1): ReLU(inplace=True)
                    (2): Dropout(p=0.1, inplace=False)
                  )
                  (1): Linear(in_features=1024, out_features=256, bias=True)
                  (2): Dropout(p=0.1, inplace=False)
                )
                (dropout_layer): Identity()
              )
            )
            (norms): ModuleList(
              (0): LayerNorm((256,), eps=1e-05, elementwise_affine=True)
              (1): LayerNorm((256,), eps=1e-05, elementwise_affine=True)
              (2): LayerNorm((256,), eps=1e-05, elementwise_affine=True)
            )
          )
          (2): DetrTransformerDecoderLayer(
            (attentions): ModuleList(
              (0): DSS(
                (layers): ModuleList(
                  (0): ModuleDict(
                    (mamba): DSSMamba(
                      (in_proj): Linear(in_features=256, out_features=1024, bias=False)
                      (in_proj_xy): Linear(in_features=256, out_features=1024, bias=False)
                      (act_f): SiLU()
                      (act_b): SiLU()
                      (x_proj_f): Linear(in_features=256, out_features=24, bias=False)
                      (x_proj_b): Linear(in_features=256, out_features=24, bias=False)
                      (dt_proj_f): Linear(in_features=16, out_features=256, bias=True)
                      (dt_proj_b): Linear(in_features=16, out_features=256, bias=True)
                      (act_f_xy): SiLU()
                      (act_b_xy): SiLU()
                      (x_proj_f_xy): Linear(in_features=256, out_features=24, bias=False)
                      (x_proj_b_xy): Linear(in_features=256, out_features=24, bias=False)
                      (dt_proj_f_xy): Linear(in_features=16, out_features=256, bias=True)
                      (dt_proj_b_xy): Linear(in_features=16, out_features=256, bias=True)
                      (out_proj): Linear(in_features=1024, out_features=256, bias=False)
                      (global_proj): Linear(in_features=1024, out_features=1024, bias=True)
                    )
                    (dropout): Identity()
                    (norm): LayerNorm((256,), eps=1e-05, elementwise_affine=True)
                  )
                  (1): ModuleDict(
                    (mamba): DSSMamba(
                      (in_proj): Linear(in_features=256, out_features=1024, bias=False)
                      (in_proj_xy): Linear(in_features=256, out_features=1024, bias=False)
                      (act_f): SiLU()
                      (act_b): SiLU()
                      (x_proj_f): Linear(in_features=256, out_features=24, bias=False)
                      (x_proj_b): Linear(in_features=256, out_features=24, bias=False)
                      (dt_proj_f): Linear(in_features=16, out_features=256, bias=True)
                      (dt_proj_b): Linear(in_features=16, out_features=256, bias=True)
                      (act_f_xy): SiLU()
                      (act_b_xy): SiLU()
                      (x_proj_f_xy): Linear(in_features=256, out_features=24, bias=False)
                      (x_proj_b_xy): Linear(in_features=256, out_features=24, bias=False)
                      (dt_proj_f_xy): Linear(in_features=16, out_features=256, bias=True)
                      (dt_proj_b_xy): Linear(in_features=16, out_features=256, bias=True)
                      (out_proj): Linear(in_features=1024, out_features=256, bias=False)
                      (global_proj): Linear(in_features=1024, out_features=1024, bias=True)
                    )
                    (dropout): DropPath(drop_prob=0.100)
                    (norm): Identity()
                  )
                )
              )
              (1): FUTR3DAttention(
                (dropout): Dropout(p=0.1, inplace=False)
                (sampling_offsets): Linear(in_features=256, out_features=256, bias=True)
                (attention_weights): Linear(in_features=256, out_features=128, bias=True)
                (value_proj): Linear(in_features=256, out_features=256, bias=True)
                (output_proj): Linear(in_features=256, out_features=256, bias=True)
              )
            )
            (ffns): ModuleList(
              (0): FFN(
                (activate): ReLU(inplace=True)
                (layers): Sequential(
                  (0): Sequential(
                    (0): Linear(in_features=256, out_features=1024, bias=True)
                    (1): ReLU(inplace=True)
                    (2): Dropout(p=0.1, inplace=False)
                  )
                  (1): Linear(in_features=1024, out_features=256, bias=True)
                  (2): Dropout(p=0.1, inplace=False)
                )
                (dropout_layer): Identity()
              )
            )
            (norms): ModuleList(
              (0): LayerNorm((256,), eps=1e-05, elementwise_affine=True)
              (1): LayerNorm((256,), eps=1e-05, elementwise_affine=True)
              (2): LayerNorm((256,), eps=1e-05, elementwise_affine=True)
            )
          )
          (3): DetrTransformerDecoderLayer(
            (attentions): ModuleList(
              (0): DSS(
                (layers): ModuleList(
                  (0): ModuleDict(
                    (mamba): DSSMamba(
                      (in_proj): Linear(in_features=256, out_features=1024, bias=False)
                      (in_proj_xy): Linear(in_features=256, out_features=1024, bias=False)
                      (act_f): SiLU()
                      (act_b): SiLU()
                      (x_proj_f): Linear(in_features=256, out_features=24, bias=False)
                      (x_proj_b): Linear(in_features=256, out_features=24, bias=False)
                      (dt_proj_f): Linear(in_features=16, out_features=256, bias=True)
                      (dt_proj_b): Linear(in_features=16, out_features=256, bias=True)
                      (act_f_xy): SiLU()
                      (act_b_xy): SiLU()
                      (x_proj_f_xy): Linear(in_features=256, out_features=24, bias=False)
                      (x_proj_b_xy): Linear(in_features=256, out_features=24, bias=False)
                      (dt_proj_f_xy): Linear(in_features=16, out_features=256, bias=True)
                      (dt_proj_b_xy): Linear(in_features=16, out_features=256, bias=True)
                      (out_proj): Linear(in_features=1024, out_features=256, bias=False)
                      (global_proj): Linear(in_features=1024, out_features=1024, bias=True)
                    )
                    (dropout): Identity()
                    (norm): LayerNorm((256,), eps=1e-05, elementwise_affine=True)
                  )
                  (1): ModuleDict(
                    (mamba): DSSMamba(
                      (in_proj): Linear(in_features=256, out_features=1024, bias=False)
                      (in_proj_xy): Linear(in_features=256, out_features=1024, bias=False)
                      (act_f): SiLU()
                      (act_b): SiLU()
                      (x_proj_f): Linear(in_features=256, out_features=24, bias=False)
                      (x_proj_b): Linear(in_features=256, out_features=24, bias=False)
                      (dt_proj_f): Linear(in_features=16, out_features=256, bias=True)
                      (dt_proj_b): Linear(in_features=16, out_features=256, bias=True)
                      (act_f_xy): SiLU()
                      (act_b_xy): SiLU()
                      (x_proj_f_xy): Linear(in_features=256, out_features=24, bias=False)
                      (x_proj_b_xy): Linear(in_features=256, out_features=24, bias=False)
                      (dt_proj_f_xy): Linear(in_features=16, out_features=256, bias=True)
                      (dt_proj_b_xy): Linear(in_features=16, out_features=256, bias=True)
                      (out_proj): Linear(in_features=1024, out_features=256, bias=False)
                      (global_proj): Linear(in_features=1024, out_features=1024, bias=True)
                    )
                    (dropout): DropPath(drop_prob=0.100)
                    (norm): Identity()
                  )
                )
              )
              (1): FUTR3DAttention(
                (dropout): Dropout(p=0.1, inplace=False)
                (sampling_offsets): Linear(in_features=256, out_features=256, bias=True)
                (attention_weights): Linear(in_features=256, out_features=128, bias=True)
                (value_proj): Linear(in_features=256, out_features=256, bias=True)
                (output_proj): Linear(in_features=256, out_features=256, bias=True)
              )
            )
            (ffns): ModuleList(
              (0): FFN(
                (activate): ReLU(inplace=True)
                (layers): Sequential(
                  (0): Sequential(
                    (0): Linear(in_features=256, out_features=1024, bias=True)
                    (1): ReLU(inplace=True)
                    (2): Dropout(p=0.1, inplace=False)
                  )
                  (1): Linear(in_features=1024, out_features=256, bias=True)
                  (2): Dropout(p=0.1, inplace=False)
                )
                (dropout_layer): Identity()
              )
            )
            (norms): ModuleList(
              (0): LayerNorm((256,), eps=1e-05, elementwise_affine=True)
              (1): LayerNorm((256,), eps=1e-05, elementwise_affine=True)
              (2): LayerNorm((256,), eps=1e-05, elementwise_affine=True)
            )
          )
          (4): DetrTransformerDecoderLayer(
            (attentions): ModuleList(
              (0): DSS(
                (layers): ModuleList(
                  (0): ModuleDict(
                    (mamba): DSSMamba(
                      (in_proj): Linear(in_features=256, out_features=1024, bias=False)
                      (in_proj_xy): Linear(in_features=256, out_features=1024, bias=False)
                      (act_f): SiLU()
                      (act_b): SiLU()
                      (x_proj_f): Linear(in_features=256, out_features=24, bias=False)
                      (x_proj_b): Linear(in_features=256, out_features=24, bias=False)
                      (dt_proj_f): Linear(in_features=16, out_features=256, bias=True)
                      (dt_proj_b): Linear(in_features=16, out_features=256, bias=True)
                      (act_f_xy): SiLU()
                      (act_b_xy): SiLU()
                      (x_proj_f_xy): Linear(in_features=256, out_features=24, bias=False)
                      (x_proj_b_xy): Linear(in_features=256, out_features=24, bias=False)
                      (dt_proj_f_xy): Linear(in_features=16, out_features=256, bias=True)
                      (dt_proj_b_xy): Linear(in_features=16, out_features=256, bias=True)
                      (out_proj): Linear(in_features=1024, out_features=256, bias=False)
                      (global_proj): Linear(in_features=1024, out_features=1024, bias=True)
                    )
                    (dropout): Identity()
                    (norm): LayerNorm((256,), eps=1e-05, elementwise_affine=True)
                  )
                  (1): ModuleDict(
                    (mamba): DSSMamba(
                      (in_proj): Linear(in_features=256, out_features=1024, bias=False)
                      (in_proj_xy): Linear(in_features=256, out_features=1024, bias=False)
                      (act_f): SiLU()
                      (act_b): SiLU()
                      (x_proj_f): Linear(in_features=256, out_features=24, bias=False)
                      (x_proj_b): Linear(in_features=256, out_features=24, bias=False)
                      (dt_proj_f): Linear(in_features=16, out_features=256, bias=True)
                      (dt_proj_b): Linear(in_features=16, out_features=256, bias=True)
                      (act_f_xy): SiLU()
                      (act_b_xy): SiLU()
                      (x_proj_f_xy): Linear(in_features=256, out_features=24, bias=False)
                      (x_proj_b_xy): Linear(in_features=256, out_features=24, bias=False)
                      (dt_proj_f_xy): Linear(in_features=16, out_features=256, bias=True)
                      (dt_proj_b_xy): Linear(in_features=16, out_features=256, bias=True)
                      (out_proj): Linear(in_features=1024, out_features=256, bias=False)
                      (global_proj): Linear(in_features=1024, out_features=1024, bias=True)
                    )
                    (dropout): DropPath(drop_prob=0.100)
                    (norm): Identity()
                  )
                )
              )
              (1): FUTR3DAttention(
                (dropout): Dropout(p=0.1, inplace=False)
                (sampling_offsets): Linear(in_features=256, out_features=256, bias=True)
                (attention_weights): Linear(in_features=256, out_features=128, bias=True)
                (value_proj): Linear(in_features=256, out_features=256, bias=True)
                (output_proj): Linear(in_features=256, out_features=256, bias=True)
              )
            )
            (ffns): ModuleList(
              (0): FFN(
                (activate): ReLU(inplace=True)
                (layers): Sequential(
                  (0): Sequential(
                    (0): Linear(in_features=256, out_features=1024, bias=True)
                    (1): ReLU(inplace=True)
                    (2): Dropout(p=0.1, inplace=False)
                  )
                  (1): Linear(in_features=1024, out_features=256, bias=True)
                  (2): Dropout(p=0.1, inplace=False)
                )
                (dropout_layer): Identity()
              )
            )
            (norms): ModuleList(
              (0): LayerNorm((256,), eps=1e-05, elementwise_affine=True)
              (1): LayerNorm((256,), eps=1e-05, elementwise_affine=True)
              (2): LayerNorm((256,), eps=1e-05, elementwise_affine=True)
            )
          )
          (5): DetrTransformerDecoderLayer(
            (attentions): ModuleList(
              (0): DSS(
                (layers): ModuleList(
                  (0): ModuleDict(
                    (mamba): DSSMamba(
                      (in_proj): Linear(in_features=256, out_features=1024, bias=False)
                      (in_proj_xy): Linear(in_features=256, out_features=1024, bias=False)
                      (act_f): SiLU()
                      (act_b): SiLU()
                      (x_proj_f): Linear(in_features=256, out_features=24, bias=False)
                      (x_proj_b): Linear(in_features=256, out_features=24, bias=False)
                      (dt_proj_f): Linear(in_features=16, out_features=256, bias=True)
                      (dt_proj_b): Linear(in_features=16, out_features=256, bias=True)
                      (act_f_xy): SiLU()
                      (act_b_xy): SiLU()
                      (x_proj_f_xy): Linear(in_features=256, out_features=24, bias=False)
                      (x_proj_b_xy): Linear(in_features=256, out_features=24, bias=False)
                      (dt_proj_f_xy): Linear(in_features=16, out_features=256, bias=True)
                      (dt_proj_b_xy): Linear(in_features=16, out_features=256, bias=True)
                      (out_proj): Linear(in_features=1024, out_features=256, bias=False)
                      (global_proj): Linear(in_features=1024, out_features=1024, bias=True)
                    )
                    (dropout): Identity()
                    (norm): LayerNorm((256,), eps=1e-05, elementwise_affine=True)
                  )
                  (1): ModuleDict(
                    (mamba): DSSMamba(
                      (in_proj): Linear(in_features=256, out_features=1024, bias=False)
                      (in_proj_xy): Linear(in_features=256, out_features=1024, bias=False)
                      (act_f): SiLU()
                      (act_b): SiLU()
                      (x_proj_f): Linear(in_features=256, out_features=24, bias=False)
                      (x_proj_b): Linear(in_features=256, out_features=24, bias=False)
                      (dt_proj_f): Linear(in_features=16, out_features=256, bias=True)
                      (dt_proj_b): Linear(in_features=16, out_features=256, bias=True)
                      (act_f_xy): SiLU()
                      (act_b_xy): SiLU()
                      (x_proj_f_xy): Linear(in_features=256, out_features=24, bias=False)
                      (x_proj_b_xy): Linear(in_features=256, out_features=24, bias=False)
                      (dt_proj_f_xy): Linear(in_features=16, out_features=256, bias=True)
                      (dt_proj_b_xy): Linear(in_features=16, out_features=256, bias=True)
                      (out_proj): Linear(in_features=1024, out_features=256, bias=False)
                      (global_proj): Linear(in_features=1024, out_features=1024, bias=True)
                    )
                    (dropout): DropPath(drop_prob=0.100)
                    (norm): Identity()
                  )
                )
              )
              (1): FUTR3DAttention(
                (dropout): Dropout(p=0.1, inplace=False)
                (sampling_offsets): Linear(in_features=256, out_features=256, bias=True)
                (attention_weights): Linear(in_features=256, out_features=128, bias=True)
                (value_proj): Linear(in_features=256, out_features=256, bias=True)
                (output_proj): Linear(in_features=256, out_features=256, bias=True)
              )
            )
            (ffns): ModuleList(
              (0): FFN(
                (activate): ReLU(inplace=True)
                (layers): Sequential(
                  (0): Sequential(
                    (0): Linear(in_features=256, out_features=1024, bias=True)
                    (1): ReLU(inplace=True)
                    (2): Dropout(p=0.1, inplace=False)
                  )
                  (1): Linear(in_features=1024, out_features=256, bias=True)
                  (2): Dropout(p=0.1, inplace=False)
                )
                (dropout_layer): Identity()
              )
            )
            (norms): ModuleList(
              (0): LayerNorm((256,), eps=1e-05, elementwise_affine=True)
              (1): LayerNorm((256,), eps=1e-05, elementwise_affine=True)
              (2): LayerNorm((256,), eps=1e-05, elementwise_affine=True)
            )
          )
        )
        (query_scale): MLP(
          (layers): ModuleList(
            (0): Linear(in_features=256, out_features=256, bias=True)
            (1): Linear(in_features=256, out_features=256, bias=True)
          )
        )
        (ref_point_head): MLP(
          (layers): ModuleList(
            (0): Linear(in_features=384, out_features=256, bias=True)
            (1): Linear(in_features=256, out_features=256, bias=True)
          )
        )
      )
    )
    (cls_branches): ModuleList(
      (0): Linear(in_features=256, out_features=10, bias=True)
      (1): Linear(in_features=256, out_features=10, bias=True)
      (2): Linear(in_features=256, out_features=10, bias=True)
      (3): Linear(in_features=256, out_features=10, bias=True)
      (4): Linear(in_features=256, out_features=10, bias=True)
      (5): Linear(in_features=256, out_features=10, bias=True)
    )
    (reg_branches): ModuleList(
      (0): Sequential(
        (0): Linear(in_features=256, out_features=256, bias=True)
        (1): ReLU()
        (2): Linear(in_features=256, out_features=256, bias=True)
        (3): ReLU()
        (4): Linear(in_features=256, out_features=10, bias=True)
      )
      (1): Sequential(
        (0): Linear(in_features=256, out_features=256, bias=True)
        (1): ReLU()
        (2): Linear(in_features=256, out_features=256, bias=True)
        (3): ReLU()
        (4): Linear(in_features=256, out_features=10, bias=True)
      )
      (2): Sequential(
        (0): Linear(in_features=256, out_features=256, bias=True)
        (1): ReLU()
        (2): Linear(in_features=256, out_features=256, bias=True)
        (3): ReLU()
        (4): Linear(in_features=256, out_features=10, bias=True)
      )
      (3): Sequential(
        (0): Linear(in_features=256, out_features=256, bias=True)
        (1): ReLU()
        (2): Linear(in_features=256, out_features=256, bias=True)
        (3): ReLU()
        (4): Linear(in_features=256, out_features=10, bias=True)
      )
      (4): Sequential(
        (0): Linear(in_features=256, out_features=256, bias=True)
        (1): ReLU()
        (2): Linear(in_features=256, out_features=256, bias=True)
        (3): ReLU()
        (4): Linear(in_features=256, out_features=10, bias=True)
      )
      (5): Sequential(
        (0): Linear(in_features=256, out_features=256, bias=True)
        (1): ReLU()
        (2): Linear(in_features=256, out_features=256, bias=True)
        (3): ReLU()
        (4): Linear(in_features=256, out_features=10, bias=True)
      )
    )
    (tgt_embed): Embedding(900, 256)
    (refpoint_embed): Embedding(900, 3)
    (aux_head): CenterHead(
      (loss_cls): GaussianFocalLoss()
      (loss_bbox): L1Loss()
      (shared_conv): ConvModule(
        (conv): Conv2d(512, 64, kernel_size=(3, 3), stride=(1, 1), padding=(1, 1), bias=False)
        (bn): BatchNorm2d(64, eps=1e-05, momentum=0.1, affine=True, track_running_stats=True)
        (activate): ReLU(inplace=True)
      )
      (task_heads): ModuleList(
        (0): SeparateHead(
          (reg): Sequential(
            (0): ConvModule(
              (conv): Conv2d(64, 64, kernel_size=(3, 3), stride=(1, 1), padding=(1, 1), bias=False)
              (bn): BatchNorm2d(64, eps=1e-05, momentum=0.1, affine=True, track_running_stats=True)
              (activate): ReLU(inplace=True)
            )
            (1): Conv2d(64, 2, kernel_size=(3, 3), stride=(1, 1), padding=(1, 1))
          )
          (height): Sequential(
            (0): ConvModule(
              (conv): Conv2d(64, 64, kernel_size=(3, 3), stride=(1, 1), padding=(1, 1), bias=False)
              (bn): BatchNorm2d(64, eps=1e-05, momentum=0.1, affine=True, track_running_stats=True)
              (activate): ReLU(inplace=True)
            )
            (1): Conv2d(64, 1, kernel_size=(3, 3), stride=(1, 1), padding=(1, 1))
          )
          (dim): Sequential(
            (0): ConvModule(
              (conv): Conv2d(64, 64, kernel_size=(3, 3), stride=(1, 1), padding=(1, 1), bias=False)
              (bn): BatchNorm2d(64, eps=1e-05, momentum=0.1, affine=True, track_running_stats=True)
              (activate): ReLU(inplace=True)
            )
            (1): Conv2d(64, 3, kernel_size=(3, 3), stride=(1, 1), padding=(1, 1))
          )
          (rot): Sequential(
            (0): ConvModule(
              (conv): Conv2d(64, 64, kernel_size=(3, 3), stride=(1, 1), padding=(1, 1), bias=False)
              (bn): BatchNorm2d(64, eps=1e-05, momentum=0.1, affine=True, track_running_stats=True)
              (activate): ReLU(inplace=True)
            )
            (1): Conv2d(64, 2, kernel_size=(3, 3), stride=(1, 1), padding=(1, 1))
          )
          (vel): Sequential(
            (0): ConvModule(
              (conv): Conv2d(64, 64, kernel_size=(3, 3), stride=(1, 1), padding=(1, 1), bias=False)
              (bn): BatchNorm2d(64, eps=1e-05, momentum=0.1, affine=True, track_running_stats=True)
              (activate): ReLU(inplace=True)
            )
            (1): Conv2d(64, 2, kernel_size=(3, 3), stride=(1, 1), padding=(1, 1))
          )
          (heatmap): Sequential(
            (0): ConvModule(
              (conv): Conv2d(64, 64, kernel_size=(3, 3), stride=(1, 1), padding=(1, 1), bias=False)
              (bn): BatchNorm2d(64, eps=1e-05, momentum=0.1, affine=True, track_running_stats=True)
              (activate): ReLU(inplace=True)
            )
            (1): Conv2d(64, 1, kernel_size=(3, 3), stride=(1, 1), padding=(1, 1))
          )
        )
        init_cfg={'type': 'Kaiming', 'layer': 'Conv2d'}
        (1): SeparateHead(
          (reg): Sequential(
            (0): ConvModule(
              (conv): Conv2d(64, 64, kernel_size=(3, 3), stride=(1, 1), padding=(1, 1), bias=False)
              (bn): BatchNorm2d(64, eps=1e-05, momentum=0.1, affine=True, track_running_stats=True)
              (activate): ReLU(inplace=True)
            )
            (1): Conv2d(64, 2, kernel_size=(3, 3), stride=(1, 1), padding=(1, 1))
          )
          (height): Sequential(
            (0): ConvModule(
              (conv): Conv2d(64, 64, kernel_size=(3, 3), stride=(1, 1), padding=(1, 1), bias=False)
              (bn): BatchNorm2d(64, eps=1e-05, momentum=0.1, affine=True, track_running_stats=True)
              (activate): ReLU(inplace=True)
            )
            (1): Conv2d(64, 1, kernel_size=(3, 3), stride=(1, 1), padding=(1, 1))
          )
          (dim): Sequential(
            (0): ConvModule(
              (conv): Conv2d(64, 64, kernel_size=(3, 3), stride=(1, 1), padding=(1, 1), bias=False)
              (bn): BatchNorm2d(64, eps=1e-05, momentum=0.1, affine=True, track_running_stats=True)
              (activate): ReLU(inplace=True)
            )
            (1): Conv2d(64, 3, kernel_size=(3, 3), stride=(1, 1), padding=(1, 1))
          )
          (rot): Sequential(
            (0): ConvModule(
              (conv): Conv2d(64, 64, kernel_size=(3, 3), stride=(1, 1), padding=(1, 1), bias=False)
              (bn): BatchNorm2d(64, eps=1e-05, momentum=0.1, affine=True, track_running_stats=True)
              (activate): ReLU(inplace=True)
            )
            (1): Conv2d(64, 2, kernel_size=(3, 3), stride=(1, 1), padding=(1, 1))
          )
          (vel): Sequential(
            (0): ConvModule(
              (conv): Conv2d(64, 64, kernel_size=(3, 3), stride=(1, 1), padding=(1, 1), bias=False)
              (bn): BatchNorm2d(64, eps=1e-05, momentum=0.1, affine=True, track_running_stats=True)
              (activate): ReLU(inplace=True)
            )
            (1): Conv2d(64, 2, kernel_size=(3, 3), stride=(1, 1), padding=(1, 1))
          )
          (heatmap): Sequential(
            (0): ConvModule(
              (conv): Conv2d(64, 64, kernel_size=(3, 3), stride=(1, 1), padding=(1, 1), bias=False)
              (bn): BatchNorm2d(64, eps=1e-05, momentum=0.1, affine=True, track_running_stats=True)
              (activate): ReLU(inplace=True)
            )
            (1): Conv2d(64, 2, kernel_size=(3, 3), stride=(1, 1), padding=(1, 1))
          )
        )
        init_cfg={'type': 'Kaiming', 'layer': 'Conv2d'}
        (2): SeparateHead(
          (reg): Sequential(
            (0): ConvModule(
              (conv): Conv2d(64, 64, kernel_size=(3, 3), stride=(1, 1), padding=(1, 1), bias=False)
              (bn): BatchNorm2d(64, eps=1e-05, momentum=0.1, affine=True, track_running_stats=True)
              (activate): ReLU(inplace=True)
            )
            (1): Conv2d(64, 2, kernel_size=(3, 3), stride=(1, 1), padding=(1, 1))
          )
          (height): Sequential(
            (0): ConvModule(
              (conv): Conv2d(64, 64, kernel_size=(3, 3), stride=(1, 1), padding=(1, 1), bias=False)
              (bn): BatchNorm2d(64, eps=1e-05, momentum=0.1, affine=True, track_running_stats=True)
              (activate): ReLU(inplace=True)
            )
            (1): Conv2d(64, 1, kernel_size=(3, 3), stride=(1, 1), padding=(1, 1))
          )
          (dim): Sequential(
            (0): ConvModule(
              (conv): Conv2d(64, 64, kernel_size=(3, 3), stride=(1, 1), padding=(1, 1), bias=False)
              (bn): BatchNorm2d(64, eps=1e-05, momentum=0.1, affine=True, track_running_stats=True)
              (activate): ReLU(inplace=True)
            )
            (1): Conv2d(64, 3, kernel_size=(3, 3), stride=(1, 1), padding=(1, 1))
          )
          (rot): Sequential(
            (0): ConvModule(
              (conv): Conv2d(64, 64, kernel_size=(3, 3), stride=(1, 1), padding=(1, 1), bias=False)
              (bn): BatchNorm2d(64, eps=1e-05, momentum=0.1, affine=True, track_running_stats=True)
              (activate): ReLU(inplace=True)
            )
            (1): Conv2d(64, 2, kernel_size=(3, 3), stride=(1, 1), padding=(1, 1))
          )
          (vel): Sequential(
            (0): ConvModule(
              (conv): Conv2d(64, 64, kernel_size=(3, 3), stride=(1, 1), padding=(1, 1), bias=False)
              (bn): BatchNorm2d(64, eps=1e-05, momentum=0.1, affine=True, track_running_stats=True)
              (activate): ReLU(inplace=True)
            )
            (1): Conv2d(64, 2, kernel_size=(3, 3), stride=(1, 1), padding=(1, 1))
          )
          (heatmap): Sequential(
            (0): ConvModule(
              (conv): Conv2d(64, 64, kernel_size=(3, 3), stride=(1, 1), padding=(1, 1), bias=False)
              (bn): BatchNorm2d(64, eps=1e-05, momentum=0.1, affine=True, track_running_stats=True)
              (activate): ReLU(inplace=True)
            )
            (1): Conv2d(64, 2, kernel_size=(3, 3), stride=(1, 1), padding=(1, 1))
          )
        )
        init_cfg={'type': 'Kaiming', 'layer': 'Conv2d'}
        (3): SeparateHead(
          (reg): Sequential(
            (0): ConvModule(
              (conv): Conv2d(64, 64, kernel_size=(3, 3), stride=(1, 1), padding=(1, 1), bias=False)
              (bn): BatchNorm2d(64, eps=1e-05, momentum=0.1, affine=True, track_running_stats=True)
              (activate): ReLU(inplace=True)
            )
            (1): Conv2d(64, 2, kernel_size=(3, 3), stride=(1, 1), padding=(1, 1))
          )
          (height): Sequential(
            (0): ConvModule(
              (conv): Conv2d(64, 64, kernel_size=(3, 3), stride=(1, 1), padding=(1, 1), bias=False)
              (bn): BatchNorm2d(64, eps=1e-05, momentum=0.1, affine=True, track_running_stats=True)
              (activate): ReLU(inplace=True)
            )
            (1): Conv2d(64, 1, kernel_size=(3, 3), stride=(1, 1), padding=(1, 1))
          )
          (dim): Sequential(
            (0): ConvModule(
              (conv): Conv2d(64, 64, kernel_size=(3, 3), stride=(1, 1), padding=(1, 1), bias=False)
              (bn): BatchNorm2d(64, eps=1e-05, momentum=0.1, affine=True, track_running_stats=True)
              (activate): ReLU(inplace=True)
            )
            (1): Conv2d(64, 3, kernel_size=(3, 3), stride=(1, 1), padding=(1, 1))
          )
          (rot): Sequential(
            (0): ConvModule(
              (conv): Conv2d(64, 64, kernel_size=(3, 3), stride=(1, 1), padding=(1, 1), bias=False)
              (bn): BatchNorm2d(64, eps=1e-05, momentum=0.1, affine=True, track_running_stats=True)
              (activate): ReLU(inplace=True)
            )
            (1): Conv2d(64, 2, kernel_size=(3, 3), stride=(1, 1), padding=(1, 1))
          )
          (vel): Sequential(
            (0): ConvModule(
              (conv): Conv2d(64, 64, kernel_size=(3, 3), stride=(1, 1), padding=(1, 1), bias=False)
              (bn): BatchNorm2d(64, eps=1e-05, momentum=0.1, affine=True, track_running_stats=True)
              (activate): ReLU(inplace=True)
            )
            (1): Conv2d(64, 2, kernel_size=(3, 3), stride=(1, 1), padding=(1, 1))
          )
          (heatmap): Sequential(
            (0): ConvModule(
              (conv): Conv2d(64, 64, kernel_size=(3, 3), stride=(1, 1), padding=(1, 1), bias=False)
              (bn): BatchNorm2d(64, eps=1e-05, momentum=0.1, affine=True, track_running_stats=True)
              (activate): ReLU(inplace=True)
            )
            (1): Conv2d(64, 1, kernel_size=(3, 3), stride=(1, 1), padding=(1, 1))
          )
        )
        init_cfg={'type': 'Kaiming', 'layer': 'Conv2d'}
        (4): SeparateHead(
          (reg): Sequential(
            (0): ConvModule(
              (conv): Conv2d(64, 64, kernel_size=(3, 3), stride=(1, 1), padding=(1, 1), bias=False)
              (bn): BatchNorm2d(64, eps=1e-05, momentum=0.1, affine=True, track_running_stats=True)
              (activate): ReLU(inplace=True)
            )
            (1): Conv2d(64, 2, kernel_size=(3, 3), stride=(1, 1), padding=(1, 1))
          )
          (height): Sequential(
            (0): ConvModule(
              (conv): Conv2d(64, 64, kernel_size=(3, 3), stride=(1, 1), padding=(1, 1), bias=False)
              (bn): BatchNorm2d(64, eps=1e-05, momentum=0.1, affine=True, track_running_stats=True)
              (activate): ReLU(inplace=True)
            )
            (1): Conv2d(64, 1, kernel_size=(3, 3), stride=(1, 1), padding=(1, 1))
          )
          (dim): Sequential(
            (0): ConvModule(
              (conv): Conv2d(64, 64, kernel_size=(3, 3), stride=(1, 1), padding=(1, 1), bias=False)
              (bn): BatchNorm2d(64, eps=1e-05, momentum=0.1, affine=True, track_running_stats=True)
              (activate): ReLU(inplace=True)
            )
            (1): Conv2d(64, 3, kernel_size=(3, 3), stride=(1, 1), padding=(1, 1))
          )
          (rot): Sequential(
            (0): ConvModule(
              (conv): Conv2d(64, 64, kernel_size=(3, 3), stride=(1, 1), padding=(1, 1), bias=False)
              (bn): BatchNorm2d(64, eps=1e-05, momentum=0.1, affine=True, track_running_stats=True)
              (activate): ReLU(inplace=True)
            )
            (1): Conv2d(64, 2, kernel_size=(3, 3), stride=(1, 1), padding=(1, 1))
          )
          (vel): Sequential(
            (0): ConvModule(
              (conv): Conv2d(64, 64, kernel_size=(3, 3), stride=(1, 1), padding=(1, 1), bias=False)
              (bn): BatchNorm2d(64, eps=1e-05, momentum=0.1, affine=True, track_running_stats=True)
              (activate): ReLU(inplace=True)
            )
            (1): Conv2d(64, 2, kernel_size=(3, 3), stride=(1, 1), padding=(1, 1))
          )
          (heatmap): Sequential(
            (0): ConvModule(
              (conv): Conv2d(64, 64, kernel_size=(3, 3), stride=(1, 1), padding=(1, 1), bias=False)
              (bn): BatchNorm2d(64, eps=1e-05, momentum=0.1, affine=True, track_running_stats=True)
              (activate): ReLU(inplace=True)
            )
            (1): Conv2d(64, 2, kernel_size=(3, 3), stride=(1, 1), padding=(1, 1))
          )
        )
        init_cfg={'type': 'Kaiming', 'layer': 'Conv2d'}
        (5): SeparateHead(
          (reg): Sequential(
            (0): ConvModule(
              (conv): Conv2d(64, 64, kernel_size=(3, 3), stride=(1, 1), padding=(1, 1), bias=False)
              (bn): BatchNorm2d(64, eps=1e-05, momentum=0.1, affine=True, track_running_stats=True)
              (activate): ReLU(inplace=True)
            )
            (1): Conv2d(64, 2, kernel_size=(3, 3), stride=(1, 1), padding=(1, 1))
          )
          (height): Sequential(
            (0): ConvModule(
              (conv): Conv2d(64, 64, kernel_size=(3, 3), stride=(1, 1), padding=(1, 1), bias=False)
              (bn): BatchNorm2d(64, eps=1e-05, momentum=0.1, affine=True, track_running_stats=True)
              (activate): ReLU(inplace=True)
            )
            (1): Conv2d(64, 1, kernel_size=(3, 3), stride=(1, 1), padding=(1, 1))
          )
          (dim): Sequential(
            (0): ConvModule(
              (conv): Conv2d(64, 64, kernel_size=(3, 3), stride=(1, 1), padding=(1, 1), bias=False)
              (bn): BatchNorm2d(64, eps=1e-05, momentum=0.1, affine=True, track_running_stats=True)
              (activate): ReLU(inplace=True)
            )
            (1): Conv2d(64, 3, kernel_size=(3, 3), stride=(1, 1), padding=(1, 1))
          )
          (rot): Sequential(
            (0): ConvModule(
              (conv): Conv2d(64, 64, kernel_size=(3, 3), stride=(1, 1), padding=(1, 1), bias=False)
              (bn): BatchNorm2d(64, eps=1e-05, momentum=0.1, affine=True, track_running_stats=True)
              (activate): ReLU(inplace=True)
            )
            (1): Conv2d(64, 2, kernel_size=(3, 3), stride=(1, 1), padding=(1, 1))
          )
          (vel): Sequential(
            (0): ConvModule(
              (conv): Conv2d(64, 64, kernel_size=(3, 3), stride=(1, 1), padding=(1, 1), bias=False)
              (bn): BatchNorm2d(64, eps=1e-05, momentum=0.1, affine=True, track_running_stats=True)
              (activate): ReLU(inplace=True)
            )
            (1): Conv2d(64, 2, kernel_size=(3, 3), stride=(1, 1), padding=(1, 1))
          )
          (heatmap): Sequential(
            (0): ConvModule(
              (conv): Conv2d(64, 64, kernel_size=(3, 3), stride=(1, 1), padding=(1, 1), bias=False)
              (bn): BatchNorm2d(64, eps=1e-05, momentum=0.1, affine=True, track_running_stats=True)
              (activate): ReLU(inplace=True)
            )
            (1): Conv2d(64, 2, kernel_size=(3, 3), stride=(1, 1), padding=(1, 1))
          )
        )
        init_cfg={'type': 'Kaiming', 'layer': 'Conv2d'}
      )
    )
  )
)
2025-04-23 15:36:47,560 - mmdet - INFO - Start running, host: ubuntu@ubuntu, work_dir: /home/ubuntu/jxcao/hdd/jxc/FUTR3D/work_dirs/secondmambadss_split14/second增强版
2025-04-23 15:36:47,560 - mmdet - INFO - Hooks will be executed in the following order:
…
