…
      (1): SyncBatchNorm(128, eps=0.001, momentum=0.01, affine=True, track_running_stats=True)
      (2): ReLU()
      (3): SparseConv3d(128, 128, kernel_size=[3, 1, 1], stride=[2, 1, 1], padding=[0, 0, 0], dilation=[1, 1, 1], output_padding=[0, 0, 0], bias=False, algo=ConvAlgo.MaskImplicitGemm)
      (4): SyncBatchNorm(128, eps=0.001, momentum=0.01, affine=True, track_running_stats=True)
      (5): ReLU()
    )
  )
  (pts_backbone): CascadeDEDBackbone(
    (layers): ModuleList(
      (0): DEDBackbone(
        (encoder): ModuleList(
          (0): Sequential(
            (0): BasicBlock(
              (conv1): Conv2d(256, 256, kernel_size=(3, 3), stride=(1, 1), padding=(1, 1), bias=False)
              (bn1): SyncBatchNorm(256, eps=0.001, momentum=0.01, affine=True, track_running_stats=True)
              (relu1): ReLU()
              (conv2): Conv2d(256, 256, kernel_size=(3, 3), stride=(1, 1), padding=(1, 1), bias=False)
              (bn2): SyncBatchNorm(256, eps=0.001, momentum=0.01, affine=True, track_running_stats=True)
              (relu2): ReLU()
            )
            (1): BasicBlock(
              (conv1): Conv2d(256, 256, kernel_size=(3, 3), stride=(1, 1), padding=(1, 1), bias=False)
              (bn1): SyncBatchNorm(256, eps=0.001, momentum=0.01, affine=True, track_running_stats=True)
              (relu1): ReLU()
              (conv2): Conv2d(256, 256, kernel_size=(3, 3), stride=(1, 1), padding=(1, 1), bias=False)
              (bn2): SyncBatchNorm(256, eps=0.001, momentum=0.01, affine=True, track_running_stats=True)
              (relu2): ReLU()
            )
          )
          (1): Sequential(
            (0): BasicBlock(
              (conv1): Conv2d(256, 256, kernel_size=(3, 3), stride=(2, 2), padding=(1, 1), bias=False)
              (bn1): SyncBatchNorm(256, eps=0.001, momentum=0.01, affine=True, track_running_stats=True)
              (relu1): ReLU()
              (conv2): Conv2d(256, 256, kernel_size=(3, 3), stride=(1, 1), padding=(1, 1), bias=False)
              (bn2): SyncBatchNorm(256, eps=0.001, momentum=0.01, affine=True, track_running_stats=True)
              (relu2): ReLU()
              (downsample_layer): Sequential(
                (0): Conv2d(256, 256, kernel_size=(1, 1), stride=(2, 2), bias=False)
                (1): SyncBatchNorm(256, eps=0.001, momentum=0.01, affine=True, track_running_stats=True)
              )
            )
            (1): BasicBlock(
              (conv1): Conv2d(256, 256, kernel_size=(3, 3), stride=(1, 1), padding=(1, 1), bias=False)
              (bn1): SyncBatchNorm(256, eps=0.001, momentum=0.01, affine=True, track_running_stats=True)
              (relu1): ReLU()
              (conv2): Conv2d(256, 256, kernel_size=(3, 3), stride=(1, 1), padding=(1, 1), bias=False)
              (bn2): SyncBatchNorm(256, eps=0.001, momentum=0.01, affine=True, track_running_stats=True)
              (relu2): ReLU()
            )
          )
          (2): Sequential(
            (0): BasicBlock(
              (conv1): Conv2d(256, 256, kernel_size=(3, 3), stride=(2, 2), padding=(1, 1), bias=False)
              (bn1): SyncBatchNorm(256, eps=0.001, momentum=0.01, affine=True, track_running_stats=True)
              (relu1): ReLU()
              (conv2): Conv2d(256, 256, kernel_size=(3, 3), stride=(1, 1), padding=(1, 1), bias=False)
              (bn2): SyncBatchNorm(256, eps=0.001, momentum=0.01, affine=True, track_running_stats=True)
              (relu2): ReLU()
              (downsample_layer): Sequential(
                (0): Conv2d(256, 256, kernel_size=(1, 1), stride=(2, 2), bias=False)
                (1): SyncBatchNorm(256, eps=0.001, momentum=0.01, affine=True, track_running_stats=True)
              )
            )
            (1): BasicBlock(
              (conv1): Conv2d(256, 256, kernel_size=(3, 3), stride=(1, 1), padding=(1, 1), bias=False)
              (bn1): SyncBatchNorm(256, eps=0.001, momentum=0.01, affine=True, track_running_stats=True)
              (relu1): ReLU()
              (conv2): Conv2d(256, 256, kernel_size=(3, 3), stride=(1, 1), padding=(1, 1), bias=False)
              (bn2): SyncBatchNorm(256, eps=0.001, momentum=0.01, affine=True, track_running_stats=True)
              (relu2): ReLU()
            )
          )
        )
        (decoder): ModuleList(
          (0): Sequential(
            (0): ConvTranspose2d(256, 256, kernel_size=(2, 2), stride=(2, 2), bias=False)
            (1): SyncBatchNorm(256, eps=0.001, momentum=0.01, affine=True, track_running_stats=True)
            (2): ReLU()
          )
          (1): Sequential(
            (0): ConvTranspose2d(256, 256, kernel_size=(2, 2), stride=(2, 2), bias=False)
            (1): SyncBatchNorm(256, eps=0.001, momentum=0.01, affine=True, track_running_stats=True)
            (2): ReLU()
          )
        )
        (decoder_norm): ModuleList(
          (0): SyncBatchNorm(256, eps=0.001, momentum=0.01, affine=True, track_running_stats=True)
          (1): SyncBatchNorm(256, eps=0.001, momentum=0.01, affine=True, track_running_stats=True)
        )
      )
      (1): DEDBackbone(
        (encoder): ModuleList(
          (0): Sequential(
            (0): BasicBlock(
              (conv1): Conv2d(256, 256, kernel_size=(3, 3), stride=(1, 1), padding=(1, 1), bias=False)
              (bn1): SyncBatchNorm(256, eps=0.001, momentum=0.01, affine=True, track_running_stats=True)
              (relu1): ReLU()
              (conv2): Conv2d(256, 256, kernel_size=(3, 3), stride=(1, 1), padding=(1, 1), bias=False)
              (bn2): SyncBatchNorm(256, eps=0.001, momentum=0.01, affine=True, track_running_stats=True)
              (relu2): ReLU()
            )
            (1): BasicBlock(
              (conv1): Conv2d(256, 256, kernel_size=(3, 3), stride=(1, 1), padding=(1, 1), bias=False)
              (bn1): SyncBatchNorm(256, eps=0.001, momentum=0.01, affine=True, track_running_stats=True)
              (relu1): ReLU()
              (conv2): Conv2d(256, 256, kernel_size=(3, 3), stride=(1, 1), padding=(1, 1), bias=False)
              (bn2): SyncBatchNorm(256, eps=0.001, momentum=0.01, affine=True, track_running_stats=True)
              (relu2): ReLU()
            )
          )
          (1): Sequential(
            (0): BasicBlock(
              (conv1): Conv2d(256, 256, kernel_size=(3, 3), stride=(2, 2), padding=(1, 1), bias=False)
              (bn1): SyncBatchNorm(256, eps=0.001, momentum=0.01, affine=True, track_running_stats=True)
              (relu1): ReLU()
              (conv2): Conv2d(256, 256, kernel_size=(3, 3), stride=(1, 1), padding=(1, 1), bias=False)
              (bn2): SyncBatchNorm(256, eps=0.001, momentum=0.01, affine=True, track_running_stats=True)
              (relu2): ReLU()
              (downsample_layer): Sequential(
                (0): Conv2d(256, 256, kernel_size=(1, 1), stride=(2, 2), bias=False)
                (1): SyncBatchNorm(256, eps=0.001, momentum=0.01, affine=True, track_running_stats=True)
              )
            )
            (1): BasicBlock(
              (conv1): Conv2d(256, 256, kernel_size=(3, 3), stride=(1, 1), padding=(1, 1), bias=False)
              (bn1): SyncBatchNorm(256, eps=0.001, momentum=0.01, affine=True, track_running_stats=True)
              (relu1): ReLU()
              (conv2): Conv2d(256, 256, kernel_size=(3, 3), stride=(1, 1), padding=(1, 1), bias=False)
              (bn2): SyncBatchNorm(256, eps=0.001, momentum=0.01, affine=True, track_running_stats=True)
              (relu2): ReLU()
            )
          )
          (2): Sequential(
            (0): BasicBlock(
              (conv1): Conv2d(256, 256, kernel_size=(3, 3), stride=(2, 2), padding=(1, 1), bias=False)
              (bn1): SyncBatchNorm(256, eps=0.001, momentum=0.01, affine=True, track_running_stats=True)
              (relu1): ReLU()
              (conv2): Conv2d(256, 256, kernel_size=(3, 3), stride=(1, 1), padding=(1, 1), bias=False)
              (bn2): SyncBatchNorm(256, eps=0.001, momentum=0.01, affine=True, track_running_stats=True)
              (relu2): ReLU()
              (downsample_layer): Sequential(
                (0): Conv2d(256, 256, kernel_size=(1, 1), stride=(2, 2), bias=False)
                (1): SyncBatchNorm(256, eps=0.001, momentum=0.01, affine=True, track_running_stats=True)
              )
            )
            (1): BasicBlock(
              (conv1): Conv2d(256, 256, kernel_size=(3, 3), stride=(1, 1), padding=(1, 1), bias=False)
              (bn1): SyncBatchNorm(256, eps=0.001, momentum=0.01, affine=True, track_running_stats=True)
              (relu1): ReLU()
              (conv2): Conv2d(256, 256, kernel_size=(3, 3), stride=(1, 1), padding=(1, 1), bias=False)
              (bn2): SyncBatchNorm(256, eps=0.001, momentum=0.01, affine=True, track_running_stats=True)
              (relu2): ReLU()
            )
          )
        )
        (decoder): ModuleList(
          (0): Sequential(
            (0): ConvTranspose2d(256, 256, kernel_size=(2, 2), stride=(2, 2), bias=False)
            (1): SyncBatchNorm(256, eps=0.001, momentum=0.01, affine=True, track_running_stats=True)
            (2): ReLU()
          )
          (1): Sequential(
            (0): ConvTranspose2d(256, 256, kernel_size=(2, 2), stride=(2, 2), bias=False)
            (1): SyncBatchNorm(256, eps=0.001, momentum=0.01, affine=True, track_running_stats=True)
            (2): ReLU()
          )
        )
        (decoder_norm): ModuleList(
          (0): SyncBatchNorm(256, eps=0.001, momentum=0.01, affine=True, track_running_stats=True)
          (1): SyncBatchNorm(256, eps=0.001, momentum=0.01, affine=True, track_running_stats=True)
        )
      )
      (2): DEDBackbone(
        (encoder): ModuleList(
          (0): Sequential(
            (0): BasicBlock(
              (conv1): Conv2d(256, 256, kernel_size=(3, 3), stride=(1, 1), padding=(1, 1), bias=False)
              (bn1): SyncBatchNorm(256, eps=0.001, momentum=0.01, affine=True, track_running_stats=True)
              (relu1): ReLU()
              (conv2): Conv2d(256, 256, kernel_size=(3, 3), stride=(1, 1), padding=(1, 1), bias=False)
              (bn2): SyncBatchNorm(256, eps=0.001, momentum=0.01, affine=True, track_running_stats=True)
              (relu2): ReLU()
            )
            (1): BasicBlock(
              (conv1): Conv2d(256, 256, kernel_size=(3, 3), stride=(1, 1), padding=(1, 1), bias=False)
              (bn1): SyncBatchNorm(256, eps=0.001, momentum=0.01, affine=True, track_running_stats=True)
              (relu1): ReLU()
              (conv2): Conv2d(256, 256, kernel_size=(3, 3), stride=(1, 1), padding=(1, 1), bias=False)
              (bn2): SyncBatchNorm(256, eps=0.001, momentum=0.01, affine=True, track_running_stats=True)
              (relu2): ReLU()
            )
          )
          (1): Sequential(
            (0): BasicBlock(
              (conv1): Conv2d(256, 256, kernel_size=(3, 3), stride=(2, 2), padding=(1, 1), bias=False)
              (bn1): SyncBatchNorm(256, eps=0.001, momentum=0.01, affine=True, track_running_stats=True)
              (relu1): ReLU()
              (conv2): Conv2d(256, 256, kernel_size=(3, 3), stride=(1, 1), padding=(1, 1), bias=False)
              (bn2): SyncBatchNorm(256, eps=0.001, momentum=0.01, affine=True, track_running_stats=True)
              (relu2): ReLU()
              (downsample_layer): Sequential(
                (0): Conv2d(256, 256, kernel_size=(1, 1), stride=(2, 2), bias=False)
                (1): SyncBatchNorm(256, eps=0.001, momentum=0.01, affine=True, track_running_stats=True)
              )
            )
            (1): BasicBlock(
              (conv1): Conv2d(256, 256, kernel_size=(3, 3), stride=(1, 1), padding=(1, 1), bias=False)
              (bn1): SyncBatchNorm(256, eps=0.001, momentum=0.01, affine=True, track_running_stats=True)
              (relu1): ReLU()
              (conv2): Conv2d(256, 256, kernel_size=(3, 3), stride=(1, 1), padding=(1, 1), bias=False)
              (bn2): SyncBatchNorm(256, eps=0.001, momentum=0.01, affine=True, track_running_stats=True)
              (relu2): ReLU()
            )
          )
          (2): Sequential(
            (0): BasicBlock(
              (conv1): Conv2d(256, 256, kernel_size=(3, 3), stride=(2, 2), padding=(1, 1), bias=False)
              (bn1): SyncBatchNorm(256, eps=0.001, momentum=0.01, affine=True, track_running_stats=True)
              (relu1): ReLU()
              (conv2): Conv2d(256, 256, kernel_size=(3, 3), stride=(1, 1), padding=(1, 1), bias=False)
              (bn2): SyncBatchNorm(256, eps=0.001, momentum=0.01, affine=True, track_running_stats=True)
              (relu2): ReLU()
              (downsample_layer): Sequential(
                (0): Conv2d(256, 256, kernel_size=(1, 1), stride=(2, 2), bias=False)
                (1): SyncBatchNorm(256, eps=0.001, momentum=0.01, affine=True, track_running_stats=True)
              )
            )
            (1): BasicBlock(
              (conv1): Conv2d(256, 256, kernel_size=(3, 3), stride=(1, 1), padding=(1, 1), bias=False)
              (bn1): SyncBatchNorm(256, eps=0.001, momentum=0.01, affine=True, track_running_stats=True)
              (relu1): ReLU()
              (conv2): Conv2d(256, 256, kernel_size=(3, 3), stride=(1, 1), padding=(1, 1), bias=False)
              (bn2): SyncBatchNorm(256, eps=0.001, momentum=0.01, affine=True, track_running_stats=True)
              (relu2): ReLU()
            )
          )
        )
        (decoder): ModuleList(
          (0): Sequential(
            (0): ConvTranspose2d(256, 256, kernel_size=(2, 2), stride=(2, 2), bias=False)
            (1): SyncBatchNorm(256, eps=0.001, momentum=0.01, affine=True, track_running_stats=True)
            (2): ReLU()
          )
          (1): Sequential(
            (0): ConvTranspose2d(256, 256, kernel_size=(2, 2), stride=(2, 2), bias=False)
            (1): SyncBatchNorm(256, eps=0.001, momentum=0.01, affine=True, track_running_stats=True)
            (2): ReLU()
          )
        )
        (decoder_norm): ModuleList(
          (0): SyncBatchNorm(256, eps=0.001, momentum=0.01, affine=True, track_running_stats=True)
          (1): SyncBatchNorm(256, eps=0.001, momentum=0.01, affine=True, track_running_stats=True)
        )
      )
      (3): DEDBackbone(
        (encoder): ModuleList(
          (0): Sequential(
            (0): BasicBlock(
              (conv1): Conv2d(256, 256, kernel_size=(3, 3), stride=(1, 1), padding=(1, 1), bias=False)
              (bn1): SyncBatchNorm(256, eps=0.001, momentum=0.01, affine=True, track_running_stats=True)
              (relu1): ReLU()
              (conv2): Conv2d(256, 256, kernel_size=(3, 3), stride=(1, 1), padding=(1, 1), bias=False)
              (bn2): SyncBatchNorm(256, eps=0.001, momentum=0.01, affine=True, track_running_stats=True)
              (relu2): ReLU()
            )
            (1): BasicBlock(
              (conv1): Conv2d(256, 256, kernel_size=(3, 3), stride=(1, 1), padding=(1, 1), bias=False)
              (bn1): SyncBatchNorm(256, eps=0.001, momentum=0.01, affine=True, track_running_stats=True)
              (relu1): ReLU()
              (conv2): Conv2d(256, 256, kernel_size=(3, 3), stride=(1, 1), padding=(1, 1), bias=False)
              (bn2): SyncBatchNorm(256, eps=0.001, momentum=0.01, affine=True, track_running_stats=True)
              (relu2): ReLU()
            )
          )
          (1): Sequential(
            (0): BasicBlock(
              (conv1): Conv2d(256, 256, kernel_size=(3, 3), stride=(2, 2), padding=(1, 1), bias=False)
              (bn1): SyncBatchNorm(256, eps=0.001, momentum=0.01, affine=True, track_running_stats=True)
              (relu1): ReLU()
              (conv2): Conv2d(256, 256, kernel_size=(3, 3), stride=(1, 1), padding=(1, 1), bias=False)
              (bn2): SyncBatchNorm(256, eps=0.001, momentum=0.01, affine=True, track_running_stats=True)
              (relu2): ReLU()
              (downsample_layer): Sequential(
                (0): Conv2d(256, 256, kernel_size=(1, 1), stride=(2, 2), bias=False)
                (1): SyncBatchNorm(256, eps=0.001, momentum=0.01, affine=True, track_running_stats=True)
              )
            )
            (1): BasicBlock(
              (conv1): Conv2d(256, 256, kernel_size=(3, 3), stride=(1, 1), padding=(1, 1), bias=False)
              (bn1): SyncBatchNorm(256, eps=0.001, momentum=0.01, affine=True, track_running_stats=True)
              (relu1): ReLU()
              (conv2): Conv2d(256, 256, kernel_size=(3, 3), stride=(1, 1), padding=(1, 1), bias=False)
              (bn2): SyncBatchNorm(256, eps=0.001, momentum=0.01, affine=True, track_running_stats=True)
              (relu2): ReLU()
            )
          )
          (2): Sequential(
            (0): BasicBlock(
              (conv1): Conv2d(256, 256, kernel_size=(3, 3), stride=(2, 2), padding=(1, 1), bias=False)
              (bn1): SyncBatchNorm(256, eps=0.001, momentum=0.01, affine=True, track_running_stats=True)
              (relu1): ReLU()
              (conv2): Conv2d(256, 256, kernel_size=(3, 3), stride=(1, 1), padding=(1, 1), bias=False)
              (bn2): SyncBatchNorm(256, eps=0.001, momentum=0.01, affine=True, track_running_stats=True)
              (relu2): ReLU()
              (downsample_layer): Sequential(
                (0): Conv2d(256, 256, kernel_size=(1, 1), stride=(2, 2), bias=False)
                (1): SyncBatchNorm(256, eps=0.001, momentum=0.01, affine=True, track_running_stats=True)
              )
            )
            (1): BasicBlock(
              (conv1): Conv2d(256, 256, kernel_size=(3, 3), stride=(1, 1), padding=(1, 1), bias=False)
              (bn1): SyncBatchNorm(256, eps=0.001, momentum=0.01, affine=True, track_running_stats=True)
              (relu1): ReLU()
              (conv2): Conv2d(256, 256, kernel_size=(3, 3), stride=(1, 1), padding=(1, 1), bias=False)
              (bn2): SyncBatchNorm(256, eps=0.001, momentum=0.01, affine=True, track_running_stats=True)
              (relu2): ReLU()
            )
          )
        )
        (decoder): ModuleList(
          (0): Sequential(
            (0): ConvTranspose2d(256, 256, kernel_size=(2, 2), stride=(2, 2), bias=False)
            (1): SyncBatchNorm(256, eps=0.001, momentum=0.01, affine=True, track_running_stats=True)
            (2): ReLU()
          )
          (1): Sequential(
            (0): ConvTranspose2d(256, 256, kernel_size=(2, 2), stride=(2, 2), bias=False)
            (1): SyncBatchNorm(256, eps=0.001, momentum=0.01, affine=True, track_running_stats=True)
            (2): ReLU()
          )
        )
        (decoder_norm): ModuleList(
          (0): SyncBatchNorm(256, eps=0.001, momentum=0.01, affine=True, track_running_stats=True)
          (1): SyncBatchNorm(256, eps=0.001, momentum=0.01, affine=True, track_running_stats=True)
        )
      )
    )
  )
  (pts_neck): FPN(
    (lateral_convs): ModuleList(
      (0): ConvModule(
        (conv): Conv2d(256, 256, kernel_size=(1, 1), stride=(1, 1), bias=False)
        (bn): SyncBatchNorm(256, eps=0.001, momentum=0.01, affine=True, track_running_stats=True)
        (activate): ReLU()
      )
    )
    (fpn_convs): ModuleList(
      (0): ConvModule(
        (conv): Conv2d(256, 256, kernel_size=(3, 3), stride=(1, 1), padding=(1, 1), bias=False)
        (bn): SyncBatchNorm(256, eps=0.001, momentum=0.01, affine=True, track_running_stats=True)
        (activate): ReLU()
      )
      (1): ConvModule(
        (conv): Conv2d(256, 256, kernel_size=(3, 3), stride=(2, 2), padding=(1, 1), bias=False)
        (bn): SyncBatchNorm(256, eps=0.001, momentum=0.01, affine=True, track_running_stats=True)
        (activate): ReLU()
      )
      (2): ConvModule(
        (conv): Conv2d(256, 256, kernel_size=(3, 3), stride=(2, 2), padding=(1, 1), bias=False)
        (bn): SyncBatchNorm(256, eps=0.001, momentum=0.01, affine=True, track_running_stats=True)
        (activate): ReLU()
      )
      (3): ConvModule(
        (conv): Conv2d(256, 256, kernel_size=(3, 3), stride=(2, 2), padding=(1, 1), bias=False)
        (bn): SyncBatchNorm(256, eps=0.001, momentum=0.01, affine=True, track_running_stats=True)
        (activate): ReLU()
      )
    )
  )
  init_cfg={'type': 'Xavier', 'layer': 'Conv2d', 'distribution': 'uniform'}
  (pts_bbox_head): FUTR3DHead(
    (loss_cls): FocalLoss()
    (loss_bbox): L1Loss()
    (loss_iou): GIoULoss()
…
                (0): MultiheadAttention(
                  (attn): MultiheadAttention(
                    (out_proj): NonDynamicallyQuantizableLinear(in_features=256, out_features=256, bias=True)
                  )
                  (proj_drop): Dropout(p=0.0, inplace=False)
                  (dropout_layer): Dropout(p=0.1, inplace=False)
                )
                (1): RMSNorm()
                (2): DSS(
                  (layers): ModuleList(
                    (0): ModuleDict(
                      (norm_before): RMSNorm()
                      (mamba): DSSMamba(
                        (in_proj): Linear(in_features=256, out_features=2048, bias=False)
                        (in_proj_xy): Linear(in_features=256, out_features=2048, bias=False)
                        (act): SiLU()
                        (x_proj_f): Linear(in_features=512, out_features=144, bias=False)
                        (x_proj_b): Linear(in_features=512, out_features=144, bias=False)
                        (dt_proj_f): Linear(in_features=16, out_features=512, bias=True)
                        (dt_proj_b): Linear(in_features=16, out_features=512, bias=True)
                        (act_xy): SiLU()
                        (x_proj_f_xy): Linear(in_features=512, out_features=144, bias=False)
                        (x_proj_b_xy): Linear(in_features=512, out_features=144, bias=False)
                        (dt_proj_f_xy): Linear(in_features=16, out_features=512, bias=True)
                        (dt_proj_b_xy): Linear(in_features=16, out_features=512, bias=True)
                        (conv1d_x_f): Conv1d(512, 512, kernel_size=(4,), stride=(1,), groups=512)
                        (conv1d_z_f): Conv1d(512, 512, kernel_size=(4,), stride=(1,), groups=512)
                        (conv1d_x_b): Conv1d(512, 512, kernel_size=(4,), stride=(1,), groups=512)
                        (conv1d_z_b): Conv1d(512, 512, kernel_size=(4,), stride=(1,), groups=512)
                        (conv1d_x_xy_f): Conv1d(512, 512, kernel_size=(4,), stride=(1,), groups=512)
                        (conv1d_z_xy_f): Conv1d(512, 512, kernel_size=(4,), stride=(1,), groups=512)
                        (conv1d_x_xy_b): Conv1d(512, 512, kernel_size=(4,), stride=(1,), groups=512)
                        (conv1d_z_xy_b): Conv1d(512, 512, kernel_size=(4,), stride=(1,), groups=512)
                        (out_proj): Linear(in_features=2048, out_features=256, bias=False)
                        (global_proj): Linear(in_features=2048, out_features=2048, bias=True)
                      )
                      (dropout): Identity()
                      (norm): RMSNorm()
                      (mlp): MLP(
                        (gate_proj): Linear(in_features=256, out_features=1024, bias=False)
                        (up_proj): Linear(in_features=256, out_features=1024, bias=False)
                        (down_proj): Linear(in_features=1024, out_features=256, bias=False)
                        (act_fn): SiLU()
                      )
                      (mlp_norm): RMSNorm()
                    )
                    (1): ModuleDict(
                      (norm_before): RMSNorm()
                      (mamba): DSSMamba(
                        (in_proj): Linear(in_features=256, out_features=2048, bias=False)
                        (in_proj_xy): Linear(in_features=256, out_features=2048, bias=False)
                        (act): SiLU()
                        (x_proj_f): Linear(in_features=512, out_features=144, bias=False)
                        (x_proj_b): Linear(in_features=512, out_features=144, bias=False)
                        (dt_proj_f): Linear(in_features=16, out_features=512, bias=True)
                        (dt_proj_b): Linear(in_features=16, out_features=512, bias=True)
                        (act_xy): SiLU()
                        (x_proj_f_xy): Linear(in_features=512, out_features=144, bias=False)
                        (x_proj_b_xy): Linear(in_features=512, out_features=144, bias=False)
                        (dt_proj_f_xy): Linear(in_features=16, out_features=512, bias=True)
                        (dt_proj_b_xy): Linear(in_features=16, out_features=512, bias=True)
                        (conv1d_x_f): Conv1d(512, 512, kernel_size=(4,), stride=(1,), groups=512)
                        (conv1d_z_f): Conv1d(512, 512, kernel_size=(4,), stride=(1,), groups=512)
                        (conv1d_x_b): Conv1d(512, 512, kernel_size=(4,), stride=(1,), groups=512)
                        (conv1d_z_b): Conv1d(512, 512, kernel_size=(4,), stride=(1,), groups=512)
                        (conv1d_x_xy_f): Conv1d(512, 512, kernel_size=(4,), stride=(1,), groups=512)
                        (conv1d_z_xy_f): Conv1d(512, 512, kernel_size=(4,), stride=(1,), groups=512)
                        (conv1d_x_xy_b): Conv1d(512, 512, kernel_size=(4,), stride=(1,), groups=512)
                        (conv1d_z_xy_b): Conv1d(512, 512, kernel_size=(4,), stride=(1,), groups=512)
                        (out_proj): Linear(in_features=2048, out_features=256, bias=False)
                        (global_proj): Linear(in_features=2048, out_features=2048, bias=True)
                      )
                      (dropout): DropPath(drop_prob=0.300)
                      (norm): RMSNorm()
                      (mlp): MLP(
                        (gate_proj): Linear(in_features=256, out_features=1024, bias=False)
                        (up_proj): Linear(in_features=256, out_features=1024, bias=False)
                        (down_proj): Linear(in_features=1024, out_features=256, bias=False)
                        (act_fn): SiLU()
                      )
                      (mlp_norm): Identity()
                    )
                  )
                  (rope): RotaryEmbedding()
                )
                (3): DropPath(drop_prob=0.100)
              )
              (1): FUTR3DAttention(
                (dropout): Dropout(p=0.1, inplace=False)
                (sampling_offsets): Linear(in_features=256, out_features=256, bias=True)
                (attention_weights): Linear(in_features=256, out_features=128, bias=True)
                (value_proj): Linear(in_features=256, out_features=256, bias=True)
                (output_proj): Linear(in_features=256, out_features=256, bias=True)
                (img_attention_weights): Linear(in_features=256, out_features=12, bias=True)
                (img_output_proj): Linear(in_features=256, out_features=256, bias=True)
                (position_encoder): Sequential(
                  (0): Linear(in_features=3, out_features=256, bias=True)
                  (1): LayerNorm((256,), eps=1e-05, elementwise_affine=True)
                  (2): ReLU(inplace=True)
                  (3): Linear(in_features=256, out_features=256, bias=True)
                  (4): LayerNorm((256,), eps=1e-05, elementwise_affine=True)
                  (5): ReLU(inplace=True)
                )
                (weight_dropout): Dropout(p=0.0, inplace=False)
                (modality_fusion_layer): Sequential(
                  (0): Linear(in_features=768, out_features=256, bias=True)
                  (1): LayerNorm((256,), eps=1e-05, elementwise_affine=True)
                  (2): ReLU()
                  (3): Linear(in_features=256, out_features=256, bias=True)
                  (4): LayerNorm((256,), eps=1e-05, elementwise_affine=True)
                )
                (camera_mixer): LidarCameraFusionMambaBlock(
                  (layers): ModuleList(
                    (0): LidarCameraFusionMambaV2(
                      (activation_fn): SiLU()
                      (in_proj): Linear(in_features=256, out_features=1024, bias=False)
                      (conv1d_h2t): Conv1d(512, 512, kernel_size=(4,), stride=(1,), padding=(3,), groups=512)
                      (x_proj_h2t): Linear(in_features=512, out_features=48, bias=False)
                      (dt_proj_h2t): Linear(in_features=16, out_features=512, bias=True)
                      (conv1d_t2h): Conv1d(512, 512, kernel_size=(4,), stride=(1,), padding=(3,), groups=512)
                      (x_proj_t2h): Linear(in_features=512, out_features=48, bias=False)
                      (dt_proj_t2h): Linear(in_features=16, out_features=512, bias=True)
                      (lidar_guidance_proj): Linear(in_features=512, out_features=512, bias=True)
                      (out_proj): Linear(in_features=512, out_features=256, bias=False)
                    )
                    (1): LidarCameraFusionMambaV2(
                      (activation_fn): SiLU()
                      (in_proj): Linear(in_features=256, out_features=1024, bias=False)
                      (conv1d_h2t): Conv1d(512, 512, kernel_size=(4,), stride=(1,), padding=(3,), groups=512)
                      (x_proj_h2t): Linear(in_features=512, out_features=48, bias=False)
                      (dt_proj_h2t): Linear(in_features=16, out_features=512, bias=True)
                      (conv1d_t2h): Conv1d(512, 512, kernel_size=(4,), stride=(1,), padding=(3,), groups=512)
                      (x_proj_t2h): Linear(in_features=512, out_features=48, bias=False)
                      (dt_proj_t2h): Linear(in_features=16, out_features=512, bias=True)
                      (lidar_guidance_proj): Linear(in_features=512, out_features=512, bias=True)
                      (out_proj): Linear(in_features=512, out_features=256, bias=False)
                    )
                  )
                  (norm): ModuleList(
                    (0): LayerNorm((256,), eps=1e-05, elementwise_affine=True)
                    (1): LayerNorm((256,), eps=1e-05, elementwise_affine=True)
                  )
                  (dropout): ModuleList(
                    (0): DropPath(drop_prob=0.100)
                    (1): DropPath(drop_prob=0.100)
                  )
                )
              )
            )
            (ffns): ModuleList(
              (0): FFN(
                (activate): ReLU(inplace=True)
                (layers): Sequential(
                  (0): Sequential(
                    (0): Linear(in_features=256, out_features=1024, bias=True)
                    (1): ReLU(inplace=True)
                    (2): Dropout(p=0.1, inplace=False)
                  )
                  (1): Linear(in_features=1024, out_features=256, bias=True)
                  (2): Dropout(p=0.1, inplace=False)
                )
                (dropout_layer): Identity()
              )
            )
            (norms): ModuleList(
              (0): LayerNorm((256,), eps=1e-05, elementwise_affine=True)
              (1): LayerNorm((256,), eps=1e-05, elementwise_affine=True)
              (2): LayerNorm((256,), eps=1e-05, elementwise_affine=True)
            )
          )
          (1): DetrTransformerDecoderLayer(
            (attentions): ModuleList(
              (0): ModuleList(
                (0): MultiheadAttention(
                  (attn): MultiheadAttention(
                    (out_proj): NonDynamicallyQuantizableLinear(in_features=256, out_features=256, bias=True)
                  )
                  (proj_drop): Dropout(p=0.0, inplace=False)
                  (dropout_layer): Dropout(p=0.1, inplace=False)
                )
                (1): RMSNorm()
                (2): DSS(
                  (layers): ModuleList(
                    (0): ModuleDict(
                      (norm_before): RMSNorm()
                      (mamba): DSSMamba(
                        (in_proj): Linear(in_features=256, out_features=2048, bias=False)
                        (in_proj_xy): Linear(in_features=256, out_features=2048, bias=False)
                        (act): SiLU()
                        (x_proj_f): Linear(in_features=512, out_features=144, bias=False)
                        (x_proj_b): Linear(in_features=512, out_features=144, bias=False)
                        (dt_proj_f): Linear(in_features=16, out_features=512, bias=True)
                        (dt_proj_b): Linear(in_features=16, out_features=512, bias=True)
                        (act_xy): SiLU()
                        (x_proj_f_xy): Linear(in_features=512, out_features=144, bias=False)
                        (x_proj_b_xy): Linear(in_features=512, out_features=144, bias=False)
                        (dt_proj_f_xy): Linear(in_features=16, out_features=512, bias=True)
                        (dt_proj_b_xy): Linear(in_features=16, out_features=512, bias=True)
                        (conv1d_x_f): Conv1d(512, 512, kernel_size=(4,), stride=(1,), groups=512)
                        (conv1d_z_f): Conv1d(512, 512, kernel_size=(4,), stride=(1,), groups=512)
                        (conv1d_x_b): Conv1d(512, 512, kernel_size=(4,), stride=(1,), groups=512)
                        (conv1d_z_b): Conv1d(512, 512, kernel_size=(4,), stride=(1,), groups=512)
                        (conv1d_x_xy_f): Conv1d(512, 512, kernel_size=(4,), stride=(1,), groups=512)
                        (conv1d_z_xy_f): Conv1d(512, 512, kernel_size=(4,), stride=(1,), groups=512)
                        (conv1d_x_xy_b): Conv1d(512, 512, kernel_size=(4,), stride=(1,), groups=512)
                        (conv1d_z_xy_b): Conv1d(512, 512, kernel_size=(4,), stride=(1,), groups=512)
                        (out_proj): Linear(in_features=2048, out_features=256, bias=False)
                        (global_proj): Linear(in_features=2048, out_features=2048, bias=True)
                      )
                      (dropout): Identity()
                      (norm): RMSNorm()
                      (mlp): MLP(
                        (gate_proj): Linear(in_features=256, out_features=1024, bias=False)
                        (up_proj): Linear(in_features=256, out_features=1024, bias=False)
                        (down_proj): Linear(in_features=1024, out_features=256, bias=False)
                        (act_fn): SiLU()
                      )
                      (mlp_norm): RMSNorm()
                    )
                    (1): ModuleDict(
                      (norm_before): RMSNorm()
                      (mamba): DSSMamba(
                        (in_proj): Linear(in_features=256, out_features=2048, bias=False)
                        (in_proj_xy): Linear(in_features=256, out_features=2048, bias=False)
                        (act): SiLU()
                        (x_proj_f): Linear(in_features=512, out_features=144, bias=False)
                        (x_proj_b): Linear(in_features=512, out_features=144, bias=False)
                        (dt_proj_f): Linear(in_features=16, out_features=512, bias=True)
                        (dt_proj_b): Linear(in_features=16, out_features=512, bias=True)
                        (act_xy): SiLU()
                        (x_proj_f_xy): Linear(in_features=512, out_features=144, bias=False)
                        (x_proj_b_xy): Linear(in_features=512, out_features=144, bias=False)
                        (dt_proj_f_xy): Linear(in_features=16, out_features=512, bias=True)
                        (dt_proj_b_xy): Linear(in_features=16, out_features=512, bias=True)
                        (conv1d_x_f): Conv1d(512, 512, kernel_size=(4,), stride=(1,), groups=512)
                        (conv1d_z_f): Conv1d(512, 512, kernel_size=(4,), stride=(1,), groups=512)
                        (conv1d_x_b): Conv1d(512, 512, kernel_size=(4,), stride=(1,), groups=512)
                        (conv1d_z_b): Conv1d(512, 512, kernel_size=(4,), stride=(1,), groups=512)
                        (conv1d_x_xy_f): Conv1d(512, 512, kernel_size=(4,), stride=(1,), groups=512)
                        (conv1d_z_xy_f): Conv1d(512, 512, kernel_size=(4,), stride=(1,), groups=512)
                        (conv1d_x_xy_b): Conv1d(512, 512, kernel_size=(4,), stride=(1,), groups=512)
                        (conv1d_z_xy_b): Conv1d(512, 512, kernel_size=(4,), stride=(1,), groups=512)
                        (out_proj): Linear(in_features=2048, out_features=256, bias=False)
                        (global_proj): Linear(in_features=2048, out_features=2048, bias=True)
                      )
                      (dropout): DropPath(drop_prob=0.300)
                      (norm): RMSNorm()
                      (mlp): MLP(
                        (gate_proj): Linear(in_features=256, out_features=1024, bias=False)
                        (up_proj): Linear(in_features=256, out_features=1024, bias=False)
                        (down_proj): Linear(in_features=1024, out_features=256, bias=False)
                        (act_fn): SiLU()
                      )
                      (mlp_norm): Identity()
                    )
                  )
                  (rope): RotaryEmbedding()
                )
                (3): DropPath(drop_prob=0.100)
              )
              (1): FUTR3DAttention(
                (dropout): Dropout(p=0.1, inplace=False)
                (sampling_offsets): Linear(in_features=256, out_features=256, bias=True)
                (attention_weights): Linear(in_features=256, out_features=128, bias=True)
                (value_proj): Linear(in_features=256, out_features=256, bias=True)
                (output_proj): Linear(in_features=256, out_features=256, bias=True)
                (img_attention_weights): Linear(in_features=256, out_features=12, bias=True)
                (img_output_proj): Linear(in_features=256, out_features=256, bias=True)
                (position_encoder): Sequential(
                  (0): Linear(in_features=3, out_features=256, bias=True)
                  (1): LayerNorm((256,), eps=1e-05, elementwise_affine=True)
                  (2): ReLU(inplace=True)
                  (3): Linear(in_features=256, out_features=256, bias=True)
                  (4): LayerNorm((256,), eps=1e-05, elementwise_affine=True)
                  (5): ReLU(inplace=True)
                )
                (weight_dropout): Dropout(p=0.0, inplace=False)
                (modality_fusion_layer): Sequential(
                  (0): Linear(in_features=768, out_features=256, bias=True)
                  (1): LayerNorm((256,), eps=1e-05, elementwise_affine=True)
                  (2): ReLU()
                  (3): Linear(in_features=256, out_features=256, bias=True)
                  (4): LayerNorm((256,), eps=1e-05, elementwise_affine=True)
                )
                (camera_mixer): LidarCameraFusionMambaBlock(
                  (layers): ModuleList(
                    (0): LidarCameraFusionMambaV2(
                      (activation_fn): SiLU()
                      (in_proj): Linear(in_features=256, out_features=1024, bias=False)
                      (conv1d_h2t): Conv1d(512, 512, kernel_size=(4,), stride=(1,), padding=(3,), groups=512)
                      (x_proj_h2t): Linear(in_features=512, out_features=48, bias=False)
                      (dt_proj_h2t): Linear(in_features=16, out_features=512, bias=True)
                      (conv1d_t2h): Conv1d(512, 512, kernel_size=(4,), stride=(1,), padding=(3,), groups=512)
                      (x_proj_t2h): Linear(in_features=512, out_features=48, bias=False)
                      (dt_proj_t2h): Linear(in_features=16, out_features=512, bias=True)
                      (lidar_guidance_proj): Linear(in_features=512, out_features=512, bias=True)
                      (out_proj): Linear(in_features=512, out_features=256, bias=False)
                    )
                    (1): LidarCameraFusionMambaV2(
                      (activation_fn): SiLU()
                      (in_proj): Linear(in_features=256, out_features=1024, bias=False)
                      (conv1d_h2t): Conv1d(512, 512, kernel_size=(4,), stride=(1,), padding=(3,), groups=512)
                      (x_proj_h2t): Linear(in_features=512, out_features=48, bias=False)
                      (dt_proj_h2t): Linear(in_features=16, out_features=512, bias=True)
                      (conv1d_t2h): Conv1d(512, 512, kernel_size=(4,), stride=(1,), padding=(3,), groups=512)
                      (x_proj_t2h): Linear(in_features=512, out_features=48, bias=False)
                      (dt_proj_t2h): Linear(in_features=16, out_features=512, bias=True)
                      (lidar_guidance_proj): Linear(in_features=512, out_features=512, bias=True)
                      (out_proj): Linear(in_features=512, out_features=256, bias=False)
                    )
                  )
                  (norm): ModuleList(
                    (0): LayerNorm((256,), eps=1e-05, elementwise_affine=True)
                    (1): LayerNorm((256,), eps=1e-05, elementwise_affine=True)
                  )
                  (dropout): ModuleList(
                    (0): DropPath(drop_prob=0.100)
                    (1): DropPath(drop_prob=0.100)
                  )
                )
              )
            )
            (ffns): ModuleList(
              (0): FFN(
                (activate): ReLU(inplace=True)
                (layers): Sequential(
                  (0): Sequential(
                    (0): Linear(in_features=256, out_features=1024, bias=True)
                    (1): ReLU(inplace=True)
                    (2): Dropout(p=0.1, inplace=False)
                  )
                  (1): Linear(in_features=1024, out_features=256, bias=True)
                  (2): Dropout(p=0.1, inplace=False)
                )
                (dropout_layer): Identity()
              )
            )
            (norms): ModuleList(
              (0): LayerNorm((256,), eps=1e-05, elementwise_affine=True)
              (1): LayerNorm((256,), eps=1e-05, elementwise_affine=True)
              (2): LayerNorm((256,), eps=1e-05, elementwise_affine=True)
            )
          )
          (2): DetrTransformerDecoderLayer(
            (attentions): ModuleList(
              (0): ModuleList(
                (0): MultiheadAttention(
                  (attn): MultiheadAttention(
                    (out_proj): NonDynamicallyQuantizableLinear(in_features=256, out_features=256, bias=True)
                  )
                  (proj_drop): Dropout(p=0.0, inplace=False)
                  (dropout_layer): Dropout(p=0.1, inplace=False)
                )
                (1): RMSNorm()
                (2): DSS(
                  (layers): ModuleList(
                    (0): ModuleDict(
                      (norm_before): RMSNorm()
                      (mamba): DSSMamba(
                        (in_proj): Linear(in_features=256, out_features=2048, bias=False)
                        (in_proj_xy): Linear(in_features=256, out_features=2048, bias=False)
                        (act): SiLU()
                        (x_proj_f): Linear(in_features=512, out_features=144, bias=False)
                        (x_proj_b): Linear(in_features=512, out_features=144, bias=False)
                        (dt_proj_f): Linear(in_features=16, out_features=512, bias=True)
                        (dt_proj_b): Linear(in_features=16, out_features=512, bias=True)
                        (act_xy): SiLU()
                        (x_proj_f_xy): Linear(in_features=512, out_features=144, bias=False)
                        (x_proj_b_xy): Linear(in_features=512, out_features=144, bias=False)
                        (dt_proj_f_xy): Linear(in_features=16, out_features=512, bias=True)
                        (dt_proj_b_xy): Linear(in_features=16, out_features=512, bias=True)
                        (conv1d_x_f): Conv1d(512, 512, kernel_size=(4,), stride=(1,), groups=512)
                        (conv1d_z_f): Conv1d(512, 512, kernel_size=(4,), stride=(1,), groups=512)
                        (conv1d_x_b): Conv1d(512, 512, kernel_size=(4,), stride=(1,), groups=512)
                        (conv1d_z_b): Conv1d(512, 512, kernel_size=(4,), stride=(1,), groups=512)
                        (conv1d_x_xy_f): Conv1d(512, 512, kernel_size=(4,), stride=(1,), groups=512)
                        (conv1d_z_xy_f): Conv1d(512, 512, kernel_size=(4,), stride=(1,), groups=512)
                        (conv1d_x_xy_b): Conv1d(512, 512, kernel_size=(4,), stride=(1,), groups=512)
                        (conv1d_z_xy_b): Conv1d(512, 512, kernel_size=(4,), stride=(1,), groups=512)
                        (out_proj): Linear(in_features=2048, out_features=256, bias=False)
                        (global_proj): Linear(in_features=2048, out_features=2048, bias=True)
                      )
                      (dropout): Identity()
                      (norm): RMSNorm()
                      (mlp): MLP(
                        (gate_proj): Linear(in_features=256, out_features=1024, bias=False)
                        (up_proj): Linear(in_features=256, out_features=1024, bias=False)
                        (down_proj): Linear(in_features=1024, out_features=256, bias=False)
                        (act_fn): SiLU()
                      )
                      (mlp_norm): RMSNorm()
                    )
                    (1): ModuleDict(
                      (norm_before): RMSNorm()
                      (mamba): DSSMamba(
                        (in_proj): Linear(in_features=256, out_features=2048, bias=False)
                        (in_proj_xy): Linear(in_features=256, out_features=2048, bias=False)
                        (act): SiLU()
                        (x_proj_f): Linear(in_features=512, out_features=144, bias=False)
                        (x_proj_b): Linear(in_features=512, out_features=144, bias=False)
                        (dt_proj_f): Linear(in_features=16, out_features=512, bias=True)
                        (dt_proj_b): Linear(in_features=16, out_features=512, bias=True)
                        (act_xy): SiLU()
                        (x_proj_f_xy): Linear(in_features=512, out_features=144, bias=False)
                        (x_proj_b_xy): Linear(in_features=512, out_features=144, bias=False)
                        (dt_proj_f_xy): Linear(in_features=16, out_features=512, bias=True)
                        (dt_proj_b_xy): Linear(in_features=16, out_features=512, bias=True)
                        (conv1d_x_f): Conv1d(512, 512, kernel_size=(4,), stride=(1,), groups=512)
                        (conv1d_z_f): Conv1d(512, 512, kernel_size=(4,), stride=(1,), groups=512)
                        (conv1d_x_b): Conv1d(512, 512, kernel_size=(4,), stride=(1,), groups=512)
                        (conv1d_z_b): Conv1d(512, 512, kernel_size=(4,), stride=(1,), groups=512)
                        (conv1d_x_xy_f): Conv1d(512, 512, kernel_size=(4,), stride=(1,), groups=512)
                        (conv1d_z_xy_f): Conv1d(512, 512, kernel_size=(4,), stride=(1,), groups=512)
                        (conv1d_x_xy_b): Conv1d(512, 512, kernel_size=(4,), stride=(1,), groups=512)
                        (conv1d_z_xy_b): Conv1d(512, 512, kernel_size=(4,), stride=(1,), groups=512)
                        (out_proj): Linear(in_features=2048, out_features=256, bias=False)
                        (global_proj): Linear(in_features=2048, out_features=2048, bias=True)
                      )
                      (dropout): DropPath(drop_prob=0.300)
                      (norm): RMSNorm()
                      (mlp): MLP(
                        (gate_proj): Linear(in_features=256, out_features=1024, bias=False)
                        (up_proj): Linear(in_features=256, out_features=1024, bias=False)
                        (down_proj): Linear(in_features=1024, out_features=256, bias=False)
                        (act_fn): SiLU()
                      )
                      (mlp_norm): Identity()
                    )
                  )
                  (rope): RotaryEmbedding()
                )
                (3): DropPath(drop_prob=0.100)
              )
              (1): FUTR3DAttention(
                (dropout): Dropout(p=0.1, inplace=False)
                (sampling_offsets): Linear(in_features=256, out_features=256, bias=True)
                (attention_weights): Linear(in_features=256, out_features=128, bias=True)
                (value_proj): Linear(in_features=256, out_features=256, bias=True)
                (output_proj): Linear(in_features=256, out_features=256, bias=True)
                (img_attention_weights): Linear(in_features=256, out_features=12, bias=True)
                (img_output_proj): Linear(in_features=256, out_features=256, bias=True)
                (position_encoder): Sequential(
                  (0): Linear(in_features=3, out_features=256, bias=True)
                  (1): LayerNorm((256,), eps=1e-05, elementwise_affine=True)
                  (2): ReLU(inplace=True)
                  (3): Linear(in_features=256, out_features=256, bias=True)
                  (4): LayerNorm((256,), eps=1e-05, elementwise_affine=True)
                  (5): ReLU(inplace=True)
                )
                (weight_dropout): Dropout(p=0.0, inplace=False)
                (modality_fusion_layer): Sequential(
                  (0): Linear(in_features=768, out_features=256, bias=True)
                  (1): LayerNorm((256,), eps=1e-05, elementwise_affine=True)
                  (2): ReLU()
                  (3): Linear(in_features=256, out_features=256, bias=True)
                  (4): LayerNorm((256,), eps=1e-05, elementwise_affine=True)
                )
                (camera_mixer): LidarCameraFusionMambaBlock(
                  (layers): ModuleList(
                    (0): LidarCameraFusionMambaV2(
                      (activation_fn): SiLU()
                      (in_proj): Linear(in_features=256, out_features=1024, bias=False)
                      (conv1d_h2t): Conv1d(512, 512, kernel_size=(4,), stride=(1,), padding=(3,), groups=512)
                      (x_proj_h2t): Linear(in_features=512, out_features=48, bias=False)
                      (dt_proj_h2t): Linear(in_features=16, out_features=512, bias=True)
                      (conv1d_t2h): Conv1d(512, 512, kernel_size=(4,), stride=(1,), padding=(3,), groups=512)
                      (x_proj_t2h): Linear(in_features=512, out_features=48, bias=False)
                      (dt_proj_t2h): Linear(in_features=16, out_features=512, bias=True)
                      (lidar_guidance_proj): Linear(in_features=512, out_features=512, bias=True)
                      (out_proj): Linear(in_features=512, out_features=256, bias=False)
                    )
                    (1): LidarCameraFusionMambaV2(
                      (activation_fn): SiLU()
                      (in_proj): Linear(in_features=256, out_features=1024, bias=False)
                      (conv1d_h2t): Conv1d(512, 512, kernel_size=(4,), stride=(1,), padding=(3,), groups=512)
                      (x_proj_h2t): Linear(in_features=512, out_features=48, bias=False)
                      (dt_proj_h2t): Linear(in_features=16, out_features=512, bias=True)
                      (conv1d_t2h): Conv1d(512, 512, kernel_size=(4,), stride=(1,), padding=(3,), groups=512)
                      (x_proj_t2h): Linear(in_features=512, out_features=48, bias=False)
                      (dt_proj_t2h): Linear(in_features=16, out_features=512, bias=True)
                      (lidar_guidance_proj): Linear(in_features=512, out_features=512, bias=True)
                      (out_proj): Linear(in_features=512, out_features=256, bias=False)
                    )
                  )
                  (norm): ModuleList(
                    (0): LayerNorm((256,), eps=1e-05, elementwise_affine=True)
                    (1): LayerNorm((256,), eps=1e-05, elementwise_affine=True)
                  )
                  (dropout): ModuleList(
                    (0): DropPath(drop_prob=0.100)
                    (1): DropPath(drop_prob=0.100)
                  )
                )
              )
            )
            (ffns): ModuleList(
              (0): FFN(
                (activate): ReLU(inplace=True)
                (layers): Sequential(
                  (0): Sequential(
                    (0): Linear(in_features=256, out_features=1024, bias=True)
                    (1): ReLU(inplace=True)
                    (2): Dropout(p=0.1, inplace=False)
                  )
                  (1): Linear(in_features=1024, out_features=256, bias=True)
                  (2): Dropout(p=0.1, inplace=False)
                )
                (dropout_layer): Identity()
              )
            )
            (norms): ModuleList(
              (0): LayerNorm((256,), eps=1e-05, elementwise_affine=True)
              (1): LayerNorm((256,), eps=1e-05, elementwise_affine=True)
              (2): LayerNorm((256,), eps=1e-05, elementwise_affine=True)
            )
          )
          (3): DetrTransformerDecoderLayer(
            (attentions): ModuleList(
              (0): ModuleList(
                (0): MultiheadAttention(
                  (attn): MultiheadAttention(
                    (out_proj): NonDynamicallyQuantizableLinear(in_features=256, out_features=256, bias=True)
                  )
                  (proj_drop): Dropout(p=0.0, inplace=False)
                  (dropout_layer): Dropout(p=0.1, inplace=False)
                )
                (1): RMSNorm()
                (2): DSS(
                  (layers): ModuleList(
                    (0): ModuleDict(
                      (norm_before): RMSNorm()
                      (mamba): DSSMamba(
                        (in_proj): Linear(in_features=256, out_features=2048, bias=False)
                        (in_proj_xy): Linear(in_features=256, out_features=2048, bias=False)
                        (act): SiLU()
                        (x_proj_f): Linear(in_features=512, out_features=144, bias=False)
                        (x_proj_b): Linear(in_features=512, out_features=144, bias=False)
                        (dt_proj_f): Linear(in_features=16, out_features=512, bias=True)
                        (dt_proj_b): Linear(in_features=16, out_features=512, bias=True)
                        (act_xy): SiLU()
                        (x_proj_f_xy): Linear(in_features=512, out_features=144, bias=False)
                        (x_proj_b_xy): Linear(in_features=512, out_features=144, bias=False)
                        (dt_proj_f_xy): Linear(in_features=16, out_features=512, bias=True)
                        (dt_proj_b_xy): Linear(in_features=16, out_features=512, bias=True)
                        (conv1d_x_f): Conv1d(512, 512, kernel_size=(4,), stride=(1,), groups=512)
                        (conv1d_z_f): Conv1d(512, 512, kernel_size=(4,), stride=(1,), groups=512)
                        (conv1d_x_b): Conv1d(512, 512, kernel_size=(4,), stride=(1,), groups=512)
                        (conv1d_z_b): Conv1d(512, 512, kernel_size=(4,), stride=(1,), groups=512)
                        (conv1d_x_xy_f): Conv1d(512, 512, kernel_size=(4,), stride=(1,), groups=512)
                        (conv1d_z_xy_f): Conv1d(512, 512, kernel_size=(4,), stride=(1,), groups=512)
                        (conv1d_x_xy_b): Conv1d(512, 512, kernel_size=(4,), stride=(1,), groups=512)
                        (conv1d_z_xy_b): Conv1d(512, 512, kernel_size=(4,), stride=(1,), groups=512)
                        (out_proj): Linear(in_features=2048, out_features=256, bias=False)
                        (global_proj): Linear(in_features=2048, out_features=2048, bias=True)
                      )
                      (dropout): Identity()
                      (norm): RMSNorm()
                      (mlp): MLP(
                        (gate_proj): Linear(in_features=256, out_features=1024, bias=False)
                        (up_proj): Linear(in_features=256, out_features=1024, bias=False)
                        (down_proj): Linear(in_features=1024, out_features=256, bias=False)
                        (act_fn): SiLU()
                      )
                      (mlp_norm): RMSNorm()
                    )
                    (1): ModuleDict(
                      (norm_before): RMSNorm()
                      (mamba): DSSMamba(
                        (in_proj): Linear(in_features=256, out_features=2048, bias=False)
                        (in_proj_xy): Linear(in_features=256, out_features=2048, bias=False)
                        (act): SiLU()
                        (x_proj_f): Linear(in_features=512, out_features=144, bias=False)
                        (x_proj_b): Linear(in_features=512, out_features=144, bias=False)
                        (dt_proj_f): Linear(in_features=16, out_features=512, bias=True)
                        (dt_proj_b): Linear(in_features=16, out_features=512, bias=True)
                        (act_xy): SiLU()
                        (x_proj_f_xy): Linear(in_features=512, out_features=144, bias=False)
                        (x_proj_b_xy): Linear(in_features=512, out_features=144, bias=False)
                        (dt_proj_f_xy): Linear(in_features=16, out_features=512, bias=True)
                        (dt_proj_b_xy): Linear(in_features=16, out_features=512, bias=True)
                        (conv1d_x_f): Conv1d(512, 512, kernel_size=(4,), stride=(1,), groups=512)
                        (conv1d_z_f): Conv1d(512, 512, kernel_size=(4,), stride=(1,), groups=512)
                        (conv1d_x_b): Conv1d(512, 512, kernel_size=(4,), stride=(1,), groups=512)
                        (conv1d_z_b): Conv1d(512, 512, kernel_size=(4,), stride=(1,), groups=512)
                        (conv1d_x_xy_f): Conv1d(512, 512, kernel_size=(4,), stride=(1,), groups=512)
                        (conv1d_z_xy_f): Conv1d(512, 512, kernel_size=(4,), stride=(1,), groups=512)
                        (conv1d_x_xy_b): Conv1d(512, 512, kernel_size=(4,), stride=(1,), groups=512)
                        (conv1d_z_xy_b): Conv1d(512, 512, kernel_size=(4,), stride=(1,), groups=512)
                        (out_proj): Linear(in_features=2048, out_features=256, bias=False)
                        (global_proj): Linear(in_features=2048, out_features=2048, bias=True)
                      )
                      (dropout): DropPath(drop_prob=0.300)
                      (norm): RMSNorm()
                      (mlp): MLP(
                        (gate_proj): Linear(in_features=256, out_features=1024, bias=False)
                        (up_proj): Linear(in_features=256, out_features=1024, bias=False)
                        (down_proj): Linear(in_features=1024, out_features=256, bias=False)
                        (act_fn): SiLU()
                      )
                      (mlp_norm): Identity()
                    )
                  )
                  (rope): RotaryEmbedding()
                )
                (3): DropPath(drop_prob=0.100)
              )
              (1): FUTR3DAttention(
                (dropout): Dropout(p=0.1, inplace=False)
                (sampling_offsets): Linear(in_features=256, out_features=256, bias=True)
                (attention_weights): Linear(in_features=256, out_features=128, bias=True)
                (value_proj): Linear(in_features=256, out_features=256, bias=True)
                (output_proj): Linear(in_features=256, out_features=256, bias=True)
                (img_attention_weights): Linear(in_features=256, out_features=12, bias=True)
                (img_output_proj): Linear(in_features=256, out_features=256, bias=True)
                (position_encoder): Sequential(
                  (0): Linear(in_features=3, out_features=256, bias=True)
                  (1): LayerNorm((256,), eps=1e-05, elementwise_affine=True)
                  (2): ReLU(inplace=True)
                  (3): Linear(in_features=256, out_features=256, bias=True)
                  (4): LayerNorm((256,), eps=1e-05, elementwise_affine=True)
                  (5): ReLU(inplace=True)
                )
                (weight_dropout): Dropout(p=0.0, inplace=False)
                (modality_fusion_layer): Sequential(
                  (0): Linear(in_features=768, out_features=256, bias=True)
                  (1): LayerNorm((256,), eps=1e-05, elementwise_affine=True)
                  (2): ReLU()
                  (3): Linear(in_features=256, out_features=256, bias=True)
                  (4): LayerNorm((256,), eps=1e-05, elementwise_affine=True)
                )
                (camera_mixer): LidarCameraFusionMambaBlock(
                  (layers): ModuleList(
                    (0): LidarCameraFusionMambaV2(
                      (activation_fn): SiLU()
                      (in_proj): Linear(in_features=256, out_features=1024, bias=False)
                      (conv1d_h2t): Conv1d(512, 512, kernel_size=(4,), stride=(1,), padding=(3,), groups=512)
                      (x_proj_h2t): Linear(in_features=512, out_features=48, bias=False)
                      (dt_proj_h2t): Linear(in_features=16, out_features=512, bias=True)
                      (conv1d_t2h): Conv1d(512, 512, kernel_size=(4,), stride=(1,), padding=(3,), groups=512)
                      (x_proj_t2h): Linear(in_features=512, out_features=48, bias=False)
                      (dt_proj_t2h): Linear(in_features=16, out_features=512, bias=True)
                      (lidar_guidance_proj): Linear(in_features=512, out_features=512, bias=True)
                      (out_proj): Linear(in_features=512, out_features=256, bias=False)
                    )
                    (1): LidarCameraFusionMambaV2(
                      (activation_fn): SiLU()
                      (in_proj): Linear(in_features=256, out_features=1024, bias=False)
                      (conv1d_h2t): Conv1d(512, 512, kernel_size=(4,), stride=(1,), padding=(3,), groups=512)
                      (x_proj_h2t): Linear(in_features=512, out_features=48, bias=False)
                      (dt_proj_h2t): Linear(in_features=16, out_features=512, bias=True)
                      (conv1d_t2h): Conv1d(512, 512, kernel_size=(4,), stride=(1,), padding=(3,), groups=512)
                      (x_proj_t2h): Linear(in_features=512, out_features=48, bias=False)
                      (dt_proj_t2h): Linear(in_features=16, out_features=512, bias=True)
                      (lidar_guidance_proj): Linear(in_features=512, out_features=512, bias=True)
                      (out_proj): Linear(in_features=512, out_features=256, bias=False)
                    )
                  )
                  (norm): ModuleList(
                    (0): LayerNorm((256,), eps=1e-05, elementwise_affine=True)
                    (1): LayerNorm((256,), eps=1e-05, elementwise_affine=True)
                  )
                  (dropout): ModuleList(
                    (0): DropPath(drop_prob=0.100)
                    (1): DropPath(drop_prob=0.100)
                  )
                )
              )
            )
            (ffns): ModuleList(
              (0): FFN(
                (activate): ReLU(inplace=True)
                (layers): Sequential(
                  (0): Sequential(
                    (0): Linear(in_features=256, out_features=1024, bias=True)
                    (1): ReLU(inplace=True)
                    (2): Dropout(p=0.1, inplace=False)
                  )
                  (1): Linear(in_features=1024, out_features=256, bias=True)
                  (2): Dropout(p=0.1, inplace=False)
                )
                (dropout_layer): Identity()
              )
            )
            (norms): ModuleList(
              (0): LayerNorm((256,), eps=1e-05, elementwise_affine=True)
              (1): LayerNorm((256,), eps=1e-05, elementwise_affine=True)
              (2): LayerNorm((256,), eps=1e-05, elementwise_affine=True)
            )
          )
          (4): DetrTransformerDecoderLayer(
            (attentions): ModuleList(
              (0): ModuleList(
                (0): MultiheadAttention(
                  (attn): MultiheadAttention(
                    (out_proj): NonDynamicallyQuantizableLinear(in_features=256, out_features=256, bias=True)
                  )
                  (proj_drop): Dropout(p=0.0, inplace=False)
                  (dropout_layer): Dropout(p=0.1, inplace=False)
                )
                (1): RMSNorm()
                (2): DSS(
                  (layers): ModuleList(
                    (0): ModuleDict(
                      (norm_before): RMSNorm()
                      (mamba): DSSMamba(
                        (in_proj): Linear(in_features=256, out_features=2048, bias=False)
                        (in_proj_xy): Linear(in_features=256, out_features=2048, bias=False)
                        (act): SiLU()
                        (x_proj_f): Linear(in_features=512, out_features=144, bias=False)
                        (x_proj_b): Linear(in_features=512, out_features=144, bias=False)
                        (dt_proj_f): Linear(in_features=16, out_features=512, bias=True)
                        (dt_proj_b): Linear(in_features=16, out_features=512, bias=True)
                        (act_xy): SiLU()
                        (x_proj_f_xy): Linear(in_features=512, out_features=144, bias=False)
                        (x_proj_b_xy): Linear(in_features=512, out_features=144, bias=False)
                        (dt_proj_f_xy): Linear(in_features=16, out_features=512, bias=True)
                        (dt_proj_b_xy): Linear(in_features=16, out_features=512, bias=True)
                        (conv1d_x_f): Conv1d(512, 512, kernel_size=(4,), stride=(1,), groups=512)
                        (conv1d_z_f): Conv1d(512, 512, kernel_size=(4,), stride=(1,), groups=512)
                        (conv1d_x_b): Conv1d(512, 512, kernel_size=(4,), stride=(1,), groups=512)
                        (conv1d_z_b): Conv1d(512, 512, kernel_size=(4,), stride=(1,), groups=512)
                        (conv1d_x_xy_f): Conv1d(512, 512, kernel_size=(4,), stride=(1,), groups=512)
                        (conv1d_z_xy_f): Conv1d(512, 512, kernel_size=(4,), stride=(1,), groups=512)
                        (conv1d_x_xy_b): Conv1d(512, 512, kernel_size=(4,), stride=(1,), groups=512)
                        (conv1d_z_xy_b): Conv1d(512, 512, kernel_size=(4,), stride=(1,), groups=512)
                        (out_proj): Linear(in_features=2048, out_features=256, bias=False)
                        (global_proj): Linear(in_features=2048, out_features=2048, bias=True)
                      )
                      (dropout): Identity()
                      (norm): RMSNorm()
                      (mlp): MLP(
                        (gate_proj): Linear(in_features=256, out_features=1024, bias=False)
                        (up_proj): Linear(in_features=256, out_features=1024, bias=False)
                        (down_proj): Linear(in_features=1024, out_features=256, bias=False)
                        (act_fn): SiLU()
                      )
                      (mlp_norm): RMSNorm()
                    )
                    (1): ModuleDict(
                      (norm_before): RMSNorm()
                      (mamba): DSSMamba(
                        (in_proj): Linear(in_features=256, out_features=2048, bias=False)
                        (in_proj_xy): Linear(in_features=256, out_features=2048, bias=False)
                        (act): SiLU()
                        (x_proj_f): Linear(in_features=512, out_features=144, bias=False)
                        (x_proj_b): Linear(in_features=512, out_features=144, bias=False)
                        (dt_proj_f): Linear(in_features=16, out_features=512, bias=True)
                        (dt_proj_b): Linear(in_features=16, out_features=512, bias=True)
                        (act_xy): SiLU()
                        (x_proj_f_xy): Linear(in_features=512, out_features=144, bias=False)
                        (x_proj_b_xy): Linear(in_features=512, out_features=144, bias=False)
                        (dt_proj_f_xy): Linear(in_features=16, out_features=512, bias=True)
                        (dt_proj_b_xy): Linear(in_features=16, out_features=512, bias=True)
                        (conv1d_x_f): Conv1d(512, 512, kernel_size=(4,), stride=(1,), groups=512)
                        (conv1d_z_f): Conv1d(512, 512, kernel_size=(4,), stride=(1,), groups=512)
                        (conv1d_x_b): Conv1d(512, 512, kernel_size=(4,), stride=(1,), groups=512)
                        (conv1d_z_b): Conv1d(512, 512, kernel_size=(4,), stride=(1,), groups=512)
                        (conv1d_x_xy_f): Conv1d(512, 512, kernel_size=(4,), stride=(1,), groups=512)
                        (conv1d_z_xy_f): Conv1d(512, 512, kernel_size=(4,), stride=(1,), groups=512)
                        (conv1d_x_xy_b): Conv1d(512, 512, kernel_size=(4,), stride=(1,), groups=512)
                        (conv1d_z_xy_b): Conv1d(512, 512, kernel_size=(4,), stride=(1,), groups=512)
                        (out_proj): Linear(in_features=2048, out_features=256, bias=False)
                        (global_proj): Linear(in_features=2048, out_features=2048, bias=True)
                      )
                      (dropout): DropPath(drop_prob=0.300)
                      (norm): RMSNorm()
                      (mlp): MLP(
                        (gate_proj): Linear(in_features=256, out_features=1024, bias=False)
                        (up_proj): Linear(in_features=256, out_features=1024, bias=False)
                        (down_proj): Linear(in_features=1024, out_features=256, bias=False)
                        (act_fn): SiLU()
                      )
                      (mlp_norm): Identity()
                    )
                  )
                  (rope): RotaryEmbedding()
                )
                (3): DropPath(drop_prob=0.100)
              )
              (1): FUTR3DAttention(
                (dropout): Dropout(p=0.1, inplace=False)
                (sampling_offsets): Linear(in_features=256, out_features=256, bias=True)
                (attention_weights): Linear(in_features=256, out_features=128, bias=True)
                (value_proj): Linear(in_features=256, out_features=256, bias=True)
                (output_proj): Linear(in_features=256, out_features=256, bias=True)
                (img_attention_weights): Linear(in_features=256, out_features=12, bias=True)
                (img_output_proj): Linear(in_features=256, out_features=256, bias=True)
                (position_encoder): Sequential(
                  (0): Linear(in_features=3, out_features=256, bias=True)
                  (1): LayerNorm((256,), eps=1e-05, elementwise_affine=True)
                  (2): ReLU(inplace=True)
                  (3): Linear(in_features=256, out_features=256, bias=True)
                  (4): LayerNorm((256,), eps=1e-05, elementwise_affine=True)
                  (5): ReLU(inplace=True)
                )
                (weight_dropout): Dropout(p=0.0, inplace=False)
                (modality_fusion_layer): Sequential(
                  (0): Linear(in_features=768, out_features=256, bias=True)
                  (1): LayerNorm((256,), eps=1e-05, elementwise_affine=True)
                  (2): ReLU()
                  (3): Linear(in_features=256, out_features=256, bias=True)
                  (4): LayerNorm((256,), eps=1e-05, elementwise_affine=True)
                )
                (camera_mixer): LidarCameraFusionMambaBlock(
                  (layers): ModuleList(
                    (0): LidarCameraFusionMambaV2(
                      (activation_fn): SiLU()
                      (in_proj): Linear(in_features=256, out_features=1024, bias=False)
                      (conv1d_h2t): Conv1d(512, 512, kernel_size=(4,), stride=(1,), padding=(3,), groups=512)
                      (x_proj_h2t): Linear(in_features=512, out_features=48, bias=False)
                      (dt_proj_h2t): Linear(in_features=16, out_features=512, bias=True)
                      (conv1d_t2h): Conv1d(512, 512, kernel_size=(4,), stride=(1,), padding=(3,), groups=512)
                      (x_proj_t2h): Linear(in_features=512, out_features=48, bias=False)
                      (dt_proj_t2h): Linear(in_features=16, out_features=512, bias=True)
                      (lidar_guidance_proj): Linear(in_features=512, out_features=512, bias=True)
                      (out_proj): Linear(in_features=512, out_features=256, bias=False)
                    )
                    (1): LidarCameraFusionMambaV2(
                      (activation_fn): SiLU()
                      (in_proj): Linear(in_features=256, out_features=1024, bias=False)
                      (conv1d_h2t): Conv1d(512, 512, kernel_size=(4,), stride=(1,), padding=(3,), groups=512)
                      (x_proj_h2t): Linear(in_features=512, out_features=48, bias=False)
                      (dt_proj_h2t): Linear(in_features=16, out_features=512, bias=True)
                      (conv1d_t2h): Conv1d(512, 512, kernel_size=(4,), stride=(1,), padding=(3,), groups=512)
                      (x_proj_t2h): Linear(in_features=512, out_features=48, bias=False)
                      (dt_proj_t2h): Linear(in_features=16, out_features=512, bias=True)
                      (lidar_guidance_proj): Linear(in_features=512, out_features=512, bias=True)
                      (out_proj): Linear(in_features=512, out_features=256, bias=False)
                    )
                  )
                  (norm): ModuleList(
                    (0): LayerNorm((256,), eps=1e-05, elementwise_affine=True)
                    (1): LayerNorm((256,), eps=1e-05, elementwise_affine=True)
                  )
                  (dropout): ModuleList(
                    (0): DropPath(drop_prob=0.100)
                    (1): DropPath(drop_prob=0.100)
                  )
                )
              )
            )
            (ffns): ModuleList(
              (0): FFN(
                (activate): ReLU(inplace=True)
                (layers): Sequential(
                  (0): Sequential(
                    (0): Linear(in_features=256, out_features=1024, bias=True)
                    (1): ReLU(inplace=True)
                    (2): Dropout(p=0.1, inplace=False)
                  )
                  (1): Linear(in_features=1024, out_features=256, bias=True)
                  (2): Dropout(p=0.1, inplace=False)
                )
                (dropout_layer): Identity()
              )
            )
            (norms): ModuleList(
              (0): LayerNorm((256,), eps=1e-05, elementwise_affine=True)
              (1): LayerNorm((256,), eps=1e-05, elementwise_affine=True)
              (2): LayerNorm((256,), eps=1e-05, elementwise_affine=True)
            )
          )
          (5): DetrTransformerDecoderLayer(
            (attentions): ModuleList(
              (0): ModuleList(
                (0): MultiheadAttention(
                  (attn): MultiheadAttention(
                    (out_proj): NonDynamicallyQuantizableLinear(in_features=256, out_features=256, bias=True)
                  )
                  (proj_drop): Dropout(p=0.0, inplace=False)
                  (dropout_layer): Dropout(p=0.1, inplace=False)
                )
                (1): RMSNorm()
                (2): DSS(
                  (layers): ModuleList(
                    (0): ModuleDict(
                      (norm_before): RMSNorm()
                      (mamba): DSSMamba(
                        (in_proj): Linear(in_features=256, out_features=2048, bias=False)
                        (in_proj_xy): Linear(in_features=256, out_features=2048, bias=False)
                        (act): SiLU()
                        (x_proj_f): Linear(in_features=512, out_features=144, bias=False)
                        (x_proj_b): Linear(in_features=512, out_features=144, bias=False)
                        (dt_proj_f): Linear(in_features=16, out_features=512, bias=True)
                        (dt_proj_b): Linear(in_features=16, out_features=512, bias=True)
                        (act_xy): SiLU()
                        (x_proj_f_xy): Linear(in_features=512, out_features=144, bias=False)
                        (x_proj_b_xy): Linear(in_features=512, out_features=144, bias=False)
                        (dt_proj_f_xy): Linear(in_features=16, out_features=512, bias=True)
                        (dt_proj_b_xy): Linear(in_features=16, out_features=512, bias=True)
                        (conv1d_x_f): Conv1d(512, 512, kernel_size=(4,), stride=(1,), groups=512)
                        (conv1d_z_f): Conv1d(512, 512, kernel_size=(4,), stride=(1,), groups=512)
                        (conv1d_x_b): Conv1d(512, 512, kernel_size=(4,), stride=(1,), groups=512)
                        (conv1d_z_b): Conv1d(512, 512, kernel_size=(4,), stride=(1,), groups=512)
                        (conv1d_x_xy_f): Conv1d(512, 512, kernel_size=(4,), stride=(1,), groups=512)
                        (conv1d_z_xy_f): Conv1d(512, 512, kernel_size=(4,), stride=(1,), groups=512)
                        (conv1d_x_xy_b): Conv1d(512, 512, kernel_size=(4,), stride=(1,), groups=512)
                        (conv1d_z_xy_b): Conv1d(512, 512, kernel_size=(4,), stride=(1,), groups=512)
                        (out_proj): Linear(in_features=2048, out_features=256, bias=False)
                        (global_proj): Linear(in_features=2048, out_features=2048, bias=True)
                      )
                      (dropout): Identity()
                      (norm): RMSNorm()
                      (mlp): MLP(
                        (gate_proj): Linear(in_features=256, out_features=1024, bias=False)
                        (up_proj): Linear(in_features=256, out_features=1024, bias=False)
                        (down_proj): Linear(in_features=1024, out_features=256, bias=False)
                        (act_fn): SiLU()
                      )
                      (mlp_norm): RMSNorm()
                    )
                    (1): ModuleDict(
                      (norm_before): RMSNorm()
                      (mamba): DSSMamba(
                        (in_proj): Linear(in_features=256, out_features=2048, bias=False)
                        (in_proj_xy): Linear(in_features=256, out_features=2048, bias=False)
                        (act): SiLU()
                        (x_proj_f): Linear(in_features=512, out_features=144, bias=False)
                        (x_proj_b): Linear(in_features=512, out_features=144, bias=False)
                        (dt_proj_f): Linear(in_features=16, out_features=512, bias=True)
                        (dt_proj_b): Linear(in_features=16, out_features=512, bias=True)
                        (act_xy): SiLU()
                        (x_proj_f_xy): Linear(in_features=512, out_features=144, bias=False)
                        (x_proj_b_xy): Linear(in_features=512, out_features=144, bias=False)
                        (dt_proj_f_xy): Linear(in_features=16, out_features=512, bias=True)
                        (dt_proj_b_xy): Linear(in_features=16, out_features=512, bias=True)
                        (conv1d_x_f): Conv1d(512, 512, kernel_size=(4,), stride=(1,), groups=512)
                        (conv1d_z_f): Conv1d(512, 512, kernel_size=(4,), stride=(1,), groups=512)
                        (conv1d_x_b): Conv1d(512, 512, kernel_size=(4,), stride=(1,), groups=512)
                        (conv1d_z_b): Conv1d(512, 512, kernel_size=(4,), stride=(1,), groups=512)
                        (conv1d_x_xy_f): Conv1d(512, 512, kernel_size=(4,), stride=(1,), groups=512)
                        (conv1d_z_xy_f): Conv1d(512, 512, kernel_size=(4,), stride=(1,), groups=512)
                        (conv1d_x_xy_b): Conv1d(512, 512, kernel_size=(4,), stride=(1,), groups=512)
                        (conv1d_z_xy_b): Conv1d(512, 512, kernel_size=(4,), stride=(1,), groups=512)
                        (out_proj): Linear(in_features=2048, out_features=256, bias=False)
                        (global_proj): Linear(in_features=2048, out_features=2048, bias=True)
                      )
                      (dropout): DropPath(drop_prob=0.300)
                      (norm): RMSNorm()
                      (mlp): MLP(
                        (gate_proj): Linear(in_features=256, out_features=1024, bias=False)
                        (up_proj): Linear(in_features=256, out_features=1024, bias=False)
                        (down_proj): Linear(in_features=1024, out_features=256, bias=False)
                        (act_fn): SiLU()
                      )
                      (mlp_norm): Identity()
                    )
                  )
                  (rope): RotaryEmbedding()
                )
                (3): DropPath(drop_prob=0.100)
              )
              (1): FUTR3DAttention(
                (dropout): Dropout(p=0.1, inplace=False)
                (sampling_offsets): Linear(in_features=256, out_features=256, bias=True)
                (attention_weights): Linear(in_features=256, out_features=128, bias=True)
                (value_proj): Linear(in_features=256, out_features=256, bias=True)
                (output_proj): Linear(in_features=256, out_features=256, bias=True)
                (img_attention_weights): Linear(in_features=256, out_features=12, bias=True)
                (img_output_proj): Linear(in_features=256, out_features=256, bias=True)
                (position_encoder): Sequential(
                  (0): Linear(in_features=3, out_features=256, bias=True)
                  (1): LayerNorm((256,), eps=1e-05, elementwise_affine=True)
                  (2): ReLU(inplace=True)
                  (3): Linear(in_features=256, out_features=256, bias=True)
                  (4): LayerNorm((256,), eps=1e-05, elementwise_affine=True)
                  (5): ReLU(inplace=True)
                )
                (weight_dropout): Dropout(p=0.0, inplace=False)
                (modality_fusion_layer): Sequential(
                  (0): Linear(in_features=768, out_features=256, bias=True)
                  (1): LayerNorm((256,), eps=1e-05, elementwise_affine=True)
                  (2): ReLU()
                  (3): Linear(in_features=256, out_features=256, bias=True)
                  (4): LayerNorm((256,), eps=1e-05, elementwise_affine=True)
                )
                (camera_mixer): LidarCameraFusionMambaBlock(
                  (layers): ModuleList(
                    (0): LidarCameraFusionMambaV2(
                      (activation_fn): SiLU()
                      (in_proj): Linear(in_features=256, out_features=1024, bias=False)
                      (conv1d_h2t): Conv1d(512, 512, kernel_size=(4,), stride=(1,), padding=(3,), groups=512)
                      (x_proj_h2t): Linear(in_features=512, out_features=48, bias=False)
                      (dt_proj_h2t): Linear(in_features=16, out_features=512, bias=True)
                      (conv1d_t2h): Conv1d(512, 512, kernel_size=(4,), stride=(1,), padding=(3,), groups=512)
                      (x_proj_t2h): Linear(in_features=512, out_features=48, bias=False)
                      (dt_proj_t2h): Linear(in_features=16, out_features=512, bias=True)
                      (lidar_guidance_proj): Linear(in_features=512, out_features=512, bias=True)
                      (out_proj): Linear(in_features=512, out_features=256, bias=False)
                    )
                    (1): LidarCameraFusionMambaV2(
                      (activation_fn): SiLU()
                      (in_proj): Linear(in_features=256, out_features=1024, bias=False)
                      (conv1d_h2t): Conv1d(512, 512, kernel_size=(4,), stride=(1,), padding=(3,), groups=512)
                      (x_proj_h2t): Linear(in_features=512, out_features=48, bias=False)
                      (dt_proj_h2t): Linear(in_features=16, out_features=512, bias=True)
                      (conv1d_t2h): Conv1d(512, 512, kernel_size=(4,), stride=(1,), padding=(3,), groups=512)
                      (x_proj_t2h): Linear(in_features=512, out_features=48, bias=False)
                      (dt_proj_t2h): Linear(in_features=16, out_features=512, bias=True)
                      (lidar_guidance_proj): Linear(in_features=512, out_features=512, bias=True)
                      (out_proj): Linear(in_features=512, out_features=256, bias=False)
                    )
                  )
                  (norm): ModuleList(
                    (0): LayerNorm((256,), eps=1e-05, elementwise_affine=True)
                    (1): LayerNorm((256,), eps=1e-05, elementwise_affine=True)
                  )
                  (dropout): ModuleList(
                    (0): DropPath(drop_prob=0.100)
                    (1): DropPath(drop_prob=0.100)
                  )
                )
              )
            )
            (ffns): ModuleList(
              (0): FFN(
                (activate): ReLU(inplace=True)
                (layers): Sequential(
                  (0): Sequential(
                    (0): Linear(in_features=256, out_features=1024, bias=True)
                    (1): ReLU(inplace=True)
                    (2): Dropout(p=0.1, inplace=False)
                  )
                  (1): Linear(in_features=1024, out_features=256, bias=True)
                  (2): Dropout(p=0.1, inplace=False)
                )
                (dropout_layer): Identity()
              )
            )
            (norms): ModuleList(
              (0): LayerNorm((256,), eps=1e-05, elementwise_affine=True)
              (1): LayerNorm((256,), eps=1e-05, elementwise_affine=True)
              (2): LayerNorm((256,), eps=1e-05, elementwise_affine=True)
            )
          )
        )
        (query_scale): MLP(
          (layers): ModuleList(
            (0): Linear(in_features=256, out_features=256, bias=True)
            (1): Linear(in_features=256, out_features=256, bias=True)
          )
        )
        (ref_point_head): MLP(
          (layers): ModuleList(
            (0): Linear(in_features=384, out_features=256, bias=True)
            (1): Linear(in_features=256, out_features=256, bias=True)
          )
        )
      )
    )
    (cls_branches): ModuleList(
      (0): MLP(
        (gate_proj): Linear(in_features=256, out_features=1024, bias=False)
        (up_proj): Linear(in_features=256, out_features=1024, bias=False)
        (act_fn): SiLU()
        (down_proj): Linear(in_features=1024, out_features=10, bias=True)
      )
      (1): MLP(
        (gate_proj): Linear(in_features=256, out_features=1024, bias=False)
        (up_proj): Linear(in_features=256, out_features=1024, bias=False)
        (act_fn): SiLU()
        (down_proj): Linear(in_features=1024, out_features=10, bias=True)
      )
      (2): MLP(
        (gate_proj): Linear(in_features=256, out_features=1024, bias=False)
        (up_proj): Linear(in_features=256, out_features=1024, bias=False)
        (act_fn): SiLU()
        (down_proj): Linear(in_features=1024, out_features=10, bias=True)
      )
      (3): MLP(
        (gate_proj): Linear(in_features=256, out_features=1024, bias=False)
        (up_proj): Linear(in_features=256, out_features=1024, bias=False)
        (act_fn): SiLU()
        (down_proj): Linear(in_features=1024, out_features=10, bias=True)
      )
      (4): MLP(
        (gate_proj): Linear(in_features=256, out_features=1024, bias=False)
        (up_proj): Linear(in_features=256, out_features=1024, bias=False)
        (act_fn): SiLU()
        (down_proj): Linear(in_features=1024, out_features=10, bias=True)
      )
      (5): MLP(
        (gate_proj): Linear(in_features=256, out_features=1024, bias=False)
        (up_proj): Linear(in_features=256, out_features=1024, bias=False)
        (act_fn): SiLU()
        (down_proj): Linear(in_features=1024, out_features=10, bias=True)
      )
    )
    (reg_branches): ModuleList(
      (0): Sequential(
        (0): Linear(in_features=256, out_features=256, bias=True)
        (1): ReLU()
        (2): Linear(in_features=256, out_features=256, bias=True)
        (3): ReLU()
        (4): Linear(in_features=256, out_features=10, bias=True)
      )
      (1): Sequential(
        (0): Linear(in_features=256, out_features=256, bias=True)
        (1): ReLU()
        (2): Linear(in_features=256, out_features=256, bias=True)
        (3): ReLU()
        (4): Linear(in_features=256, out_features=10, bias=True)
      )
      (2): Sequential(
        (0): Linear(in_features=256, out_features=256, bias=True)
        (1): ReLU()
        (2): Linear(in_features=256, out_features=256, bias=True)
        (3): ReLU()
        (4): Linear(in_features=256, out_features=10, bias=True)
      )
      (3): Sequential(
        (0): Linear(in_features=256, out_features=256, bias=True)
        (1): ReLU()
        (2): Linear(in_features=256, out_features=256, bias=True)
        (3): ReLU()
        (4): Linear(in_features=256, out_features=10, bias=True)
      )
      (4): Sequential(
        (0): Linear(in_features=256, out_features=256, bias=True)
        (1): ReLU()
        (2): Linear(in_features=256, out_features=256, bias=True)
        (3): ReLU()
        (4): Linear(in_features=256, out_features=10, bias=True)
      )
      (5): Sequential(
        (0): Linear(in_features=256, out_features=256, bias=True)
        (1): ReLU()
        (2): Linear(in_features=256, out_features=256, bias=True)
        (3): ReLU()
        (4): Linear(in_features=256, out_features=10, bias=True)
      )
    )
    (tgt_embed): Embedding(900, 256)
    (refpoint_embed): Embedding(900, 3)
  )
  (img_backbone): VoVNetCP(
    (stem): Sequential(
      (stem_1/conv): Conv2d(3, 64, kernel_size=(3, 3), stride=(2, 2), padding=(1, 1), bias=False)
      (stem_1/norm): SyncBatchNorm(64, eps=1e-05, momentum=0.1, affine=True, track_running_stats=True)
      (stem_1/relu): ReLU(inplace=True)
      (stem_2/conv): Conv2d(64, 64, kernel_size=(3, 3), stride=(1, 1), padding=(1, 1), bias=False)
      (stem_2/norm): SyncBatchNorm(64, eps=1e-05, momentum=0.1, affine=True, track_running_stats=True)
      (stem_2/relu): ReLU(inplace=True)
      (stem_3/conv): Conv2d(64, 128, kernel_size=(3, 3), stride=(2, 2), padding=(1, 1), bias=False)
      (stem_3/norm): SyncBatchNorm(128, eps=1e-05, momentum=0.1, affine=True, track_running_stats=True)
      (stem_3/relu): ReLU(inplace=True)
    )
    (stage2): _OSA_stage(
      (OSA2_1): _OSA_module(
        (layers): ModuleList(
          (0): Sequential(
            (OSA2_1_0/conv): Conv2d(128, 128, kernel_size=(3, 3), stride=(1, 1), padding=(1, 1), bias=False)
            (OSA2_1_0/norm): SyncBatchNorm(128, eps=1e-05, momentum=0.1, affine=True, track_running_stats=True)
            (OSA2_1_0/relu): ReLU(inplace=True)
          )
          (1): Sequential(
            (OSA2_1_1/conv): Conv2d(128, 128, kernel_size=(3, 3), stride=(1, 1), padding=(1, 1), bias=False)
            (OSA2_1_1/norm): SyncBatchNorm(128, eps=1e-05, momentum=0.1, affine=True, track_running_stats=True)
            (OSA2_1_1/relu): ReLU(inplace=True)
          )
          (2): Sequential(
            (OSA2_1_2/conv): Conv2d(128, 128, kernel_size=(3, 3), stride=(1, 1), padding=(1, 1), bias=False)
            (OSA2_1_2/norm): SyncBatchNorm(128, eps=1e-05, momentum=0.1, affine=True, track_running_stats=True)
            (OSA2_1_2/relu): ReLU(inplace=True)
          )
          (3): Sequential(
            (OSA2_1_3/conv): Conv2d(128, 128, kernel_size=(3, 3), stride=(1, 1), padding=(1, 1), bias=False)
            (OSA2_1_3/norm): SyncBatchNorm(128, eps=1e-05, momentum=0.1, affine=True, track_running_stats=True)
            (OSA2_1_3/relu): ReLU(inplace=True)
          )
          (4): Sequential(
            (OSA2_1_4/conv): Conv2d(128, 128, kernel_size=(3, 3), stride=(1, 1), padding=(1, 1), bias=False)
            (OSA2_1_4/norm): SyncBatchNorm(128, eps=1e-05, momentum=0.1, affine=True, track_running_stats=True)
            (OSA2_1_4/relu): ReLU(inplace=True)
          )
        )
        (concat): Sequential(
          (OSA2_1_concat/conv): Conv2d(768, 256, kernel_size=(1, 1), stride=(1, 1), bias=False)
          (OSA2_1_concat/norm): SyncBatchNorm(256, eps=1e-05, momentum=0.1, affine=True, track_running_stats=True)
          (OSA2_1_concat/relu): ReLU(inplace=True)
        )
        (ese): eSEModule(
          (avg_pool): AdaptiveAvgPool2d(output_size=1)
          (fc): Conv2d(256, 256, kernel_size=(1, 1), stride=(1, 1))
          (hsigmoid): Hsigmoid()
        )
      )
    )
    (stage3): _OSA_stage(
      (Pooling): MaxPool2d(kernel_size=3, stride=2, padding=0, dilation=1, ceil_mode=True)
      (OSA3_1): _OSA_module(
        (layers): ModuleList(
          (0): Sequential(
            (OSA3_1_0/conv): Conv2d(256, 160, kernel_size=(3, 3), stride=(1, 1), padding=(1, 1), bias=False)
            (OSA3_1_0/norm): SyncBatchNorm(160, eps=1e-05, momentum=0.1, affine=True, track_running_stats=True)
            (OSA3_1_0/relu): ReLU(inplace=True)
          )
          (1): Sequential(
            (OSA3_1_1/conv): Conv2d(160, 160, kernel_size=(3, 3), stride=(1, 1), padding=(1, 1), bias=False)
            (OSA3_1_1/norm): SyncBatchNorm(160, eps=1e-05, momentum=0.1, affine=True, track_running_stats=True)
            (OSA3_1_1/relu): ReLU(inplace=True)
          )
          (2): Sequential(
            (OSA3_1_2/conv): Conv2d(160, 160, kernel_size=(3, 3), stride=(1, 1), padding=(1, 1), bias=False)
            (OSA3_1_2/norm): SyncBatchNorm(160, eps=1e-05, momentum=0.1, affine=True, track_running_stats=True)
            (OSA3_1_2/relu): ReLU(inplace=True)
          )
          (3): Sequential(
            (OSA3_1_3/conv): Conv2d(160, 160, kernel_size=(3, 3), stride=(1, 1), padding=(1, 1), bias=False)
            (OSA3_1_3/norm): SyncBatchNorm(160, eps=1e-05, momentum=0.1, affine=True, track_running_stats=True)
            (OSA3_1_3/relu): ReLU(inplace=True)
          )
          (4): Sequential(
            (OSA3_1_4/conv): Conv2d(160, 160, kernel_size=(3, 3), stride=(1, 1), padding=(1, 1), bias=False)
            (OSA3_1_4/norm): SyncBatchNorm(160, eps=1e-05, momentum=0.1, affine=True, track_running_stats=True)
            (OSA3_1_4/relu): ReLU(inplace=True)
          )
        )
        (concat): Sequential(
          (OSA3_1_concat/conv): Conv2d(1056, 512, kernel_size=(1, 1), stride=(1, 1), bias=False)
          (OSA3_1_concat/norm): SyncBatchNorm(512, eps=1e-05, momentum=0.1, affine=True, track_running_stats=True)
          (OSA3_1_concat/relu): ReLU(inplace=True)
        )
        (ese): eSEModule(
          (avg_pool): AdaptiveAvgPool2d(output_size=1)
          (fc): Conv2d(512, 512, kernel_size=(1, 1), stride=(1, 1))
          (hsigmoid): Hsigmoid()
        )
      )
      (OSA3_2): _OSA_module(
        (layers): ModuleList(
          (0): Sequential(
            (OSA3_2_0/conv): Conv2d(512, 160, kernel_size=(3, 3), stride=(1, 1), padding=(1, 1), bias=False)
            (OSA3_2_0/norm): SyncBatchNorm(160, eps=1e-05, momentum=0.1, affine=True, track_running_stats=True)
            (OSA3_2_0/relu): ReLU(inplace=True)
          )
          (1): Sequential(
            (OSA3_2_1/conv): Conv2d(160, 160, kernel_size=(3, 3), stride=(1, 1), padding=(1, 1), bias=False)
            (OSA3_2_1/norm): SyncBatchNorm(160, eps=1e-05, momentum=0.1, affine=True, track_running_stats=True)
            (OSA3_2_1/relu): ReLU(inplace=True)
          )
          (2): Sequential(
            (OSA3_2_2/conv): Conv2d(160, 160, kernel_size=(3, 3), stride=(1, 1), padding=(1, 1), bias=False)
            (OSA3_2_2/norm): SyncBatchNorm(160, eps=1e-05, momentum=0.1, affine=True, track_running_stats=True)
            (OSA3_2_2/relu): ReLU(inplace=True)
          )
          (3): Sequential(
            (OSA3_2_3/conv): Conv2d(160, 160, kernel_size=(3, 3), stride=(1, 1), padding=(1, 1), bias=False)
            (OSA3_2_3/norm): SyncBatchNorm(160, eps=1e-05, momentum=0.1, affine=True, track_running_stats=True)
            (OSA3_2_3/relu): ReLU(inplace=True)
          )
          (4): Sequential(
            (OSA3_2_4/conv): Conv2d(160, 160, kernel_size=(3, 3), stride=(1, 1), padding=(1, 1), bias=False)
            (OSA3_2_4/norm): SyncBatchNorm(160, eps=1e-05, momentum=0.1, affine=True, track_running_stats=True)
            (OSA3_2_4/relu): ReLU(inplace=True)
          )
        )
        (concat): Sequential(
          (OSA3_2_concat/conv): Conv2d(1312, 512, kernel_size=(1, 1), stride=(1, 1), bias=False)
          (OSA3_2_concat/norm): SyncBatchNorm(512, eps=1e-05, momentum=0.1, affine=True, track_running_stats=True)
          (OSA3_2_concat/relu): ReLU(inplace=True)
        )
        (ese): eSEModule(
          (avg_pool): AdaptiveAvgPool2d(output_size=1)
          (fc): Conv2d(512, 512, kernel_size=(1, 1), stride=(1, 1))
          (hsigmoid): Hsigmoid()
        )
      )
      (OSA3_3): _OSA_module(
        (layers): ModuleList(
          (0): Sequential(
            (OSA3_3_0/conv): Conv2d(512, 160, kernel_size=(3, 3), stride=(1, 1), padding=(1, 1), bias=False)
            (OSA3_3_0/norm): SyncBatchNorm(160, eps=1e-05, momentum=0.1, affine=True, track_running_stats=True)
            (OSA3_3_0/relu): ReLU(inplace=True)
          )
          (1): Sequential(
            (OSA3_3_1/conv): Conv2d(160, 160, kernel_size=(3, 3), stride=(1, 1), padding=(1, 1), bias=False)
            (OSA3_3_1/norm): SyncBatchNorm(160, eps=1e-05, momentum=0.1, affine=True, track_running_stats=True)
            (OSA3_3_1/relu): ReLU(inplace=True)
          )
          (2): Sequential(
            (OSA3_3_2/conv): Conv2d(160, 160, kernel_size=(3, 3), stride=(1, 1), padding=(1, 1), bias=False)
            (OSA3_3_2/norm): SyncBatchNorm(160, eps=1e-05, momentum=0.1, affine=True, track_running_stats=True)
            (OSA3_3_2/relu): ReLU(inplace=True)
          )
          (3): Sequential(
            (OSA3_3_3/conv): Conv2d(160, 160, kernel_size=(3, 3), stride=(1, 1), padding=(1, 1), bias=False)
            (OSA3_3_3/norm): SyncBatchNorm(160, eps=1e-05, momentum=0.1, affine=True, track_running_stats=True)
            (OSA3_3_3/relu): ReLU(inplace=True)
          )
          (4): Sequential(
            (OSA3_3_4/conv): Conv2d(160, 160, kernel_size=(3, 3), stride=(1, 1), padding=(1, 1), bias=False)
            (OSA3_3_4/norm): SyncBatchNorm(160, eps=1e-05, momentum=0.1, affine=True, track_running_stats=True)
            (OSA3_3_4/relu): ReLU(inplace=True)
          )
        )
        (concat): Sequential(
          (OSA3_3_concat/conv): Conv2d(1312, 512, kernel_size=(1, 1), stride=(1, 1), bias=False)
          (OSA3_3_concat/norm): SyncBatchNorm(512, eps=1e-05, momentum=0.1, affine=True, track_running_stats=True)
          (OSA3_3_concat/relu): ReLU(inplace=True)
        )
        (ese): eSEModule(
          (avg_pool): AdaptiveAvgPool2d(output_size=1)
          (fc): Conv2d(512, 512, kernel_size=(1, 1), stride=(1, 1))
          (hsigmoid): Hsigmoid()
        )
      )
    )
    (stage4): _OSA_stage(
      (Pooling): MaxPool2d(kernel_size=3, stride=2, padding=0, dilation=1, ceil_mode=True)
      (OSA4_1): _OSA_module(
        (layers): ModuleList(
          (0): Sequential(
            (OSA4_1_0/conv): Conv2d(512, 192, kernel_size=(3, 3), stride=(1, 1), padding=(1, 1), bias=False)
            (OSA4_1_0/norm): SyncBatchNorm(192, eps=1e-05, momentum=0.1, affine=True, track_running_stats=True)
            (OSA4_1_0/relu): ReLU(inplace=True)
          )
          (1): Sequential(
            (OSA4_1_1/conv): Conv2d(192, 192, kernel_size=(3, 3), stride=(1, 1), padding=(1, 1), bias=False)
            (OSA4_1_1/norm): SyncBatchNorm(192, eps=1e-05, momentum=0.1, affine=True, track_running_stats=True)
            (OSA4_1_1/relu): ReLU(inplace=True)
          )
          (2): Sequential(
            (OSA4_1_2/conv): Conv2d(192, 192, kernel_size=(3, 3), stride=(1, 1), padding=(1, 1), bias=False)
            (OSA4_1_2/norm): SyncBatchNorm(192, eps=1e-05, momentum=0.1, affine=True, track_running_stats=True)
            (OSA4_1_2/relu): ReLU(inplace=True)
          )
          (3): Sequential(
            (OSA4_1_3/conv): Conv2d(192, 192, kernel_size=(3, 3), stride=(1, 1), padding=(1, 1), bias=False)
            (OSA4_1_3/norm): SyncBatchNorm(192, eps=1e-05, momentum=0.1, affine=True, track_running_stats=True)
            (OSA4_1_3/relu): ReLU(inplace=True)
          )
          (4): Sequential(
            (OSA4_1_4/conv): Conv2d(192, 192, kernel_size=(3, 3), stride=(1, 1), padding=(1, 1), bias=False)
            (OSA4_1_4/norm): SyncBatchNorm(192, eps=1e-05, momentum=0.1, affine=True, track_running_stats=True)
            (OSA4_1_4/relu): ReLU(inplace=True)
          )
        )
        (concat): Sequential(
          (OSA4_1_concat/conv): Conv2d(1472, 768, kernel_size=(1, 1), stride=(1, 1), bias=False)
          (OSA4_1_concat/norm): SyncBatchNorm(768, eps=1e-05, momentum=0.1, affine=True, track_running_stats=True)
          (OSA4_1_concat/relu): ReLU(inplace=True)
        )
        (ese): eSEModule(
          (avg_pool): AdaptiveAvgPool2d(output_size=1)
          (fc): Conv2d(768, 768, kernel_size=(1, 1), stride=(1, 1))
          (hsigmoid): Hsigmoid()
        )
      )
      (OSA4_2): _OSA_module(
        (layers): ModuleList(
          (0): Sequential(
            (OSA4_2_0/conv): Conv2d(768, 192, kernel_size=(3, 3), stride=(1, 1), padding=(1, 1), bias=False)
            (OSA4_2_0/norm): SyncBatchNorm(192, eps=1e-05, momentum=0.1, affine=True, track_running_stats=True)
            (OSA4_2_0/relu): ReLU(inplace=True)
          )
          (1): Sequential(
            (OSA4_2_1/conv): Conv2d(192, 192, kernel_size=(3, 3), stride=(1, 1), padding=(1, 1), bias=False)
            (OSA4_2_1/norm): SyncBatchNorm(192, eps=1e-05, momentum=0.1, affine=True, track_running_stats=True)
            (OSA4_2_1/relu): ReLU(inplace=True)
          )
          (2): Sequential(
            (OSA4_2_2/conv): Conv2d(192, 192, kernel_size=(3, 3), stride=(1, 1), padding=(1, 1), bias=False)
            (OSA4_2_2/norm): SyncBatchNorm(192, eps=1e-05, momentum=0.1, affine=True, track_running_stats=True)
            (OSA4_2_2/relu): ReLU(inplace=True)
          )
          (3): Sequential(
            (OSA4_2_3/conv): Conv2d(192, 192, kernel_size=(3, 3), stride=(1, 1), padding=(1, 1), bias=False)
            (OSA4_2_3/norm): SyncBatchNorm(192, eps=1e-05, momentum=0.1, affine=True, track_running_stats=True)
            (OSA4_2_3/relu): ReLU(inplace=True)
          )
          (4): Sequential(
            (OSA4_2_4/conv): Conv2d(192, 192, kernel_size=(3, 3), stride=(1, 1), padding=(1, 1), bias=False)
            (OSA4_2_4/norm): SyncBatchNorm(192, eps=1e-05, momentum=0.1, affine=True, track_running_stats=True)
            (OSA4_2_4/relu): ReLU(inplace=True)
          )
        )
        (concat): Sequential(
          (OSA4_2_concat/conv): Conv2d(1728, 768, kernel_size=(1, 1), stride=(1, 1), bias=False)
          (OSA4_2_concat/norm): SyncBatchNorm(768, eps=1e-05, momentum=0.1, affine=True, track_running_stats=True)
          (OSA4_2_concat/relu): ReLU(inplace=True)
        )
        (ese): eSEModule(
          (avg_pool): AdaptiveAvgPool2d(output_size=1)
          (fc): Conv2d(768, 768, kernel_size=(1, 1), stride=(1, 1))
          (hsigmoid): Hsigmoid()
        )
      )
      (OSA4_3): _OSA_module(
        (layers): ModuleList(
          (0): Sequential(
            (OSA4_3_0/conv): Conv2d(768, 192, kernel_size=(3, 3), stride=(1, 1), padding=(1, 1), bias=False)
            (OSA4_3_0/norm): SyncBatchNorm(192, eps=1e-05, momentum=0.1, affine=True, track_running_stats=True)
            (OSA4_3_0/relu): ReLU(inplace=True)
          )
          (1): Sequential(
            (OSA4_3_1/conv): Conv2d(192, 192, kernel_size=(3, 3), stride=(1, 1), padding=(1, 1), bias=False)
            (OSA4_3_1/norm): SyncBatchNorm(192, eps=1e-05, momentum=0.1, affine=True, track_running_stats=True)
            (OSA4_3_1/relu): ReLU(inplace=True)
          )
          (2): Sequential(
            (OSA4_3_2/conv): Conv2d(192, 192, kernel_size=(3, 3), stride=(1, 1), padding=(1, 1), bias=False)
            (OSA4_3_2/norm): SyncBatchNorm(192, eps=1e-05, momentum=0.1, affine=True, track_running_stats=True)
            (OSA4_3_2/relu): ReLU(inplace=True)
          )
          (3): Sequential(
            (OSA4_3_3/conv): Conv2d(192, 192, kernel_size=(3, 3), stride=(1, 1), padding=(1, 1), bias=False)
            (OSA4_3_3/norm): SyncBatchNorm(192, eps=1e-05, momentum=0.1, affine=True, track_running_stats=True)
            (OSA4_3_3/relu): ReLU(inplace=True)
          )
          (4): Sequential(
            (OSA4_3_4/conv): Conv2d(192, 192, kernel_size=(3, 3), stride=(1, 1), padding=(1, 1), bias=False)
            (OSA4_3_4/norm): SyncBatchNorm(192, eps=1e-05, momentum=0.1, affine=True, track_running_stats=True)
            (OSA4_3_4/relu): ReLU(inplace=True)
          )
        )
        (concat): Sequential(
          (OSA4_3_concat/conv): Conv2d(1728, 768, kernel_size=(1, 1), stride=(1, 1), bias=False)
          (OSA4_3_concat/norm): SyncBatchNorm(768, eps=1e-05, momentum=0.1, affine=True, track_running_stats=True)
          (OSA4_3_concat/relu): ReLU(inplace=True)
        )
        (ese): eSEModule(
          (avg_pool): AdaptiveAvgPool2d(output_size=1)
          (fc): Conv2d(768, 768, kernel_size=(1, 1), stride=(1, 1))
          (hsigmoid): Hsigmoid()
        )
      )
      (OSA4_4): _OSA_module(
        (layers): ModuleList(
          (0): Sequential(
            (OSA4_4_0/conv): Conv2d(768, 192, kernel_size=(3, 3), stride=(1, 1), padding=(1, 1), bias=False)
            (OSA4_4_0/norm): SyncBatchNorm(192, eps=1e-05, momentum=0.1, affine=True, track_running_stats=True)
            (OSA4_4_0/relu): ReLU(inplace=True)
          )
          (1): Sequential(
            (OSA4_4_1/conv): Conv2d(192, 192, kernel_size=(3, 3), stride=(1, 1), padding=(1, 1), bias=False)
            (OSA4_4_1/norm): SyncBatchNorm(192, eps=1e-05, momentum=0.1, affine=True, track_running_stats=True)
            (OSA4_4_1/relu): ReLU(inplace=True)
          )
          (2): Sequential(
            (OSA4_4_2/conv): Conv2d(192, 192, kernel_size=(3, 3), stride=(1, 1), padding=(1, 1), bias=False)
            (OSA4_4_2/norm): SyncBatchNorm(192, eps=1e-05, momentum=0.1, affine=True, track_running_stats=True)
            (OSA4_4_2/relu): ReLU(inplace=True)
          )
          (3): Sequential(
            (OSA4_4_3/conv): Conv2d(192, 192, kernel_size=(3, 3), stride=(1, 1), padding=(1, 1), bias=False)
            (OSA4_4_3/norm): SyncBatchNorm(192, eps=1e-05, momentum=0.1, affine=True, track_running_stats=True)
            (OSA4_4_3/relu): ReLU(inplace=True)
          )
          (4): Sequential(
            (OSA4_4_4/conv): Conv2d(192, 192, kernel_size=(3, 3), stride=(1, 1), padding=(1, 1), bias=False)
            (OSA4_4_4/norm): SyncBatchNorm(192, eps=1e-05, momentum=0.1, affine=True, track_running_stats=True)
            (OSA4_4_4/relu): ReLU(inplace=True)
          )
        )
        (concat): Sequential(
          (OSA4_4_concat/conv): Conv2d(1728, 768, kernel_size=(1, 1), stride=(1, 1), bias=False)
          (OSA4_4_concat/norm): SyncBatchNorm(768, eps=1e-05, momentum=0.1, affine=True, track_running_stats=True)
          (OSA4_4_concat/relu): ReLU(inplace=True)
        )
        (ese): eSEModule(
          (avg_pool): AdaptiveAvgPool2d(output_size=1)
          (fc): Conv2d(768, 768, kernel_size=(1, 1), stride=(1, 1))
          (hsigmoid): Hsigmoid()
        )
      )
      (OSA4_5): _OSA_module(
        (layers): ModuleList(
          (0): Sequential(
            (OSA4_5_0/conv): Conv2d(768, 192, kernel_size=(3, 3), stride=(1, 1), padding=(1, 1), bias=False)
            (OSA4_5_0/norm): SyncBatchNorm(192, eps=1e-05, momentum=0.1, affine=True, track_running_stats=True)
            (OSA4_5_0/relu): ReLU(inplace=True)
          )
          (1): Sequential(
            (OSA4_5_1/conv): Conv2d(192, 192, kernel_size=(3, 3), stride=(1, 1), padding=(1, 1), bias=False)
            (OSA4_5_1/norm): SyncBatchNorm(192, eps=1e-05, momentum=0.1, affine=True, track_running_stats=True)
            (OSA4_5_1/relu): ReLU(inplace=True)
          )
          (2): Sequential(
            (OSA4_5_2/conv): Conv2d(192, 192, kernel_size=(3, 3), stride=(1, 1), padding=(1, 1), bias=False)
            (OSA4_5_2/norm): SyncBatchNorm(192, eps=1e-05, momentum=0.1, affine=True, track_running_stats=True)
            (OSA4_5_2/relu): ReLU(inplace=True)
          )
          (3): Sequential(
            (OSA4_5_3/conv): Conv2d(192, 192, kernel_size=(3, 3), stride=(1, 1), padding=(1, 1), bias=False)
            (OSA4_5_3/norm): SyncBatchNorm(192, eps=1e-05, momentum=0.1, affine=True, track_running_stats=True)
            (OSA4_5_3/relu): ReLU(inplace=True)
          )
          (4): Sequential(
            (OSA4_5_4/conv): Conv2d(192, 192, kernel_size=(3, 3), stride=(1, 1), padding=(1, 1), bias=False)
            (OSA4_5_4/norm): SyncBatchNorm(192, eps=1e-05, momentum=0.1, affine=True, track_running_stats=True)
            (OSA4_5_4/relu): ReLU(inplace=True)
          )
        )
        (concat): Sequential(
          (OSA4_5_concat/conv): Conv2d(1728, 768, kernel_size=(1, 1), stride=(1, 1), bias=False)
          (OSA4_5_concat/norm): SyncBatchNorm(768, eps=1e-05, momentum=0.1, affine=True, track_running_stats=True)
          (OSA4_5_concat/relu): ReLU(inplace=True)
        )
        (ese): eSEModule(
          (avg_pool): AdaptiveAvgPool2d(output_size=1)
          (fc): Conv2d(768, 768, kernel_size=(1, 1), stride=(1, 1))
          (hsigmoid): Hsigmoid()
        )
      )
      (OSA4_6): _OSA_module(
        (layers): ModuleList(
          (0): Sequential(
            (OSA4_6_0/conv): Conv2d(768, 192, kernel_size=(3, 3), stride=(1, 1), padding=(1, 1), bias=False)
            (OSA4_6_0/norm): SyncBatchNorm(192, eps=1e-05, momentum=0.1, affine=True, track_running_stats=True)
            (OSA4_6_0/relu): ReLU(inplace=True)
          )
          (1): Sequential(
            (OSA4_6_1/conv): Conv2d(192, 192, kernel_size=(3, 3), stride=(1, 1), padding=(1, 1), bias=False)
            (OSA4_6_1/norm): SyncBatchNorm(192, eps=1e-05, momentum=0.1, affine=True, track_running_stats=True)
            (OSA4_6_1/relu): ReLU(inplace=True)
          )
          (2): Sequential(
            (OSA4_6_2/conv): Conv2d(192, 192, kernel_size=(3, 3), stride=(1, 1), padding=(1, 1), bias=False)
            (OSA4_6_2/norm): SyncBatchNorm(192, eps=1e-05, momentum=0.1, affine=True, track_running_stats=True)
            (OSA4_6_2/relu): ReLU(inplace=True)
          )
          (3): Sequential(
            (OSA4_6_3/conv): Conv2d(192, 192, kernel_size=(3, 3), stride=(1, 1), padding=(1, 1), bias=False)
            (OSA4_6_3/norm): SyncBatchNorm(192, eps=1e-05, momentum=0.1, affine=True, track_running_stats=True)
            (OSA4_6_3/relu): ReLU(inplace=True)
          )
          (4): Sequential(
            (OSA4_6_4/conv): Conv2d(192, 192, kernel_size=(3, 3), stride=(1, 1), padding=(1, 1), bias=False)
            (OSA4_6_4/norm): SyncBatchNorm(192, eps=1e-05, momentum=0.1, affine=True, track_running_stats=True)
            (OSA4_6_4/relu): ReLU(inplace=True)
          )
        )
        (concat): Sequential(
          (OSA4_6_concat/conv): Conv2d(1728, 768, kernel_size=(1, 1), stride=(1, 1), bias=False)
          (OSA4_6_concat/norm): SyncBatchNorm(768, eps=1e-05, momentum=0.1, affine=True, track_running_stats=True)
          (OSA4_6_concat/relu): ReLU(inplace=True)
        )
        (ese): eSEModule(
          (avg_pool): AdaptiveAvgPool2d(output_size=1)
          (fc): Conv2d(768, 768, kernel_size=(1, 1), stride=(1, 1))
          (hsigmoid): Hsigmoid()
        )
      )
      (OSA4_7): _OSA_module(
        (layers): ModuleList(
          (0): Sequential(
            (OSA4_7_0/conv): Conv2d(768, 192, kernel_size=(3, 3), stride=(1, 1), padding=(1, 1), bias=False)
            (OSA4_7_0/norm): SyncBatchNorm(192, eps=1e-05, momentum=0.1, affine=True, track_running_stats=True)
            (OSA4_7_0/relu): ReLU(inplace=True)
          )
          (1): Sequential(
            (OSA4_7_1/conv): Conv2d(192, 192, kernel_size=(3, 3), stride=(1, 1), padding=(1, 1), bias=False)
            (OSA4_7_1/norm): SyncBatchNorm(192, eps=1e-05, momentum=0.1, affine=True, track_running_stats=True)
            (OSA4_7_1/relu): ReLU(inplace=True)
          )
          (2): Sequential(
            (OSA4_7_2/conv): Conv2d(192, 192, kernel_size=(3, 3), stride=(1, 1), padding=(1, 1), bias=False)
            (OSA4_7_2/norm): SyncBatchNorm(192, eps=1e-05, momentum=0.1, affine=True, track_running_stats=True)
            (OSA4_7_2/relu): ReLU(inplace=True)
          )
          (3): Sequential(
            (OSA4_7_3/conv): Conv2d(192, 192, kernel_size=(3, 3), stride=(1, 1), padding=(1, 1), bias=False)
            (OSA4_7_3/norm): SyncBatchNorm(192, eps=1e-05, momentum=0.1, affine=True, track_running_stats=True)
            (OSA4_7_3/relu): ReLU(inplace=True)
          )
          (4): Sequential(
            (OSA4_7_4/conv): Conv2d(192, 192, kernel_size=(3, 3), stride=(1, 1), padding=(1, 1), bias=False)
            (OSA4_7_4/norm): SyncBatchNorm(192, eps=1e-05, momentum=0.1, affine=True, track_running_stats=True)
            (OSA4_7_4/relu): ReLU(inplace=True)
          )
        )
        (concat): Sequential(
          (OSA4_7_concat/conv): Conv2d(1728, 768, kernel_size=(1, 1), stride=(1, 1), bias=False)
          (OSA4_7_concat/norm): SyncBatchNorm(768, eps=1e-05, momentum=0.1, affine=True, track_running_stats=True)
          (OSA4_7_concat/relu): ReLU(inplace=True)
        )
        (ese): eSEModule(
          (avg_pool): AdaptiveAvgPool2d(output_size=1)
          (fc): Conv2d(768, 768, kernel_size=(1, 1), stride=(1, 1))
          (hsigmoid): Hsigmoid()
        )
      )
      (OSA4_8): _OSA_module(
        (layers): ModuleList(
          (0): Sequential(
            (OSA4_8_0/conv): Conv2d(768, 192, kernel_size=(3, 3), stride=(1, 1), padding=(1, 1), bias=False)
            (OSA4_8_0/norm): SyncBatchNorm(192, eps=1e-05, momentum=0.1, affine=True, track_running_stats=True)
            (OSA4_8_0/relu): ReLU(inplace=True)
          )
          (1): Sequential(
            (OSA4_8_1/conv): Conv2d(192, 192, kernel_size=(3, 3), stride=(1, 1), padding=(1, 1), bias=False)
            (OSA4_8_1/norm): SyncBatchNorm(192, eps=1e-05, momentum=0.1, affine=True, track_running_stats=True)
            (OSA4_8_1/relu): ReLU(inplace=True)
          )
          (2): Sequential(
            (OSA4_8_2/conv): Conv2d(192, 192, kernel_size=(3, 3), stride=(1, 1), padding=(1, 1), bias=False)
            (OSA4_8_2/norm): SyncBatchNorm(192, eps=1e-05, momentum=0.1, affine=True, track_running_stats=True)
            (OSA4_8_2/relu): ReLU(inplace=True)
          )
          (3): Sequential(
            (OSA4_8_3/conv): Conv2d(192, 192, kernel_size=(3, 3), stride=(1, 1), padding=(1, 1), bias=False)
            (OSA4_8_3/norm): SyncBatchNorm(192, eps=1e-05, momentum=0.1, affine=True, track_running_stats=True)
            (OSA4_8_3/relu): ReLU(inplace=True)
          )
          (4): Sequential(
            (OSA4_8_4/conv): Conv2d(192, 192, kernel_size=(3, 3), stride=(1, 1), padding=(1, 1), bias=False)
            (OSA4_8_4/norm): SyncBatchNorm(192, eps=1e-05, momentum=0.1, affine=True, track_running_stats=True)
            (OSA4_8_4/relu): ReLU(inplace=True)
          )
        )
        (concat): Sequential(
          (OSA4_8_concat/conv): Conv2d(1728, 768, kernel_size=(1, 1), stride=(1, 1), bias=False)
          (OSA4_8_concat/norm): SyncBatchNorm(768, eps=1e-05, momentum=0.1, affine=True, track_running_stats=True)
          (OSA4_8_concat/relu): ReLU(inplace=True)
        )
        (ese): eSEModule(
          (avg_pool): AdaptiveAvgPool2d(output_size=1)
          (fc): Conv2d(768, 768, kernel_size=(1, 1), stride=(1, 1))
          (hsigmoid): Hsigmoid()
        )
      )
      (OSA4_9): _OSA_module(
        (layers): ModuleList(
          (0): Sequential(
            (OSA4_9_0/conv): Conv2d(768, 192, kernel_size=(3, 3), stride=(1, 1), padding=(1, 1), bias=False)
            (OSA4_9_0/norm): SyncBatchNorm(192, eps=1e-05, momentum=0.1, affine=True, track_running_stats=True)
            (OSA4_9_0/relu): ReLU(inplace=True)
          )
          (1): Sequential(
            (OSA4_9_1/conv): Conv2d(192, 192, kernel_size=(3, 3), stride=(1, 1), padding=(1, 1), bias=False)
            (OSA4_9_1/norm): SyncBatchNorm(192, eps=1e-05, momentum=0.1, affine=True, track_running_stats=True)
            (OSA4_9_1/relu): ReLU(inplace=True)
          )
          (2): Sequential(
            (OSA4_9_2/conv): Conv2d(192, 192, kernel_size=(3, 3), stride=(1, 1), padding=(1, 1), bias=False)
            (OSA4_9_2/norm): SyncBatchNorm(192, eps=1e-05, momentum=0.1, affine=True, track_running_stats=True)
            (OSA4_9_2/relu): ReLU(inplace=True)
          )
          (3): Sequential(
            (OSA4_9_3/conv): Conv2d(192, 192, kernel_size=(3, 3), stride=(1, 1), padding=(1, 1), bias=False)
            (OSA4_9_3/norm): SyncBatchNorm(192, eps=1e-05, momentum=0.1, affine=True, track_running_stats=True)
            (OSA4_9_3/relu): ReLU(inplace=True)
          )
          (4): Sequential(
            (OSA4_9_4/conv): Conv2d(192, 192, kernel_size=(3, 3), stride=(1, 1), padding=(1, 1), bias=False)
            (OSA4_9_4/norm): SyncBatchNorm(192, eps=1e-05, momentum=0.1, affine=True, track_running_stats=True)
            (OSA4_9_4/relu): ReLU(inplace=True)
          )
        )
        (concat): Sequential(
          (OSA4_9_concat/conv): Conv2d(1728, 768, kernel_size=(1, 1), stride=(1, 1), bias=False)
          (OSA4_9_concat/norm): SyncBatchNorm(768, eps=1e-05, momentum=0.1, affine=True, track_running_stats=True)
          (OSA4_9_concat/relu): ReLU(inplace=True)
        )
        (ese): eSEModule(
          (avg_pool): AdaptiveAvgPool2d(output_size=1)
          (fc): Conv2d(768, 768, kernel_size=(1, 1), stride=(1, 1))
          (hsigmoid): Hsigmoid()
        )
      )
    )
    (stage5): _OSA_stage(
      (Pooling): MaxPool2d(kernel_size=3, stride=2, padding=0, dilation=1, ceil_mode=True)
      (OSA5_1): _OSA_module(
        (layers): ModuleList(
          (0): Sequential(
            (OSA5_1_0/conv): Conv2d(768, 224, kernel_size=(3, 3), stride=(1, 1), padding=(1, 1), bias=False)
            (OSA5_1_0/norm): SyncBatchNorm(224, eps=1e-05, momentum=0.1, affine=True, track_running_stats=True)
            (OSA5_1_0/relu): ReLU(inplace=True)
          )
          (1): Sequential(
            (OSA5_1_1/conv): Conv2d(224, 224, kernel_size=(3, 3), stride=(1, 1), padding=(1, 1), bias=False)
            (OSA5_1_1/norm): SyncBatchNorm(224, eps=1e-05, momentum=0.1, affine=True, track_running_stats=True)
            (OSA5_1_1/relu): ReLU(inplace=True)
          )
          (2): Sequential(
            (OSA5_1_2/conv): Conv2d(224, 224, kernel_size=(3, 3), stride=(1, 1), padding=(1, 1), bias=False)
            (OSA5_1_2/norm): SyncBatchNorm(224, eps=1e-05, momentum=0.1, affine=True, track_running_stats=True)
            (OSA5_1_2/relu): ReLU(inplace=True)
          )
          (3): Sequential(
            (OSA5_1_3/conv): Conv2d(224, 224, kernel_size=(3, 3), stride=(1, 1), padding=(1, 1), bias=False)
            (OSA5_1_3/norm): SyncBatchNorm(224, eps=1e-05, momentum=0.1, affine=True, track_running_stats=True)
            (OSA5_1_3/relu): ReLU(inplace=True)
          )
          (4): Sequential(
            (OSA5_1_4/conv): Conv2d(224, 224, kernel_size=(3, 3), stride=(1, 1), padding=(1, 1), bias=False)
            (OSA5_1_4/norm): SyncBatchNorm(224, eps=1e-05, momentum=0.1, affine=True, track_running_stats=True)
            (OSA5_1_4/relu): ReLU(inplace=True)
          )
        )
        (concat): Sequential(
          (OSA5_1_concat/conv): Conv2d(1888, 1024, kernel_size=(1, 1), stride=(1, 1), bias=False)
          (OSA5_1_concat/norm): SyncBatchNorm(1024, eps=1e-05, momentum=0.1, affine=True, track_running_stats=True)
          (OSA5_1_concat/relu): ReLU(inplace=True)
        )
        (ese): eSEModule(
          (avg_pool): AdaptiveAvgPool2d(output_size=1)
          (fc): Conv2d(1024, 1024, kernel_size=(1, 1), stride=(1, 1))
          (hsigmoid): Hsigmoid()
        )
      )
      (OSA5_2): _OSA_module(
        (layers): ModuleList(
          (0): Sequential(
            (OSA5_2_0/conv): Conv2d(1024, 224, kernel_size=(3, 3), stride=(1, 1), padding=(1, 1), bias=False)
            (OSA5_2_0/norm): SyncBatchNorm(224, eps=1e-05, momentum=0.1, affine=True, track_running_stats=True)
            (OSA5_2_0/relu): ReLU(inplace=True)
          )
          (1): Sequential(
            (OSA5_2_1/conv): Conv2d(224, 224, kernel_size=(3, 3), stride=(1, 1), padding=(1, 1), bias=False)
            (OSA5_2_1/norm): SyncBatchNorm(224, eps=1e-05, momentum=0.1, affine=True, track_running_stats=True)
            (OSA5_2_1/relu): ReLU(inplace=True)
          )
          (2): Sequential(
            (OSA5_2_2/conv): Conv2d(224, 224, kernel_size=(3, 3), stride=(1, 1), padding=(1, 1), bias=False)
            (OSA5_2_2/norm): SyncBatchNorm(224, eps=1e-05, momentum=0.1, affine=True, track_running_stats=True)
            (OSA5_2_2/relu): ReLU(inplace=True)
          )
          (3): Sequential(
            (OSA5_2_3/conv): Conv2d(224, 224, kernel_size=(3, 3), stride=(1, 1), padding=(1, 1), bias=False)
            (OSA5_2_3/norm): SyncBatchNorm(224, eps=1e-05, momentum=0.1, affine=True, track_running_stats=True)
            (OSA5_2_3/relu): ReLU(inplace=True)
          )
          (4): Sequential(
            (OSA5_2_4/conv): Conv2d(224, 224, kernel_size=(3, 3), stride=(1, 1), padding=(1, 1), bias=False)
            (OSA5_2_4/norm): SyncBatchNorm(224, eps=1e-05, momentum=0.1, affine=True, track_running_stats=True)
            (OSA5_2_4/relu): ReLU(inplace=True)
          )
        )
        (concat): Sequential(
          (OSA5_2_concat/conv): Conv2d(2144, 1024, kernel_size=(1, 1), stride=(1, 1), bias=False)
          (OSA5_2_concat/norm): SyncBatchNorm(1024, eps=1e-05, momentum=0.1, affine=True, track_running_stats=True)
          (OSA5_2_concat/relu): ReLU(inplace=True)
        )
        (ese): eSEModule(
          (avg_pool): AdaptiveAvgPool2d(output_size=1)
          (fc): Conv2d(1024, 1024, kernel_size=(1, 1), stride=(1, 1))
          (hsigmoid): Hsigmoid()
        )
      )
      (OSA5_3): _OSA_module(
        (layers): ModuleList(
          (0): Sequential(
            (OSA5_3_0/conv): Conv2d(1024, 224, kernel_size=(3, 3), stride=(1, 1), padding=(1, 1), bias=False)
            (OSA5_3_0/norm): SyncBatchNorm(224, eps=1e-05, momentum=0.1, affine=True, track_running_stats=True)
            (OSA5_3_0/relu): ReLU(inplace=True)
          )
          (1): Sequential(
            (OSA5_3_1/conv): Conv2d(224, 224, kernel_size=(3, 3), stride=(1, 1), padding=(1, 1), bias=False)
            (OSA5_3_1/norm): SyncBatchNorm(224, eps=1e-05, momentum=0.1, affine=True, track_running_stats=True)
            (OSA5_3_1/relu): ReLU(inplace=True)
          )
          (2): Sequential(
            (OSA5_3_2/conv): Conv2d(224, 224, kernel_size=(3, 3), stride=(1, 1), padding=(1, 1), bias=False)
            (OSA5_3_2/norm): SyncBatchNorm(224, eps=1e-05, momentum=0.1, affine=True, track_running_stats=True)
            (OSA5_3_2/relu): ReLU(inplace=True)
          )
          (3): Sequential(
            (OSA5_3_3/conv): Conv2d(224, 224, kernel_size=(3, 3), stride=(1, 1), padding=(1, 1), bias=False)
            (OSA5_3_3/norm): SyncBatchNorm(224, eps=1e-05, momentum=0.1, affine=True, track_running_stats=True)
            (OSA5_3_3/relu): ReLU(inplace=True)
          )
          (4): Sequential(
            (OSA5_3_4/conv): Conv2d(224, 224, kernel_size=(3, 3), stride=(1, 1), padding=(1, 1), bias=False)
            (OSA5_3_4/norm): SyncBatchNorm(224, eps=1e-05, momentum=0.1, affine=True, track_running_stats=True)
            (OSA5_3_4/relu): ReLU(inplace=True)
          )
        )
        (concat): Sequential(
          (OSA5_3_concat/conv): Conv2d(2144, 1024, kernel_size=(1, 1), stride=(1, 1), bias=False)
          (OSA5_3_concat/norm): SyncBatchNorm(1024, eps=1e-05, momentum=0.1, affine=True, track_running_stats=True)
          (OSA5_3_concat/relu): ReLU(inplace=True)
        )
        (ese): eSEModule(
          (avg_pool): AdaptiveAvgPool2d(output_size=1)
          (fc): Conv2d(1024, 1024, kernel_size=(1, 1), stride=(1, 1))
          (hsigmoid): Hsigmoid()
        )
      )
    )
  )
  (img_neck): CPFPN(
    (lateral_convs): ModuleList(
      (0): ConvModule(
        (conv): Conv2d(768, 256, kernel_size=(1, 1), stride=(1, 1))
      )
      (1): ConvModule(
        (conv): Conv2d(1024, 256, kernel_size=(1, 1), stride=(1, 1))
      )
    )
    (fpn_convs): ModuleList(
      (0): ConvModule(
        (conv): Conv2d(256, 256, kernel_size=(3, 3), stride=(1, 1), padding=(1, 1))
      )
    )
  )
  init_cfg={'type': 'Xavier', 'layer': 'Conv2d', 'distribution': 'uniform'}
)
2025-06-20 02:42:54,771 - mmdet - INFO - load checkpoint from local path: pretrained/petr_fused_convert.pth
2025-06-20 02:42:55,354 - mmdet - WARNING - The model and loaded state dict do not match exactly

unexpected key in source state_dict: 
…
