…
      (1): SyncBatchNorm(128, eps=0.001, momentum=0.01, affine=True, track_running_stats=True)
      (2): ReLU()
      (3): SparseConv3d(128, 128, kernel_size=[3, 1, 1], stride=[2, 1, 1], padding=[0, 0, 0], dilation=[1, 1, 1], output_padding=[0, 0, 0], bias=False, algo=ConvAlgo.MaskImplicitGemm)
      (4): SyncBatchNorm(128, eps=0.001, momentum=0.01, affine=True, track_running_stats=True)
      (5): ReLU()
    )
  )
  (pts_backbone): CascadeDEDBackbone(
    (layers): ModuleList(
      (0): DEDBackbone(
        (encoder): ModuleList(
          (0): Sequential(
            (0): BasicBlock(
              (conv1): Conv2d(256, 256, kernel_size=(3, 3), stride=(1, 1), padding=(1, 1), bias=False)
              (bn1): SyncBatchNorm(256, eps=0.001, momentum=0.01, affine=True, track_running_stats=True)
              (relu1): ReLU()
              (conv2): Conv2d(256, 256, kernel_size=(3, 3), stride=(1, 1), padding=(1, 1), bias=False)
              (bn2): SyncBatchNorm(256, eps=0.001, momentum=0.01, affine=True, track_running_stats=True)
              (relu2): ReLU()
            )
            (1): BasicBlock(
              (conv1): Conv2d(256, 256, kernel_size=(3, 3), stride=(1, 1), padding=(1, 1), bias=False)
              (bn1): SyncBatchNorm(256, eps=0.001, momentum=0.01, affine=True, track_running_stats=True)
              (relu1): ReLU()
              (conv2): Conv2d(256, 256, kernel_size=(3, 3), stride=(1, 1), padding=(1, 1), bias=False)
              (bn2): SyncBatchNorm(256, eps=0.001, momentum=0.01, affine=True, track_running_stats=True)
              (relu2): ReLU()
            )
          )
          (1): Sequential(
            (0): BasicBlock(
              (conv1): Conv2d(256, 256, kernel_size=(3, 3), stride=(2, 2), padding=(1, 1), bias=False)
              (bn1): SyncBatchNorm(256, eps=0.001, momentum=0.01, affine=True, track_running_stats=True)
              (relu1): ReLU()
              (conv2): Conv2d(256, 256, kernel_size=(3, 3), stride=(1, 1), padding=(1, 1), bias=False)
              (bn2): SyncBatchNorm(256, eps=0.001, momentum=0.01, affine=True, track_running_stats=True)
              (relu2): ReLU()
              (downsample_layer): Sequential(
                (0): Conv2d(256, 256, kernel_size=(1, 1), stride=(2, 2), bias=False)
                (1): SyncBatchNorm(256, eps=0.001, momentum=0.01, affine=True, track_running_stats=True)
              )
            )
            (1): BasicBlock(
              (conv1): Conv2d(256, 256, kernel_size=(3, 3), stride=(1, 1), padding=(1, 1), bias=False)
              (bn1): SyncBatchNorm(256, eps=0.001, momentum=0.01, affine=True, track_running_stats=True)
              (relu1): ReLU()
              (conv2): Conv2d(256, 256, kernel_size=(3, 3), stride=(1, 1), padding=(1, 1), bias=False)
              (bn2): SyncBatchNorm(256, eps=0.001, momentum=0.01, affine=True, track_running_stats=True)
              (relu2): ReLU()
            )
          )
          (2): Sequential(
            (0): BasicBlock(
              (conv1): Conv2d(256, 256, kernel_size=(3, 3), stride=(2, 2), padding=(1, 1), bias=False)
              (bn1): SyncBatchNorm(256, eps=0.001, momentum=0.01, affine=True, track_running_stats=True)
              (relu1): ReLU()
              (conv2): Conv2d(256, 256, kernel_size=(3, 3), stride=(1, 1), padding=(1, 1), bias=False)
              (bn2): SyncBatchNorm(256, eps=0.001, momentum=0.01, affine=True, track_running_stats=True)
              (relu2): ReLU()
              (downsample_layer): Sequential(
                (0): Conv2d(256, 256, kernel_size=(1, 1), stride=(2, 2), bias=False)
                (1): SyncBatchNorm(256, eps=0.001, momentum=0.01, affine=True, track_running_stats=True)
              )
            )
            (1): BasicBlock(
              (conv1): Conv2d(256, 256, kernel_size=(3, 3), stride=(1, 1), padding=(1, 1), bias=False)
              (bn1): SyncBatchNorm(256, eps=0.001, momentum=0.01, affine=True, track_running_stats=True)
              (relu1): ReLU()
              (conv2): Conv2d(256, 256, kernel_size=(3, 3), stride=(1, 1), padding=(1, 1), bias=False)
              (bn2): SyncBatchNorm(256, eps=0.001, momentum=0.01, affine=True, track_running_stats=True)
              (relu2): ReLU()
            )
          )
        )
        (decoder): ModuleList(
          (0): Sequential(
            (0): ConvTranspose2d(256, 256, kernel_size=(2, 2), stride=(2, 2), bias=False)
            (1): SyncBatchNorm(256, eps=0.001, momentum=0.01, affine=True, track_running_stats=True)
            (2): ReLU()
          )
          (1): Sequential(
            (0): ConvTranspose2d(256, 256, kernel_size=(2, 2), stride=(2, 2), bias=False)
            (1): SyncBatchNorm(256, eps=0.001, momentum=0.01, affine=True, track_running_stats=True)
            (2): ReLU()
          )
        )
        (decoder_norm): ModuleList(
          (0): SyncBatchNorm(256, eps=0.001, momentum=0.01, affine=True, track_running_stats=True)
          (1): SyncBatchNorm(256, eps=0.001, momentum=0.01, affine=True, track_running_stats=True)
        )
      )
      (1): DEDBackbone(
        (encoder): ModuleList(
          (0): Sequential(
            (0): BasicBlock(
              (conv1): Conv2d(256, 256, kernel_size=(3, 3), stride=(1, 1), padding=(1, 1), bias=False)
              (bn1): SyncBatchNorm(256, eps=0.001, momentum=0.01, affine=True, track_running_stats=True)
              (relu1): ReLU()
              (conv2): Conv2d(256, 256, kernel_size=(3, 3), stride=(1, 1), padding=(1, 1), bias=False)
              (bn2): SyncBatchNorm(256, eps=0.001, momentum=0.01, affine=True, track_running_stats=True)
              (relu2): ReLU()
            )
            (1): BasicBlock(
              (conv1): Conv2d(256, 256, kernel_size=(3, 3), stride=(1, 1), padding=(1, 1), bias=False)
              (bn1): SyncBatchNorm(256, eps=0.001, momentum=0.01, affine=True, track_running_stats=True)
              (relu1): ReLU()
              (conv2): Conv2d(256, 256, kernel_size=(3, 3), stride=(1, 1), padding=(1, 1), bias=False)
              (bn2): SyncBatchNorm(256, eps=0.001, momentum=0.01, affine=True, track_running_stats=True)
              (relu2): ReLU()
            )
          )
          (1): Sequential(
            (0): BasicBlock(
              (conv1): Conv2d(256, 256, kernel_size=(3, 3), stride=(2, 2), padding=(1, 1), bias=False)
              (bn1): SyncBatchNorm(256, eps=0.001, momentum=0.01, affine=True, track_running_stats=True)
              (relu1): ReLU()
              (conv2): Conv2d(256, 256, kernel_size=(3, 3), stride=(1, 1), padding=(1, 1), bias=False)
              (bn2): SyncBatchNorm(256, eps=0.001, momentum=0.01, affine=True, track_running_stats=True)
              (relu2): ReLU()
              (downsample_layer): Sequential(
                (0): Conv2d(256, 256, kernel_size=(1, 1), stride=(2, 2), bias=False)
                (1): SyncBatchNorm(256, eps=0.001, momentum=0.01, affine=True, track_running_stats=True)
              )
            )
            (1): BasicBlock(
              (conv1): Conv2d(256, 256, kernel_size=(3, 3), stride=(1, 1), padding=(1, 1), bias=False)
              (bn1): SyncBatchNorm(256, eps=0.001, momentum=0.01, affine=True, track_running_stats=True)
              (relu1): ReLU()
              (conv2): Conv2d(256, 256, kernel_size=(3, 3), stride=(1, 1), padding=(1, 1), bias=False)
              (bn2): SyncBatchNorm(256, eps=0.001, momentum=0.01, affine=True, track_running_stats=True)
              (relu2): ReLU()
            )
          )
          (2): Sequential(
            (0): BasicBlock(
              (conv1): Conv2d(256, 256, kernel_size=(3, 3), stride=(2, 2), padding=(1, 1), bias=False)
              (bn1): SyncBatchNorm(256, eps=0.001, momentum=0.01, affine=True, track_running_stats=True)
              (relu1): ReLU()
              (conv2): Conv2d(256, 256, kernel_size=(3, 3), stride=(1, 1), padding=(1, 1), bias=False)
              (bn2): SyncBatchNorm(256, eps=0.001, momentum=0.01, affine=True, track_running_stats=True)
              (relu2): ReLU()
              (downsample_layer): Sequential(
                (0): Conv2d(256, 256, kernel_size=(1, 1), stride=(2, 2), bias=False)
                (1): SyncBatchNorm(256, eps=0.001, momentum=0.01, affine=True, track_running_stats=True)
              )
            )
            (1): BasicBlock(
              (conv1): Conv2d(256, 256, kernel_size=(3, 3), stride=(1, 1), padding=(1, 1), bias=False)
              (bn1): SyncBatchNorm(256, eps=0.001, momentum=0.01, affine=True, track_running_stats=True)
              (relu1): ReLU()
              (conv2): Conv2d(256, 256, kernel_size=(3, 3), stride=(1, 1), padding=(1, 1), bias=False)
              (bn2): SyncBatchNorm(256, eps=0.001, momentum=0.01, affine=True, track_running_stats=True)
              (relu2): ReLU()
            )
          )
        )
        (decoder): ModuleList(
          (0): Sequential(
            (0): ConvTranspose2d(256, 256, kernel_size=(2, 2), stride=(2, 2), bias=False)
            (1): SyncBatchNorm(256, eps=0.001, momentum=0.01, affine=True, track_running_stats=True)
            (2): ReLU()
          )
          (1): Sequential(
            (0): ConvTranspose2d(256, 256, kernel_size=(2, 2), stride=(2, 2), bias=False)
            (1): SyncBatchNorm(256, eps=0.001, momentum=0.01, affine=True, track_running_stats=True)
            (2): ReLU()
          )
        )
        (decoder_norm): ModuleList(
          (0): SyncBatchNorm(256, eps=0.001, momentum=0.01, affine=True, track_running_stats=True)
          (1): SyncBatchNorm(256, eps=0.001, momentum=0.01, affine=True, track_running_stats=True)
        )
      )
      (2): DEDBackbone(
        (encoder): ModuleList(
          (0): Sequential(
            (0): BasicBlock(
              (conv1): Conv2d(256, 256, kernel_size=(3, 3), stride=(1, 1), padding=(1, 1), bias=False)
              (bn1): SyncBatchNorm(256, eps=0.001, momentum=0.01, affine=True, track_running_stats=True)
              (relu1): ReLU()
              (conv2): Conv2d(256, 256, kernel_size=(3, 3), stride=(1, 1), padding=(1, 1), bias=False)
              (bn2): SyncBatchNorm(256, eps=0.001, momentum=0.01, affine=True, track_running_stats=True)
              (relu2): ReLU()
            )
            (1): BasicBlock(
              (conv1): Conv2d(256, 256, kernel_size=(3, 3), stride=(1, 1), padding=(1, 1), bias=False)
              (bn1): SyncBatchNorm(256, eps=0.001, momentum=0.01, affine=True, track_running_stats=True)
              (relu1): ReLU()
              (conv2): Conv2d(256, 256, kernel_size=(3, 3), stride=(1, 1), padding=(1, 1), bias=False)
              (bn2): SyncBatchNorm(256, eps=0.001, momentum=0.01, affine=True, track_running_stats=True)
              (relu2): ReLU()
            )
          )
          (1): Sequential(
            (0): BasicBlock(
              (conv1): Conv2d(256, 256, kernel_size=(3, 3), stride=(2, 2), padding=(1, 1), bias=False)
              (bn1): SyncBatchNorm(256, eps=0.001, momentum=0.01, affine=True, track_running_stats=True)
              (relu1): ReLU()
              (conv2): Conv2d(256, 256, kernel_size=(3, 3), stride=(1, 1), padding=(1, 1), bias=False)
              (bn2): SyncBatchNorm(256, eps=0.001, momentum=0.01, affine=True, track_running_stats=True)
              (relu2): ReLU()
              (downsample_layer): Sequential(
                (0): Conv2d(256, 256, kernel_size=(1, 1), stride=(2, 2), bias=False)
                (1): SyncBatchNorm(256, eps=0.001, momentum=0.01, affine=True, track_running_stats=True)
              )
            )
            (1): BasicBlock(
              (conv1): Conv2d(256, 256, kernel_size=(3, 3), stride=(1, 1), padding=(1, 1), bias=False)
              (bn1): SyncBatchNorm(256, eps=0.001, momentum=0.01, affine=True, track_running_stats=True)
              (relu1): ReLU()
              (conv2): Conv2d(256, 256, kernel_size=(3, 3), stride=(1, 1), padding=(1, 1), bias=False)
              (bn2): SyncBatchNorm(256, eps=0.001, momentum=0.01, affine=True, track_running_stats=True)
              (relu2): ReLU()
            )
          )
          (2): Sequential(
            (0): BasicBlock(
              (conv1): Conv2d(256, 256, kernel_size=(3, 3), stride=(2, 2), padding=(1, 1), bias=False)
              (bn1): SyncBatchNorm(256, eps=0.001, momentum=0.01, affine=True, track_running_stats=True)
              (relu1): ReLU()
              (conv2): Conv2d(256, 256, kernel_size=(3, 3), stride=(1, 1), padding=(1, 1), bias=False)
              (bn2): SyncBatchNorm(256, eps=0.001, momentum=0.01, affine=True, track_running_stats=True)
              (relu2): ReLU()
              (downsample_layer): Sequential(
                (0): Conv2d(256, 256, kernel_size=(1, 1), stride=(2, 2), bias=False)
                (1): SyncBatchNorm(256, eps=0.001, momentum=0.01, affine=True, track_running_stats=True)
              )
            )
            (1): BasicBlock(
              (conv1): Conv2d(256, 256, kernel_size=(3, 3), stride=(1, 1), padding=(1, 1), bias=False)
              (bn1): SyncBatchNorm(256, eps=0.001, momentum=0.01, affine=True, track_running_stats=True)
              (relu1): ReLU()
              (conv2): Conv2d(256, 256, kernel_size=(3, 3), stride=(1, 1), padding=(1, 1), bias=False)
              (bn2): SyncBatchNorm(256, eps=0.001, momentum=0.01, affine=True, track_running_stats=True)
              (relu2): ReLU()
            )
          )
        )
        (decoder): ModuleList(
          (0): Sequential(
            (0): ConvTranspose2d(256, 256, kernel_size=(2, 2), stride=(2, 2), bias=False)
            (1): SyncBatchNorm(256, eps=0.001, momentum=0.01, affine=True, track_running_stats=True)
            (2): ReLU()
          )
          (1): Sequential(
            (0): ConvTranspose2d(256, 256, kernel_size=(2, 2), stride=(2, 2), bias=False)
            (1): SyncBatchNorm(256, eps=0.001, momentum=0.01, affine=True, track_running_stats=True)
            (2): ReLU()
          )
        )
        (decoder_norm): ModuleList(
          (0): SyncBatchNorm(256, eps=0.001, momentum=0.01, affine=True, track_running_stats=True)
          (1): SyncBatchNorm(256, eps=0.001, momentum=0.01, affine=True, track_running_stats=True)
        )
      )
      (3): DEDBackbone(
        (encoder): ModuleList(
          (0): Sequential(
            (0): BasicBlock(
              (conv1): Conv2d(256, 256, kernel_size=(3, 3), stride=(1, 1), padding=(1, 1), bias=False)
              (bn1): SyncBatchNorm(256, eps=0.001, momentum=0.01, affine=True, track_running_stats=True)
              (relu1): ReLU()
              (conv2): Conv2d(256, 256, kernel_size=(3, 3), stride=(1, 1), padding=(1, 1), bias=False)
              (bn2): SyncBatchNorm(256, eps=0.001, momentum=0.01, affine=True, track_running_stats=True)
              (relu2): ReLU()
            )
            (1): BasicBlock(
              (conv1): Conv2d(256, 256, kernel_size=(3, 3), stride=(1, 1), padding=(1, 1), bias=False)
              (bn1): SyncBatchNorm(256, eps=0.001, momentum=0.01, affine=True, track_running_stats=True)
              (relu1): ReLU()
              (conv2): Conv2d(256, 256, kernel_size=(3, 3), stride=(1, 1), padding=(1, 1), bias=False)
              (bn2): SyncBatchNorm(256, eps=0.001, momentum=0.01, affine=True, track_running_stats=True)
              (relu2): ReLU()
            )
          )
          (1): Sequential(
            (0): BasicBlock(
              (conv1): Conv2d(256, 256, kernel_size=(3, 3), stride=(2, 2), padding=(1, 1), bias=False)
              (bn1): SyncBatchNorm(256, eps=0.001, momentum=0.01, affine=True, track_running_stats=True)
              (relu1): ReLU()
              (conv2): Conv2d(256, 256, kernel_size=(3, 3), stride=(1, 1), padding=(1, 1), bias=False)
              (bn2): SyncBatchNorm(256, eps=0.001, momentum=0.01, affine=True, track_running_stats=True)
              (relu2): ReLU()
              (downsample_layer): Sequential(
                (0): Conv2d(256, 256, kernel_size=(1, 1), stride=(2, 2), bias=False)
                (1): SyncBatchNorm(256, eps=0.001, momentum=0.01, affine=True, track_running_stats=True)
              )
            )
            (1): BasicBlock(
              (conv1): Conv2d(256, 256, kernel_size=(3, 3), stride=(1, 1), padding=(1, 1), bias=False)
              (bn1): SyncBatchNorm(256, eps=0.001, momentum=0.01, affine=True, track_running_stats=True)
              (relu1): ReLU()
              (conv2): Conv2d(256, 256, kernel_size=(3, 3), stride=(1, 1), padding=(1, 1), bias=False)
              (bn2): SyncBatchNorm(256, eps=0.001, momentum=0.01, affine=True, track_running_stats=True)
              (relu2): ReLU()
            )
          )
          (2): Sequential(
            (0): BasicBlock(
              (conv1): Conv2d(256, 256, kernel_size=(3, 3), stride=(2, 2), padding=(1, 1), bias=False)
              (bn1): SyncBatchNorm(256, eps=0.001, momentum=0.01, affine=True, track_running_stats=True)
              (relu1): ReLU()
              (conv2): Conv2d(256, 256, kernel_size=(3, 3), stride=(1, 1), padding=(1, 1), bias=False)
              (bn2): SyncBatchNorm(256, eps=0.001, momentum=0.01, affine=True, track_running_stats=True)
              (relu2): ReLU()
              (downsample_layer): Sequential(
                (0): Conv2d(256, 256, kernel_size=(1, 1), stride=(2, 2), bias=False)
                (1): SyncBatchNorm(256, eps=0.001, momentum=0.01, affine=True, track_running_stats=True)
              )
            )
            (1): BasicBlock(
              (conv1): Conv2d(256, 256, kernel_size=(3, 3), stride=(1, 1), padding=(1, 1), bias=False)
              (bn1): SyncBatchNorm(256, eps=0.001, momentum=0.01, affine=True, track_running_stats=True)
              (relu1): ReLU()
              (conv2): Conv2d(256, 256, kernel_size=(3, 3), stride=(1, 1), padding=(1, 1), bias=False)
              (bn2): SyncBatchNorm(256, eps=0.001, momentum=0.01, affine=True, track_running_stats=True)
              (relu2): ReLU()
            )
          )
        )
        (decoder): ModuleList(
          (0): Sequential(
            (0): ConvTranspose2d(256, 256, kernel_size=(2, 2), stride=(2, 2), bias=False)
            (1): SyncBatchNorm(256, eps=0.001, momentum=0.01, affine=True, track_running_stats=True)
            (2): ReLU()
          )
          (1): Sequential(
            (0): ConvTranspose2d(256, 256, kernel_size=(2, 2), stride=(2, 2), bias=False)
            (1): SyncBatchNorm(256, eps=0.001, momentum=0.01, affine=True, track_running_stats=True)
            (2): ReLU()
          )
        )
        (decoder_norm): ModuleList(
          (0): SyncBatchNorm(256, eps=0.001, momentum=0.01, affine=True, track_running_stats=True)
          (1): SyncBatchNorm(256, eps=0.001, momentum=0.01, affine=True, track_running_stats=True)
        )
      )
    )
  )
  (pts_neck): FPN(
    (lateral_convs): ModuleList(
      (0): ConvModule(
        (conv): Conv2d(256, 256, kernel_size=(1, 1), stride=(1, 1), bias=False)
        (bn): SyncBatchNorm(256, eps=0.001, momentum=0.01, affine=True, track_running_stats=True)
        (activate): ReLU()
      )
    )
    (fpn_convs): ModuleList(
      (0): ConvModule(
        (conv): Conv2d(256, 256, kernel_size=(3, 3), stride=(1, 1), padding=(1, 1), bias=False)
        (bn): SyncBatchNorm(256, eps=0.001, momentum=0.01, affine=True, track_running_stats=True)
        (activate): ReLU()
      )
      (1): ConvModule(
        (conv): Conv2d(256, 256, kernel_size=(3, 3), stride=(2, 2), padding=(1, 1), bias=False)
        (bn): SyncBatchNorm(256, eps=0.001, momentum=0.01, affine=True, track_running_stats=True)
        (activate): ReLU()
      )
      (2): ConvModule(
        (conv): Conv2d(256, 256, kernel_size=(3, 3), stride=(2, 2), padding=(1, 1), bias=False)
        (bn): SyncBatchNorm(256, eps=0.001, momentum=0.01, affine=True, track_running_stats=True)
        (activate): ReLU()
      )
      (3): ConvModule(
        (conv): Conv2d(256, 256, kernel_size=(3, 3), stride=(2, 2), padding=(1, 1), bias=False)
        (bn): SyncBatchNorm(256, eps=0.001, momentum=0.01, affine=True, track_running_stats=True)
        (activate): ReLU()
      )
    )
  )
  init_cfg={'type': 'Xavier', 'layer': 'Conv2d', 'distribution': 'uniform'}
  (pts_bbox_head): FUTR3DHead(
    (loss_cls): FocalLoss()
    (loss_bbox): L1Loss()
    (loss_iou): GIoULoss()
…
                (0): MultiheadAttention(
                  (attn): MultiheadAttention(
                    (out_proj): NonDynamicallyQuantizableLinear(in_features=256, out_features=256, bias=True)
                  )
                  (proj_drop): Dropout(p=0.0, inplace=False)
                  (dropout_layer): Dropout(p=0.1, inplace=False)
                )
                (1): RMSNorm()
                (2): DSS(
                  (layers): ModuleList(
                    (0): ModuleDict(
                      (norm_before): RMSNorm()
                      (mamba): DSSMamba(
                        (in_proj): Linear(in_features=256, out_features=2048, bias=False)
                        (in_proj_xy): Linear(in_features=256, out_features=2048, bias=False)
                        (act): SiLU()
                        (x_proj_f): Linear(in_features=512, out_features=144, bias=False)
                        (x_proj_b): Linear(in_features=512, out_features=144, bias=False)
                        (dt_proj_f): Linear(in_features=16, out_features=512, bias=True)
                        (dt_proj_b): Linear(in_features=16, out_features=512, bias=True)
                        (act_xy): SiLU()
                        (x_proj_f_xy): Linear(in_features=512, out_features=144, bias=False)
                        (x_proj_b_xy): Linear(in_features=512, out_features=144, bias=False)
                        (dt_proj_f_xy): Linear(in_features=16, out_features=512, bias=True)
                        (dt_proj_b_xy): Linear(in_features=16, out_features=512, bias=True)
                        (conv1d_x_f): Conv1d(512, 512, kernel_size=(4,), stride=(1,), groups=512)
                        (conv1d_z_f): Conv1d(512, 512, kernel_size=(4,), stride=(1,), groups=512)
                        (conv1d_x_b): Conv1d(512, 512, kernel_size=(4,), stride=(1,), groups=512)
                        (conv1d_z_b): Conv1d(512, 512, kernel_size=(4,), stride=(1,), groups=512)
                        (conv1d_x_xy_f): Conv1d(512, 512, kernel_size=(4,), stride=(1,), groups=512)
                        (conv1d_z_xy_f): Conv1d(512, 512, kernel_size=(4,), stride=(1,), groups=512)
                        (conv1d_x_xy_b): Conv1d(512, 512, kernel_size=(4,), stride=(1,), groups=512)
                        (conv1d_z_xy_b): Conv1d(512, 512, kernel_size=(4,), stride=(1,), groups=512)
                        (out_proj): Linear(in_features=2048, out_features=256, bias=False)
                        (global_proj): Linear(in_features=2048, out_features=2048, bias=True)
                      )
                      (dropout): Identity()
                      (norm): RMSNorm()
                      (mlp): MLP(
                        (gate_proj): Linear(in_features=256, out_features=1024, bias=False)
                        (up_proj): Linear(in_features=256, out_features=1024, bias=False)
                        (down_proj): Linear(in_features=1024, out_features=256, bias=False)
                        (act_fn): SiLU()
                      )
                      (mlp_norm): RMSNorm()
                    )
                    (1): ModuleDict(
                      (norm_before): RMSNorm()
                      (mamba): DSSMamba(
                        (in_proj): Linear(in_features=256, out_features=2048, bias=False)
                        (in_proj_xy): Linear(in_features=256, out_features=2048, bias=False)
                        (act): SiLU()
                        (x_proj_f): Linear(in_features=512, out_features=144, bias=False)
                        (x_proj_b): Linear(in_features=512, out_features=144, bias=False)
                        (dt_proj_f): Linear(in_features=16, out_features=512, bias=True)
                        (dt_proj_b): Linear(in_features=16, out_features=512, bias=True)
                        (act_xy): SiLU()
                        (x_proj_f_xy): Linear(in_features=512, out_features=144, bias=False)
                        (x_proj_b_xy): Linear(in_features=512, out_features=144, bias=False)
                        (dt_proj_f_xy): Linear(in_features=16, out_features=512, bias=True)
                        (dt_proj_b_xy): Linear(in_features=16, out_features=512, bias=True)
                        (conv1d_x_f): Conv1d(512, 512, kernel_size=(4,), stride=(1,), groups=512)
                        (conv1d_z_f): Conv1d(512, 512, kernel_size=(4,), stride=(1,), groups=512)
                        (conv1d_x_b): Conv1d(512, 512, kernel_size=(4,), stride=(1,), groups=512)
                        (conv1d_z_b): Conv1d(512, 512, kernel_size=(4,), stride=(1,), groups=512)
                        (conv1d_x_xy_f): Conv1d(512, 512, kernel_size=(4,), stride=(1,), groups=512)
                        (conv1d_z_xy_f): Conv1d(512, 512, kernel_size=(4,), stride=(1,), groups=512)
                        (conv1d_x_xy_b): Conv1d(512, 512, kernel_size=(4,), stride=(1,), groups=512)
                        (conv1d_z_xy_b): Conv1d(512, 512, kernel_size=(4,), stride=(1,), groups=512)
                        (out_proj): Linear(in_features=2048, out_features=256, bias=False)
                        (global_proj): Linear(in_features=2048, out_features=2048, bias=True)
                      )
                      (dropout): DropPath(drop_prob=0.300)
                      (norm): RMSNorm()
                      (mlp): MLP(
                        (gate_proj): Linear(in_features=256, out_features=1024, bias=False)
                        (up_proj): Linear(in_features=256, out_features=1024, bias=False)
                        (down_proj): Linear(in_features=1024, out_features=256, bias=False)
                        (act_fn): SiLU()
                      )
                      (mlp_norm): Identity()
                    )
                  )
                  (rope): RotaryEmbedding()
                )
                (3): DropPath(drop_prob=0.100)
              )
              (1): FUTR3DAttention(
                (dropout): Dropout(p=0.1, inplace=False)
                (sampling_offsets): Linear(in_features=256, out_features=256, bias=True)
                (attention_weights): Linear(in_features=256, out_features=128, bias=True)
                (value_proj): Linear(in_features=256, out_features=256, bias=True)
                (output_proj): Linear(in_features=256, out_features=256, bias=True)
                (img_attention_weights): Linear(in_features=256, out_features=24, bias=True)
                (img_output_proj): Linear(in_features=256, out_features=256, bias=True)
                (position_encoder): Sequential(
                  (0): Linear(in_features=3, out_features=256, bias=True)
                  (1): LayerNorm((256,), eps=1e-05, elementwise_affine=True)
                  (2): ReLU(inplace=True)
                  (3): Linear(in_features=256, out_features=256, bias=True)
                  (4): LayerNorm((256,), eps=1e-05, elementwise_affine=True)
                  (5): ReLU(inplace=True)
                )
                (weight_dropout): Dropout(p=0.0, inplace=False)
                (modality_fusion_layer): Sequential(
                  (0): Linear(in_features=512, out_features=256, bias=True)
                  (1): LayerNorm((256,), eps=1e-05, elementwise_affine=True)
                  (2): ReLU()
                  (3): Linear(in_features=256, out_features=256, bias=True)
                  (4): LayerNorm((256,), eps=1e-05, elementwise_affine=True)
                )
                (camera_mixer): LidarCameraFusionMamba(
                  (in_proj): Linear(in_features=256, out_features=1024, bias=False)
                  (conv1d): Conv1d(512, 512, kernel_size=(4,), stride=(1,), padding=(3,), groups=512)
                  (x_proj): Linear(in_features=512, out_features=48, bias=False)
                  (dt_proj): Linear(in_features=16, out_features=512, bias=True)
                  (out_proj): Linear(in_features=512, out_features=256, bias=False)
                  (lidar_guidance_proj): Linear(in_features=512, out_features=512, bias=True)
                )
              )
            )
            (ffns): ModuleList(
              (0): FFN(
                (activate): ReLU(inplace=True)
                (layers): Sequential(
                  (0): Sequential(
                    (0): Linear(in_features=256, out_features=1024, bias=True)
                    (1): ReLU(inplace=True)
                    (2): Dropout(p=0.1, inplace=False)
                  )
                  (1): Linear(in_features=1024, out_features=256, bias=True)
                  (2): Dropout(p=0.1, inplace=False)
                )
                (dropout_layer): Identity()
              )
            )
            (norms): ModuleList(
              (0): LayerNorm((256,), eps=1e-05, elementwise_affine=True)
              (1): LayerNorm((256,), eps=1e-05, elementwise_affine=True)
              (2): LayerNorm((256,), eps=1e-05, elementwise_affine=True)
            )
          )
          (1): DetrTransformerDecoderLayer(
            (attentions): ModuleList(
              (0): ModuleList(
                (0): MultiheadAttention(
                  (attn): MultiheadAttention(
                    (out_proj): NonDynamicallyQuantizableLinear(in_features=256, out_features=256, bias=True)
                  )
                  (proj_drop): Dropout(p=0.0, inplace=False)
                  (dropout_layer): Dropout(p=0.1, inplace=False)
                )
                (1): RMSNorm()
                (2): DSS(
                  (layers): ModuleList(
                    (0): ModuleDict(
                      (norm_before): RMSNorm()
                      (mamba): DSSMamba(
                        (in_proj): Linear(in_features=256, out_features=2048, bias=False)
                        (in_proj_xy): Linear(in_features=256, out_features=2048, bias=False)
                        (act): SiLU()
                        (x_proj_f): Linear(in_features=512, out_features=144, bias=False)
                        (x_proj_b): Linear(in_features=512, out_features=144, bias=False)
                        (dt_proj_f): Linear(in_features=16, out_features=512, bias=True)
                        (dt_proj_b): Linear(in_features=16, out_features=512, bias=True)
                        (act_xy): SiLU()
                        (x_proj_f_xy): Linear(in_features=512, out_features=144, bias=False)
                        (x_proj_b_xy): Linear(in_features=512, out_features=144, bias=False)
                        (dt_proj_f_xy): Linear(in_features=16, out_features=512, bias=True)
                        (dt_proj_b_xy): Linear(in_features=16, out_features=512, bias=True)
                        (conv1d_x_f): Conv1d(512, 512, kernel_size=(4,), stride=(1,), groups=512)
                        (conv1d_z_f): Conv1d(512, 512, kernel_size=(4,), stride=(1,), groups=512)
                        (conv1d_x_b): Conv1d(512, 512, kernel_size=(4,), stride=(1,), groups=512)
                        (conv1d_z_b): Conv1d(512, 512, kernel_size=(4,), stride=(1,), groups=512)
                        (conv1d_x_xy_f): Conv1d(512, 512, kernel_size=(4,), stride=(1,), groups=512)
                        (conv1d_z_xy_f): Conv1d(512, 512, kernel_size=(4,), stride=(1,), groups=512)
                        (conv1d_x_xy_b): Conv1d(512, 512, kernel_size=(4,), stride=(1,), groups=512)
                        (conv1d_z_xy_b): Conv1d(512, 512, kernel_size=(4,), stride=(1,), groups=512)
                        (out_proj): Linear(in_features=2048, out_features=256, bias=False)
                        (global_proj): Linear(in_features=2048, out_features=2048, bias=True)
                      )
                      (dropout): Identity()
                      (norm): RMSNorm()
                      (mlp): MLP(
                        (gate_proj): Linear(in_features=256, out_features=1024, bias=False)
                        (up_proj): Linear(in_features=256, out_features=1024, bias=False)
                        (down_proj): Linear(in_features=1024, out_features=256, bias=False)
                        (act_fn): SiLU()
                      )
                      (mlp_norm): RMSNorm()
                    )
                    (1): ModuleDict(
                      (norm_before): RMSNorm()
                      (mamba): DSSMamba(
                        (in_proj): Linear(in_features=256, out_features=2048, bias=False)
                        (in_proj_xy): Linear(in_features=256, out_features=2048, bias=False)
                        (act): SiLU()
                        (x_proj_f): Linear(in_features=512, out_features=144, bias=False)
                        (x_proj_b): Linear(in_features=512, out_features=144, bias=False)
                        (dt_proj_f): Linear(in_features=16, out_features=512, bias=True)
                        (dt_proj_b): Linear(in_features=16, out_features=512, bias=True)
                        (act_xy): SiLU()
                        (x_proj_f_xy): Linear(in_features=512, out_features=144, bias=False)
                        (x_proj_b_xy): Linear(in_features=512, out_features=144, bias=False)
                        (dt_proj_f_xy): Linear(in_features=16, out_features=512, bias=True)
                        (dt_proj_b_xy): Linear(in_features=16, out_features=512, bias=True)
                        (conv1d_x_f): Conv1d(512, 512, kernel_size=(4,), stride=(1,), groups=512)
                        (conv1d_z_f): Conv1d(512, 512, kernel_size=(4,), stride=(1,), groups=512)
                        (conv1d_x_b): Conv1d(512, 512, kernel_size=(4,), stride=(1,), groups=512)
                        (conv1d_z_b): Conv1d(512, 512, kernel_size=(4,), stride=(1,), groups=512)
                        (conv1d_x_xy_f): Conv1d(512, 512, kernel_size=(4,), stride=(1,), groups=512)
                        (conv1d_z_xy_f): Conv1d(512, 512, kernel_size=(4,), stride=(1,), groups=512)
                        (conv1d_x_xy_b): Conv1d(512, 512, kernel_size=(4,), stride=(1,), groups=512)
                        (conv1d_z_xy_b): Conv1d(512, 512, kernel_size=(4,), stride=(1,), groups=512)
                        (out_proj): Linear(in_features=2048, out_features=256, bias=False)
                        (global_proj): Linear(in_features=2048, out_features=2048, bias=True)
                      )
                      (dropout): DropPath(drop_prob=0.300)
                      (norm): RMSNorm()
                      (mlp): MLP(
                        (gate_proj): Linear(in_features=256, out_features=1024, bias=False)
                        (up_proj): Linear(in_features=256, out_features=1024, bias=False)
                        (down_proj): Linear(in_features=1024, out_features=256, bias=False)
                        (act_fn): SiLU()
                      )
                      (mlp_norm): Identity()
                    )
                  )
                  (rope): RotaryEmbedding()
                )
                (3): DropPath(drop_prob=0.100)
              )
              (1): FUTR3DAttention(
                (dropout): Dropout(p=0.1, inplace=False)
                (sampling_offsets): Linear(in_features=256, out_features=256, bias=True)
                (attention_weights): Linear(in_features=256, out_features=128, bias=True)
                (value_proj): Linear(in_features=256, out_features=256, bias=True)
                (output_proj): Linear(in_features=256, out_features=256, bias=True)
                (img_attention_weights): Linear(in_features=256, out_features=24, bias=True)
                (img_output_proj): Linear(in_features=256, out_features=256, bias=True)
                (position_encoder): Sequential(
                  (0): Linear(in_features=3, out_features=256, bias=True)
                  (1): LayerNorm((256,), eps=1e-05, elementwise_affine=True)
                  (2): ReLU(inplace=True)
                  (3): Linear(in_features=256, out_features=256, bias=True)
                  (4): LayerNorm((256,), eps=1e-05, elementwise_affine=True)
                  (5): ReLU(inplace=True)
                )
                (weight_dropout): Dropout(p=0.0, inplace=False)
                (modality_fusion_layer): Sequential(
                  (0): Linear(in_features=512, out_features=256, bias=True)
                  (1): LayerNorm((256,), eps=1e-05, elementwise_affine=True)
                  (2): ReLU()
                  (3): Linear(in_features=256, out_features=256, bias=True)
                  (4): LayerNorm((256,), eps=1e-05, elementwise_affine=True)
                )
                (camera_mixer): LidarCameraFusionMamba(
                  (in_proj): Linear(in_features=256, out_features=1024, bias=False)
                  (conv1d): Conv1d(512, 512, kernel_size=(4,), stride=(1,), padding=(3,), groups=512)
                  (x_proj): Linear(in_features=512, out_features=48, bias=False)
                  (dt_proj): Linear(in_features=16, out_features=512, bias=True)
                  (out_proj): Linear(in_features=512, out_features=256, bias=False)
                  (lidar_guidance_proj): Linear(in_features=512, out_features=512, bias=True)
                )
              )
            )
            (ffns): ModuleList(
              (0): FFN(
                (activate): ReLU(inplace=True)
                (layers): Sequential(
                  (0): Sequential(
                    (0): Linear(in_features=256, out_features=1024, bias=True)
                    (1): ReLU(inplace=True)
                    (2): Dropout(p=0.1, inplace=False)
                  )
                  (1): Linear(in_features=1024, out_features=256, bias=True)
                  (2): Dropout(p=0.1, inplace=False)
                )
                (dropout_layer): Identity()
              )
            )
            (norms): ModuleList(
              (0): LayerNorm((256,), eps=1e-05, elementwise_affine=True)
              (1): LayerNorm((256,), eps=1e-05, elementwise_affine=True)
              (2): LayerNorm((256,), eps=1e-05, elementwise_affine=True)
            )
          )
          (2): DetrTransformerDecoderLayer(
            (attentions): ModuleList(
              (0): ModuleList(
                (0): MultiheadAttention(
                  (attn): MultiheadAttention(
                    (out_proj): NonDynamicallyQuantizableLinear(in_features=256, out_features=256, bias=True)
                  )
                  (proj_drop): Dropout(p=0.0, inplace=False)
                  (dropout_layer): Dropout(p=0.1, inplace=False)
                )
                (1): RMSNorm()
                (2): DSS(
                  (layers): ModuleList(
                    (0): ModuleDict(
                      (norm_before): RMSNorm()
                      (mamba): DSSMamba(
                        (in_proj): Linear(in_features=256, out_features=2048, bias=False)
                        (in_proj_xy): Linear(in_features=256, out_features=2048, bias=False)
                        (act): SiLU()
                        (x_proj_f): Linear(in_features=512, out_features=144, bias=False)
                        (x_proj_b): Linear(in_features=512, out_features=144, bias=False)
                        (dt_proj_f): Linear(in_features=16, out_features=512, bias=True)
                        (dt_proj_b): Linear(in_features=16, out_features=512, bias=True)
                        (act_xy): SiLU()
                        (x_proj_f_xy): Linear(in_features=512, out_features=144, bias=False)
                        (x_proj_b_xy): Linear(in_features=512, out_features=144, bias=False)
                        (dt_proj_f_xy): Linear(in_features=16, out_features=512, bias=True)
                        (dt_proj_b_xy): Linear(in_features=16, out_features=512, bias=True)
                        (conv1d_x_f): Conv1d(512, 512, kernel_size=(4,), stride=(1,), groups=512)
                        (conv1d_z_f): Conv1d(512, 512, kernel_size=(4,), stride=(1,), groups=512)
                        (conv1d_x_b): Conv1d(512, 512, kernel_size=(4,), stride=(1,), groups=512)
                        (conv1d_z_b): Conv1d(512, 512, kernel_size=(4,), stride=(1,), groups=512)
                        (conv1d_x_xy_f): Conv1d(512, 512, kernel_size=(4,), stride=(1,), groups=512)
                        (conv1d_z_xy_f): Conv1d(512, 512, kernel_size=(4,), stride=(1,), groups=512)
                        (conv1d_x_xy_b): Conv1d(512, 512, kernel_size=(4,), stride=(1,), groups=512)
                        (conv1d_z_xy_b): Conv1d(512, 512, kernel_size=(4,), stride=(1,), groups=512)
                        (out_proj): Linear(in_features=2048, out_features=256, bias=False)
                        (global_proj): Linear(in_features=2048, out_features=2048, bias=True)
                      )
                      (dropout): Identity()
                      (norm): RMSNorm()
                      (mlp): MLP(
                        (gate_proj): Linear(in_features=256, out_features=1024, bias=False)
                        (up_proj): Linear(in_features=256, out_features=1024, bias=False)
                        (down_proj): Linear(in_features=1024, out_features=256, bias=False)
                        (act_fn): SiLU()
                      )
                      (mlp_norm): RMSNorm()
                    )
                    (1): ModuleDict(
                      (norm_before): RMSNorm()
                      (mamba): DSSMamba(
                        (in_proj): Linear(in_features=256, out_features=2048, bias=False)
                        (in_proj_xy): Linear(in_features=256, out_features=2048, bias=False)
                        (act): SiLU()
                        (x_proj_f): Linear(in_features=512, out_features=144, bias=False)
                        (x_proj_b): Linear(in_features=512, out_features=144, bias=False)
                        (dt_proj_f): Linear(in_features=16, out_features=512, bias=True)
                        (dt_proj_b): Linear(in_features=16, out_features=512, bias=True)
                        (act_xy): SiLU()
                        (x_proj_f_xy): Linear(in_features=512, out_features=144, bias=False)
                        (x_proj_b_xy): Linear(in_features=512, out_features=144, bias=False)
                        (dt_proj_f_xy): Linear(in_features=16, out_features=512, bias=True)
                        (dt_proj_b_xy): Linear(in_features=16, out_features=512, bias=True)
                        (conv1d_x_f): Conv1d(512, 512, kernel_size=(4,), stride=(1,), groups=512)
                        (conv1d_z_f): Conv1d(512, 512, kernel_size=(4,), stride=(1,), groups=512)
                        (conv1d_x_b): Conv1d(512, 512, kernel_size=(4,), stride=(1,), groups=512)
                        (conv1d_z_b): Conv1d(512, 512, kernel_size=(4,), stride=(1,), groups=512)
                        (conv1d_x_xy_f): Conv1d(512, 512, kernel_size=(4,), stride=(1,), groups=512)
                        (conv1d_z_xy_f): Conv1d(512, 512, kernel_size=(4,), stride=(1,), groups=512)
                        (conv1d_x_xy_b): Conv1d(512, 512, kernel_size=(4,), stride=(1,), groups=512)
                        (conv1d_z_xy_b): Conv1d(512, 512, kernel_size=(4,), stride=(1,), groups=512)
                        (out_proj): Linear(in_features=2048, out_features=256, bias=False)
                        (global_proj): Linear(in_features=2048, out_features=2048, bias=True)
                      )
                      (dropout): DropPath(drop_prob=0.300)
                      (norm): RMSNorm()
                      (mlp): MLP(
                        (gate_proj): Linear(in_features=256, out_features=1024, bias=False)
                        (up_proj): Linear(in_features=256, out_features=1024, bias=False)
                        (down_proj): Linear(in_features=1024, out_features=256, bias=False)
                        (act_fn): SiLU()
                      )
                      (mlp_norm): Identity()
                    )
                  )
                  (rope): RotaryEmbedding()
                )
                (3): DropPath(drop_prob=0.100)
              )
              (1): FUTR3DAttention(
                (dropout): Dropout(p=0.1, inplace=False)
                (sampling_offsets): Linear(in_features=256, out_features=256, bias=True)
                (attention_weights): Linear(in_features=256, out_features=128, bias=True)
                (value_proj): Linear(in_features=256, out_features=256, bias=True)
                (output_proj): Linear(in_features=256, out_features=256, bias=True)
                (img_attention_weights): Linear(in_features=256, out_features=24, bias=True)
                (img_output_proj): Linear(in_features=256, out_features=256, bias=True)
                (position_encoder): Sequential(
                  (0): Linear(in_features=3, out_features=256, bias=True)
                  (1): LayerNorm((256,), eps=1e-05, elementwise_affine=True)
                  (2): ReLU(inplace=True)
                  (3): Linear(in_features=256, out_features=256, bias=True)
                  (4): LayerNorm((256,), eps=1e-05, elementwise_affine=True)
                  (5): ReLU(inplace=True)
                )
                (weight_dropout): Dropout(p=0.0, inplace=False)
                (modality_fusion_layer): Sequential(
                  (0): Linear(in_features=512, out_features=256, bias=True)
                  (1): LayerNorm((256,), eps=1e-05, elementwise_affine=True)
                  (2): ReLU()
                  (3): Linear(in_features=256, out_features=256, bias=True)
                  (4): LayerNorm((256,), eps=1e-05, elementwise_affine=True)
                )
                (camera_mixer): LidarCameraFusionMamba(
                  (in_proj): Linear(in_features=256, out_features=1024, bias=False)
                  (conv1d): Conv1d(512, 512, kernel_size=(4,), stride=(1,), padding=(3,), groups=512)
                  (x_proj): Linear(in_features=512, out_features=48, bias=False)
                  (dt_proj): Linear(in_features=16, out_features=512, bias=True)
                  (out_proj): Linear(in_features=512, out_features=256, bias=False)
                  (lidar_guidance_proj): Linear(in_features=512, out_features=512, bias=True)
                )
              )
            )
            (ffns): ModuleList(
              (0): FFN(
                (activate): ReLU(inplace=True)
                (layers): Sequential(
                  (0): Sequential(
                    (0): Linear(in_features=256, out_features=1024, bias=True)
                    (1): ReLU(inplace=True)
                    (2): Dropout(p=0.1, inplace=False)
                  )
                  (1): Linear(in_features=1024, out_features=256, bias=True)
                  (2): Dropout(p=0.1, inplace=False)
                )
                (dropout_layer): Identity()
              )
            )
            (norms): ModuleList(
              (0): LayerNorm((256,), eps=1e-05, elementwise_affine=True)
              (1): LayerNorm((256,), eps=1e-05, elementwise_affine=True)
              (2): LayerNorm((256,), eps=1e-05, elementwise_affine=True)
            )
          )
          (3): DetrTransformerDecoderLayer(
            (attentions): ModuleList(
              (0): ModuleList(
                (0): MultiheadAttention(
                  (attn): MultiheadAttention(
                    (out_proj): NonDynamicallyQuantizableLinear(in_features=256, out_features=256, bias=True)
                  )
                  (proj_drop): Dropout(p=0.0, inplace=False)
                  (dropout_layer): Dropout(p=0.1, inplace=False)
                )
                (1): RMSNorm()
                (2): DSS(
                  (layers): ModuleList(
                    (0): ModuleDict(
                      (norm_before): RMSNorm()
                      (mamba): DSSMamba(
                        (in_proj): Linear(in_features=256, out_features=2048, bias=False)
                        (in_proj_xy): Linear(in_features=256, out_features=2048, bias=False)
                        (act): SiLU()
                        (x_proj_f): Linear(in_features=512, out_features=144, bias=False)
                        (x_proj_b): Linear(in_features=512, out_features=144, bias=False)
                        (dt_proj_f): Linear(in_features=16, out_features=512, bias=True)
                        (dt_proj_b): Linear(in_features=16, out_features=512, bias=True)
                        (act_xy): SiLU()
                        (x_proj_f_xy): Linear(in_features=512, out_features=144, bias=False)
                        (x_proj_b_xy): Linear(in_features=512, out_features=144, bias=False)
                        (dt_proj_f_xy): Linear(in_features=16, out_features=512, bias=True)
                        (dt_proj_b_xy): Linear(in_features=16, out_features=512, bias=True)
                        (conv1d_x_f): Conv1d(512, 512, kernel_size=(4,), stride=(1,), groups=512)
                        (conv1d_z_f): Conv1d(512, 512, kernel_size=(4,), stride=(1,), groups=512)
                        (conv1d_x_b): Conv1d(512, 512, kernel_size=(4,), stride=(1,), groups=512)
                        (conv1d_z_b): Conv1d(512, 512, kernel_size=(4,), stride=(1,), groups=512)
                        (conv1d_x_xy_f): Conv1d(512, 512, kernel_size=(4,), stride=(1,), groups=512)
                        (conv1d_z_xy_f): Conv1d(512, 512, kernel_size=(4,), stride=(1,), groups=512)
                        (conv1d_x_xy_b): Conv1d(512, 512, kernel_size=(4,), stride=(1,), groups=512)
                        (conv1d_z_xy_b): Conv1d(512, 512, kernel_size=(4,), stride=(1,), groups=512)
                        (out_proj): Linear(in_features=2048, out_features=256, bias=False)
                        (global_proj): Linear(in_features=2048, out_features=2048, bias=True)
                      )
                      (dropout): Identity()
                      (norm): RMSNorm()
                      (mlp): MLP(
                        (gate_proj): Linear(in_features=256, out_features=1024, bias=False)
                        (up_proj): Linear(in_features=256, out_features=1024, bias=False)
                        (down_proj): Linear(in_features=1024, out_features=256, bias=False)
                        (act_fn): SiLU()
                      )
                      (mlp_norm): RMSNorm()
                    )
                    (1): ModuleDict(
                      (norm_before): RMSNorm()
                      (mamba): DSSMamba(
                        (in_proj): Linear(in_features=256, out_features=2048, bias=False)
                        (in_proj_xy): Linear(in_features=256, out_features=2048, bias=False)
                        (act): SiLU()
                        (x_proj_f): Linear(in_features=512, out_features=144, bias=False)
                        (x_proj_b): Linear(in_features=512, out_features=144, bias=False)
                        (dt_proj_f): Linear(in_features=16, out_features=512, bias=True)
                        (dt_proj_b): Linear(in_features=16, out_features=512, bias=True)
                        (act_xy): SiLU()
                        (x_proj_f_xy): Linear(in_features=512, out_features=144, bias=False)
                        (x_proj_b_xy): Linear(in_features=512, out_features=144, bias=False)
                        (dt_proj_f_xy): Linear(in_features=16, out_features=512, bias=True)
                        (dt_proj_b_xy): Linear(in_features=16, out_features=512, bias=True)
                        (conv1d_x_f): Conv1d(512, 512, kernel_size=(4,), stride=(1,), groups=512)
                        (conv1d_z_f): Conv1d(512, 512, kernel_size=(4,), stride=(1,), groups=512)
                        (conv1d_x_b): Conv1d(512, 512, kernel_size=(4,), stride=(1,), groups=512)
                        (conv1d_z_b): Conv1d(512, 512, kernel_size=(4,), stride=(1,), groups=512)
                        (conv1d_x_xy_f): Conv1d(512, 512, kernel_size=(4,), stride=(1,), groups=512)
                        (conv1d_z_xy_f): Conv1d(512, 512, kernel_size=(4,), stride=(1,), groups=512)
                        (conv1d_x_xy_b): Conv1d(512, 512, kernel_size=(4,), stride=(1,), groups=512)
                        (conv1d_z_xy_b): Conv1d(512, 512, kernel_size=(4,), stride=(1,), groups=512)
                        (out_proj): Linear(in_features=2048, out_features=256, bias=False)
                        (global_proj): Linear(in_features=2048, out_features=2048, bias=True)
                      )
                      (dropout): DropPath(drop_prob=0.300)
                      (norm): RMSNorm()
                      (mlp): MLP(
                        (gate_proj): Linear(in_features=256, out_features=1024, bias=False)
                        (up_proj): Linear(in_features=256, out_features=1024, bias=False)
                        (down_proj): Linear(in_features=1024, out_features=256, bias=False)
                        (act_fn): SiLU()
                      )
                      (mlp_norm): Identity()
                    )
                  )
                  (rope): RotaryEmbedding()
                )
                (3): DropPath(drop_prob=0.100)
              )
              (1): FUTR3DAttention(
                (dropout): Dropout(p=0.1, inplace=False)
                (sampling_offsets): Linear(in_features=256, out_features=256, bias=True)
                (attention_weights): Linear(in_features=256, out_features=128, bias=True)
                (value_proj): Linear(in_features=256, out_features=256, bias=True)
                (output_proj): Linear(in_features=256, out_features=256, bias=True)
                (img_attention_weights): Linear(in_features=256, out_features=24, bias=True)
                (img_output_proj): Linear(in_features=256, out_features=256, bias=True)
                (position_encoder): Sequential(
                  (0): Linear(in_features=3, out_features=256, bias=True)
                  (1): LayerNorm((256,), eps=1e-05, elementwise_affine=True)
                  (2): ReLU(inplace=True)
                  (3): Linear(in_features=256, out_features=256, bias=True)
                  (4): LayerNorm((256,), eps=1e-05, elementwise_affine=True)
                  (5): ReLU(inplace=True)
                )
                (weight_dropout): Dropout(p=0.0, inplace=False)
                (modality_fusion_layer): Sequential(
                  (0): Linear(in_features=512, out_features=256, bias=True)
                  (1): LayerNorm((256,), eps=1e-05, elementwise_affine=True)
                  (2): ReLU()
                  (3): Linear(in_features=256, out_features=256, bias=True)
                  (4): LayerNorm((256,), eps=1e-05, elementwise_affine=True)
                )
                (camera_mixer): LidarCameraFusionMamba(
                  (in_proj): Linear(in_features=256, out_features=1024, bias=False)
                  (conv1d): Conv1d(512, 512, kernel_size=(4,), stride=(1,), padding=(3,), groups=512)
                  (x_proj): Linear(in_features=512, out_features=48, bias=False)
                  (dt_proj): Linear(in_features=16, out_features=512, bias=True)
                  (out_proj): Linear(in_features=512, out_features=256, bias=False)
                  (lidar_guidance_proj): Linear(in_features=512, out_features=512, bias=True)
                )
              )
            )
            (ffns): ModuleList(
              (0): FFN(
                (activate): ReLU(inplace=True)
                (layers): Sequential(
                  (0): Sequential(
                    (0): Linear(in_features=256, out_features=1024, bias=True)
                    (1): ReLU(inplace=True)
                    (2): Dropout(p=0.1, inplace=False)
                  )
                  (1): Linear(in_features=1024, out_features=256, bias=True)
                  (2): Dropout(p=0.1, inplace=False)
                )
                (dropout_layer): Identity()
              )
            )
            (norms): ModuleList(
              (0): LayerNorm((256,), eps=1e-05, elementwise_affine=True)
              (1): LayerNorm((256,), eps=1e-05, elementwise_affine=True)
              (2): LayerNorm((256,), eps=1e-05, elementwise_affine=True)
            )
          )
          (4): DetrTransformerDecoderLayer(
            (attentions): ModuleList(
              (0): ModuleList(
                (0): MultiheadAttention(
                  (attn): MultiheadAttention(
                    (out_proj): NonDynamicallyQuantizableLinear(in_features=256, out_features=256, bias=True)
                  )
                  (proj_drop): Dropout(p=0.0, inplace=False)
                  (dropout_layer): Dropout(p=0.1, inplace=False)
                )
                (1): RMSNorm()
                (2): DSS(
                  (layers): ModuleList(
                    (0): ModuleDict(
                      (norm_before): RMSNorm()
                      (mamba): DSSMamba(
                        (in_proj): Linear(in_features=256, out_features=2048, bias=False)
                        (in_proj_xy): Linear(in_features=256, out_features=2048, bias=False)
                        (act): SiLU()
                        (x_proj_f): Linear(in_features=512, out_features=144, bias=False)
                        (x_proj_b): Linear(in_features=512, out_features=144, bias=False)
                        (dt_proj_f): Linear(in_features=16, out_features=512, bias=True)
                        (dt_proj_b): Linear(in_features=16, out_features=512, bias=True)
                        (act_xy): SiLU()
                        (x_proj_f_xy): Linear(in_features=512, out_features=144, bias=False)
                        (x_proj_b_xy): Linear(in_features=512, out_features=144, bias=False)
                        (dt_proj_f_xy): Linear(in_features=16, out_features=512, bias=True)
                        (dt_proj_b_xy): Linear(in_features=16, out_features=512, bias=True)
                        (conv1d_x_f): Conv1d(512, 512, kernel_size=(4,), stride=(1,), groups=512)
                        (conv1d_z_f): Conv1d(512, 512, kernel_size=(4,), stride=(1,), groups=512)
                        (conv1d_x_b): Conv1d(512, 512, kernel_size=(4,), stride=(1,), groups=512)
                        (conv1d_z_b): Conv1d(512, 512, kernel_size=(4,), stride=(1,), groups=512)
                        (conv1d_x_xy_f): Conv1d(512, 512, kernel_size=(4,), stride=(1,), groups=512)
                        (conv1d_z_xy_f): Conv1d(512, 512, kernel_size=(4,), stride=(1,), groups=512)
                        (conv1d_x_xy_b): Conv1d(512, 512, kernel_size=(4,), stride=(1,), groups=512)
                        (conv1d_z_xy_b): Conv1d(512, 512, kernel_size=(4,), stride=(1,), groups=512)
                        (out_proj): Linear(in_features=2048, out_features=256, bias=False)
                        (global_proj): Linear(in_features=2048, out_features=2048, bias=True)
                      )
                      (dropout): Identity()
                      (norm): RMSNorm()
                      (mlp): MLP(
                        (gate_proj): Linear(in_features=256, out_features=1024, bias=False)
                        (up_proj): Linear(in_features=256, out_features=1024, bias=False)
                        (down_proj): Linear(in_features=1024, out_features=256, bias=False)
                        (act_fn): SiLU()
                      )
                      (mlp_norm): RMSNorm()
                    )
                    (1): ModuleDict(
                      (norm_before): RMSNorm()
                      (mamba): DSSMamba(
                        (in_proj): Linear(in_features=256, out_features=2048, bias=False)
                        (in_proj_xy): Linear(in_features=256, out_features=2048, bias=False)
                        (act): SiLU()
                        (x_proj_f): Linear(in_features=512, out_features=144, bias=False)
                        (x_proj_b): Linear(in_features=512, out_features=144, bias=False)
                        (dt_proj_f): Linear(in_features=16, out_features=512, bias=True)
                        (dt_proj_b): Linear(in_features=16, out_features=512, bias=True)
                        (act_xy): SiLU()
                        (x_proj_f_xy): Linear(in_features=512, out_features=144, bias=False)
                        (x_proj_b_xy): Linear(in_features=512, out_features=144, bias=False)
                        (dt_proj_f_xy): Linear(in_features=16, out_features=512, bias=True)
                        (dt_proj_b_xy): Linear(in_features=16, out_features=512, bias=True)
                        (conv1d_x_f): Conv1d(512, 512, kernel_size=(4,), stride=(1,), groups=512)
                        (conv1d_z_f): Conv1d(512, 512, kernel_size=(4,), stride=(1,), groups=512)
                        (conv1d_x_b): Conv1d(512, 512, kernel_size=(4,), stride=(1,), groups=512)
                        (conv1d_z_b): Conv1d(512, 512, kernel_size=(4,), stride=(1,), groups=512)
                        (conv1d_x_xy_f): Conv1d(512, 512, kernel_size=(4,), stride=(1,), groups=512)
                        (conv1d_z_xy_f): Conv1d(512, 512, kernel_size=(4,), stride=(1,), groups=512)
                        (conv1d_x_xy_b): Conv1d(512, 512, kernel_size=(4,), stride=(1,), groups=512)
                        (conv1d_z_xy_b): Conv1d(512, 512, kernel_size=(4,), stride=(1,), groups=512)
                        (out_proj): Linear(in_features=2048, out_features=256, bias=False)
                        (global_proj): Linear(in_features=2048, out_features=2048, bias=True)
                      )
                      (dropout): DropPath(drop_prob=0.300)
                      (norm): RMSNorm()
                      (mlp): MLP(
                        (gate_proj): Linear(in_features=256, out_features=1024, bias=False)
                        (up_proj): Linear(in_features=256, out_features=1024, bias=False)
                        (down_proj): Linear(in_features=1024, out_features=256, bias=False)
                        (act_fn): SiLU()
                      )
                      (mlp_norm): Identity()
                    )
                  )
                  (rope): RotaryEmbedding()
                )
                (3): DropPath(drop_prob=0.100)
              )
              (1): FUTR3DAttention(
                (dropout): Dropout(p=0.1, inplace=False)
                (sampling_offsets): Linear(in_features=256, out_features=256, bias=True)
                (attention_weights): Linear(in_features=256, out_features=128, bias=True)
                (value_proj): Linear(in_features=256, out_features=256, bias=True)
                (output_proj): Linear(in_features=256, out_features=256, bias=True)
                (img_attention_weights): Linear(in_features=256, out_features=24, bias=True)
                (img_output_proj): Linear(in_features=256, out_features=256, bias=True)
                (position_encoder): Sequential(
                  (0): Linear(in_features=3, out_features=256, bias=True)
                  (1): LayerNorm((256,), eps=1e-05, elementwise_affine=True)
                  (2): ReLU(inplace=True)
                  (3): Linear(in_features=256, out_features=256, bias=True)
                  (4): LayerNorm((256,), eps=1e-05, elementwise_affine=True)
                  (5): ReLU(inplace=True)
                )
                (weight_dropout): Dropout(p=0.0, inplace=False)
                (modality_fusion_layer): Sequential(
                  (0): Linear(in_features=512, out_features=256, bias=True)
                  (1): LayerNorm((256,), eps=1e-05, elementwise_affine=True)
                  (2): ReLU()
                  (3): Linear(in_features=256, out_features=256, bias=True)
                  (4): LayerNorm((256,), eps=1e-05, elementwise_affine=True)
                )
                (camera_mixer): LidarCameraFusionMamba(
                  (in_proj): Linear(in_features=256, out_features=1024, bias=False)
                  (conv1d): Conv1d(512, 512, kernel_size=(4,), stride=(1,), padding=(3,), groups=512)
                  (x_proj): Linear(in_features=512, out_features=48, bias=False)
                  (dt_proj): Linear(in_features=16, out_features=512, bias=True)
                  (out_proj): Linear(in_features=512, out_features=256, bias=False)
                  (lidar_guidance_proj): Linear(in_features=512, out_features=512, bias=True)
                )
              )
            )
            (ffns): ModuleList(
              (0): FFN(
                (activate): ReLU(inplace=True)
                (layers): Sequential(
                  (0): Sequential(
                    (0): Linear(in_features=256, out_features=1024, bias=True)
                    (1): ReLU(inplace=True)
                    (2): Dropout(p=0.1, inplace=False)
                  )
                  (1): Linear(in_features=1024, out_features=256, bias=True)
                  (2): Dropout(p=0.1, inplace=False)
                )
                (dropout_layer): Identity()
              )
            )
            (norms): ModuleList(
              (0): LayerNorm((256,), eps=1e-05, elementwise_affine=True)
              (1): LayerNorm((256,), eps=1e-05, elementwise_affine=True)
              (2): LayerNorm((256,), eps=1e-05, elementwise_affine=True)
            )
          )
          (5): DetrTransformerDecoderLayer(
            (attentions): ModuleList(
              (0): ModuleList(
                (0): MultiheadAttention(
                  (attn): MultiheadAttention(
                    (out_proj): NonDynamicallyQuantizableLinear(in_features=256, out_features=256, bias=True)
                  )
                  (proj_drop): Dropout(p=0.0, inplace=False)
                  (dropout_layer): Dropout(p=0.1, inplace=False)
                )
                (1): RMSNorm()
                (2): DSS(
                  (layers): ModuleList(
                    (0): ModuleDict(
                      (norm_before): RMSNorm()
                      (mamba): DSSMamba(
                        (in_proj): Linear(in_features=256, out_features=2048, bias=False)
                        (in_proj_xy): Linear(in_features=256, out_features=2048, bias=False)
                        (act): SiLU()
                        (x_proj_f): Linear(in_features=512, out_features=144, bias=False)
                        (x_proj_b): Linear(in_features=512, out_features=144, bias=False)
                        (dt_proj_f): Linear(in_features=16, out_features=512, bias=True)
                        (dt_proj_b): Linear(in_features=16, out_features=512, bias=True)
                        (act_xy): SiLU()
                        (x_proj_f_xy): Linear(in_features=512, out_features=144, bias=False)
                        (x_proj_b_xy): Linear(in_features=512, out_features=144, bias=False)
                        (dt_proj_f_xy): Linear(in_features=16, out_features=512, bias=True)
                        (dt_proj_b_xy): Linear(in_features=16, out_features=512, bias=True)
                        (conv1d_x_f): Conv1d(512, 512, kernel_size=(4,), stride=(1,), groups=512)
                        (conv1d_z_f): Conv1d(512, 512, kernel_size=(4,), stride=(1,), groups=512)
                        (conv1d_x_b): Conv1d(512, 512, kernel_size=(4,), stride=(1,), groups=512)
                        (conv1d_z_b): Conv1d(512, 512, kernel_size=(4,), stride=(1,), groups=512)
                        (conv1d_x_xy_f): Conv1d(512, 512, kernel_size=(4,), stride=(1,), groups=512)
                        (conv1d_z_xy_f): Conv1d(512, 512, kernel_size=(4,), stride=(1,), groups=512)
                        (conv1d_x_xy_b): Conv1d(512, 512, kernel_size=(4,), stride=(1,), groups=512)
                        (conv1d_z_xy_b): Conv1d(512, 512, kernel_size=(4,), stride=(1,), groups=512)
                        (out_proj): Linear(in_features=2048, out_features=256, bias=False)
                        (global_proj): Linear(in_features=2048, out_features=2048, bias=True)
                      )
                      (dropout): Identity()
                      (norm): RMSNorm()
                      (mlp): MLP(
                        (gate_proj): Linear(in_features=256, out_features=1024, bias=False)
                        (up_proj): Linear(in_features=256, out_features=1024, bias=False)
                        (down_proj): Linear(in_features=1024, out_features=256, bias=False)
                        (act_fn): SiLU()
                      )
                      (mlp_norm): RMSNorm()
                    )
                    (1): ModuleDict(
                      (norm_before): RMSNorm()
                      (mamba): DSSMamba(
                        (in_proj): Linear(in_features=256, out_features=2048, bias=False)
                        (in_proj_xy): Linear(in_features=256, out_features=2048, bias=False)
                        (act): SiLU()
                        (x_proj_f): Linear(in_features=512, out_features=144, bias=False)
                        (x_proj_b): Linear(in_features=512, out_features=144, bias=False)
                        (dt_proj_f): Linear(in_features=16, out_features=512, bias=True)
                        (dt_proj_b): Linear(in_features=16, out_features=512, bias=True)
                        (act_xy): SiLU()
                        (x_proj_f_xy): Linear(in_features=512, out_features=144, bias=False)
                        (x_proj_b_xy): Linear(in_features=512, out_features=144, bias=False)
                        (dt_proj_f_xy): Linear(in_features=16, out_features=512, bias=True)
                        (dt_proj_b_xy): Linear(in_features=16, out_features=512, bias=True)
                        (conv1d_x_f): Conv1d(512, 512, kernel_size=(4,), stride=(1,), groups=512)
                        (conv1d_z_f): Conv1d(512, 512, kernel_size=(4,), stride=(1,), groups=512)
                        (conv1d_x_b): Conv1d(512, 512, kernel_size=(4,), stride=(1,), groups=512)
                        (conv1d_z_b): Conv1d(512, 512, kernel_size=(4,), stride=(1,), groups=512)
                        (conv1d_x_xy_f): Conv1d(512, 512, kernel_size=(4,), stride=(1,), groups=512)
                        (conv1d_z_xy_f): Conv1d(512, 512, kernel_size=(4,), stride=(1,), groups=512)
                        (conv1d_x_xy_b): Conv1d(512, 512, kernel_size=(4,), stride=(1,), groups=512)
                        (conv1d_z_xy_b): Conv1d(512, 512, kernel_size=(4,), stride=(1,), groups=512)
                        (out_proj): Linear(in_features=2048, out_features=256, bias=False)
                        (global_proj): Linear(in_features=2048, out_features=2048, bias=True)
                      )
                      (dropout): DropPath(drop_prob=0.300)
                      (norm): RMSNorm()
                      (mlp): MLP(
                        (gate_proj): Linear(in_features=256, out_features=1024, bias=False)
                        (up_proj): Linear(in_features=256, out_features=1024, bias=False)
                        (down_proj): Linear(in_features=1024, out_features=256, bias=False)
                        (act_fn): SiLU()
                      )
                      (mlp_norm): Identity()
                    )
                  )
                  (rope): RotaryEmbedding()
                )
                (3): DropPath(drop_prob=0.100)
              )
              (1): FUTR3DAttention(
                (dropout): Dropout(p=0.1, inplace=False)
                (sampling_offsets): Linear(in_features=256, out_features=256, bias=True)
                (attention_weights): Linear(in_features=256, out_features=128, bias=True)
                (value_proj): Linear(in_features=256, out_features=256, bias=True)
                (output_proj): Linear(in_features=256, out_features=256, bias=True)
                (img_attention_weights): Linear(in_features=256, out_features=24, bias=True)
                (img_output_proj): Linear(in_features=256, out_features=256, bias=True)
                (position_encoder): Sequential(
                  (0): Linear(in_features=3, out_features=256, bias=True)
                  (1): LayerNorm((256,), eps=1e-05, elementwise_affine=True)
                  (2): ReLU(inplace=True)
                  (3): Linear(in_features=256, out_features=256, bias=True)
                  (4): LayerNorm((256,), eps=1e-05, elementwise_affine=True)
                  (5): ReLU(inplace=True)
                )
                (weight_dropout): Dropout(p=0.0, inplace=False)
                (modality_fusion_layer): Sequential(
                  (0): Linear(in_features=512, out_features=256, bias=True)
                  (1): LayerNorm((256,), eps=1e-05, elementwise_affine=True)
                  (2): ReLU()
                  (3): Linear(in_features=256, out_features=256, bias=True)
                  (4): LayerNorm((256,), eps=1e-05, elementwise_affine=True)
                )
                (camera_mixer): LidarCameraFusionMamba(
                  (in_proj): Linear(in_features=256, out_features=1024, bias=False)
                  (conv1d): Conv1d(512, 512, kernel_size=(4,), stride=(1,), padding=(3,), groups=512)
                  (x_proj): Linear(in_features=512, out_features=48, bias=False)
                  (dt_proj): Linear(in_features=16, out_features=512, bias=True)
                  (out_proj): Linear(in_features=512, out_features=256, bias=False)
                  (lidar_guidance_proj): Linear(in_features=512, out_features=512, bias=True)
                )
              )
            )
            (ffns): ModuleList(
              (0): FFN(
                (activate): ReLU(inplace=True)
                (layers): Sequential(
                  (0): Sequential(
                    (0): Linear(in_features=256, out_features=1024, bias=True)
                    (1): ReLU(inplace=True)
                    (2): Dropout(p=0.1, inplace=False)
                  )
                  (1): Linear(in_features=1024, out_features=256, bias=True)
                  (2): Dropout(p=0.1, inplace=False)
                )
                (dropout_layer): Identity()
              )
            )
            (norms): ModuleList(
              (0): LayerNorm((256,), eps=1e-05, elementwise_affine=True)
              (1): LayerNorm((256,), eps=1e-05, elementwise_affine=True)
              (2): LayerNorm((256,), eps=1e-05, elementwise_affine=True)
            )
          )
        )
        (query_scale): MLP(
          (layers): ModuleList(
            (0): Linear(in_features=256, out_features=256, bias=True)
            (1): Linear(in_features=256, out_features=256, bias=True)
          )
        )
        (ref_point_head): MLP(
          (layers): ModuleList(
            (0): Linear(in_features=384, out_features=256, bias=True)
            (1): Linear(in_features=256, out_features=256, bias=True)
          )
        )
      )
    )
    (cls_branches): ModuleList(
      (0): MLP(
        (gate_proj): Linear(in_features=256, out_features=1024, bias=False)
        (up_proj): Linear(in_features=256, out_features=1024, bias=False)
        (act_fn): SiLU()
        (down_proj): Linear(in_features=1024, out_features=10, bias=True)
      )
      (1): MLP(
        (gate_proj): Linear(in_features=256, out_features=1024, bias=False)
        (up_proj): Linear(in_features=256, out_features=1024, bias=False)
        (act_fn): SiLU()
        (down_proj): Linear(in_features=1024, out_features=10, bias=True)
      )
      (2): MLP(
        (gate_proj): Linear(in_features=256, out_features=1024, bias=False)
        (up_proj): Linear(in_features=256, out_features=1024, bias=False)
        (act_fn): SiLU()
        (down_proj): Linear(in_features=1024, out_features=10, bias=True)
      )
      (3): MLP(
        (gate_proj): Linear(in_features=256, out_features=1024, bias=False)
        (up_proj): Linear(in_features=256, out_features=1024, bias=False)
        (act_fn): SiLU()
        (down_proj): Linear(in_features=1024, out_features=10, bias=True)
      )
      (4): MLP(
        (gate_proj): Linear(in_features=256, out_features=1024, bias=False)
        (up_proj): Linear(in_features=256, out_features=1024, bias=False)
        (act_fn): SiLU()
        (down_proj): Linear(in_features=1024, out_features=10, bias=True)
      )
      (5): MLP(
        (gate_proj): Linear(in_features=256, out_features=1024, bias=False)
        (up_proj): Linear(in_features=256, out_features=1024, bias=False)
        (act_fn): SiLU()
        (down_proj): Linear(in_features=1024, out_features=10, bias=True)
      )
    )
    (reg_branches): ModuleList(
      (0): Sequential(
        (0): Linear(in_features=256, out_features=256, bias=True)
        (1): ReLU()
        (2): Linear(in_features=256, out_features=256, bias=True)
        (3): ReLU()
        (4): Linear(in_features=256, out_features=10, bias=True)
      )
      (1): Sequential(
        (0): Linear(in_features=256, out_features=256, bias=True)
        (1): ReLU()
        (2): Linear(in_features=256, out_features=256, bias=True)
        (3): ReLU()
        (4): Linear(in_features=256, out_features=10, bias=True)
      )
      (2): Sequential(
        (0): Linear(in_features=256, out_features=256, bias=True)
        (1): ReLU()
        (2): Linear(in_features=256, out_features=256, bias=True)
        (3): ReLU()
        (4): Linear(in_features=256, out_features=10, bias=True)
      )
      (3): Sequential(
        (0): Linear(in_features=256, out_features=256, bias=True)
        (1): ReLU()
        (2): Linear(in_features=256, out_features=256, bias=True)
        (3): ReLU()
        (4): Linear(in_features=256, out_features=10, bias=True)
      )
      (4): Sequential(
        (0): Linear(in_features=256, out_features=256, bias=True)
        (1): ReLU()
        (2): Linear(in_features=256, out_features=256, bias=True)
        (3): ReLU()
        (4): Linear(in_features=256, out_features=10, bias=True)
      )
      (5): Sequential(
        (0): Linear(in_features=256, out_features=256, bias=True)
        (1): ReLU()
        (2): Linear(in_features=256, out_features=256, bias=True)
        (3): ReLU()
        (4): Linear(in_features=256, out_features=10, bias=True)
      )
    )
    (tgt_embed): Embedding(900, 256)
    (refpoint_embed): Embedding(900, 3)
  )
  (img_backbone): ResNet(
    (conv1): Conv2d(3, 64, kernel_size=(7, 7), stride=(2, 2), padding=(3, 3), bias=False)
    (bn1): SyncBatchNorm(64, eps=1e-05, momentum=0.1, affine=True, track_running_stats=True)
    (relu): ReLU(inplace=True)
    (maxpool): MaxPool2d(kernel_size=3, stride=2, padding=1, dilation=1, ceil_mode=False)
    (layer1): ResLayer(
      (0): Bottleneck(
        (conv1): Conv2d(64, 64, kernel_size=(1, 1), stride=(1, 1), bias=False)
        (bn1): SyncBatchNorm(64, eps=1e-05, momentum=0.1, affine=True, track_running_stats=True)
        (conv2): Conv2d(64, 64, kernel_size=(3, 3), stride=(1, 1), padding=(1, 1), bias=False)
        (bn2): SyncBatchNorm(64, eps=1e-05, momentum=0.1, affine=True, track_running_stats=True)
        (conv3): Conv2d(64, 256, kernel_size=(1, 1), stride=(1, 1), bias=False)
        (bn3): SyncBatchNorm(256, eps=1e-05, momentum=0.1, affine=True, track_running_stats=True)
        (relu): ReLU(inplace=True)
        (downsample): Sequential(
          (0): Conv2d(64, 256, kernel_size=(1, 1), stride=(1, 1), bias=False)
          (1): SyncBatchNorm(256, eps=1e-05, momentum=0.1, affine=True, track_running_stats=True)
        )
      )
      init_cfg={'type': 'Constant', 'val': 0, 'override': {'name': 'norm3'}}
      (1): Bottleneck(
        (conv1): Conv2d(256, 64, kernel_size=(1, 1), stride=(1, 1), bias=False)
        (bn1): SyncBatchNorm(64, eps=1e-05, momentum=0.1, affine=True, track_running_stats=True)
        (conv2): Conv2d(64, 64, kernel_size=(3, 3), stride=(1, 1), padding=(1, 1), bias=False)
        (bn2): SyncBatchNorm(64, eps=1e-05, momentum=0.1, affine=True, track_running_stats=True)
        (conv3): Conv2d(64, 256, kernel_size=(1, 1), stride=(1, 1), bias=False)
        (bn3): SyncBatchNorm(256, eps=1e-05, momentum=0.1, affine=True, track_running_stats=True)
        (relu): ReLU(inplace=True)
      )
      init_cfg={'type': 'Constant', 'val': 0, 'override': {'name': 'norm3'}}
      (2): Bottleneck(
        (conv1): Conv2d(256, 64, kernel_size=(1, 1), stride=(1, 1), bias=False)
        (bn1): SyncBatchNorm(64, eps=1e-05, momentum=0.1, affine=True, track_running_stats=True)
        (conv2): Conv2d(64, 64, kernel_size=(3, 3), stride=(1, 1), padding=(1, 1), bias=False)
        (bn2): SyncBatchNorm(64, eps=1e-05, momentum=0.1, affine=True, track_running_stats=True)
        (conv3): Conv2d(64, 256, kernel_size=(1, 1), stride=(1, 1), bias=False)
        (bn3): SyncBatchNorm(256, eps=1e-05, momentum=0.1, affine=True, track_running_stats=True)
        (relu): ReLU(inplace=True)
      )
      init_cfg={'type': 'Constant', 'val': 0, 'override': {'name': 'norm3'}}
    )
    (layer2): ResLayer(
      (0): Bottleneck(
        (conv1): Conv2d(256, 128, kernel_size=(1, 1), stride=(2, 2), bias=False)
        (bn1): SyncBatchNorm(128, eps=1e-05, momentum=0.1, affine=True, track_running_stats=True)
        (conv2): Conv2d(128, 128, kernel_size=(3, 3), stride=(1, 1), padding=(1, 1), bias=False)
        (bn2): SyncBatchNorm(128, eps=1e-05, momentum=0.1, affine=True, track_running_stats=True)
        (conv3): Conv2d(128, 512, kernel_size=(1, 1), stride=(1, 1), bias=False)
        (bn3): SyncBatchNorm(512, eps=1e-05, momentum=0.1, affine=True, track_running_stats=True)
        (relu): ReLU(inplace=True)
        (downsample): Sequential(
          (0): Conv2d(256, 512, kernel_size=(1, 1), stride=(2, 2), bias=False)
          (1): SyncBatchNorm(512, eps=1e-05, momentum=0.1, affine=True, track_running_stats=True)
        )
      )
      init_cfg={'type': 'Constant', 'val': 0, 'override': {'name': 'norm3'}}
      (1): Bottleneck(
        (conv1): Conv2d(512, 128, kernel_size=(1, 1), stride=(1, 1), bias=False)
        (bn1): SyncBatchNorm(128, eps=1e-05, momentum=0.1, affine=True, track_running_stats=True)
        (conv2): Conv2d(128, 128, kernel_size=(3, 3), stride=(1, 1), padding=(1, 1), bias=False)
        (bn2): SyncBatchNorm(128, eps=1e-05, momentum=0.1, affine=True, track_running_stats=True)
        (conv3): Conv2d(128, 512, kernel_size=(1, 1), stride=(1, 1), bias=False)
        (bn3): SyncBatchNorm(512, eps=1e-05, momentum=0.1, affine=True, track_running_stats=True)
        (relu): ReLU(inplace=True)
      )
      init_cfg={'type': 'Constant', 'val': 0, 'override': {'name': 'norm3'}}
      (2): Bottleneck(
        (conv1): Conv2d(512, 128, kernel_size=(1, 1), stride=(1, 1), bias=False)
        (bn1): SyncBatchNorm(128, eps=1e-05, momentum=0.1, affine=True, track_running_stats=True)
        (conv2): Conv2d(128, 128, kernel_size=(3, 3), stride=(1, 1), padding=(1, 1), bias=False)
        (bn2): SyncBatchNorm(128, eps=1e-05, momentum=0.1, affine=True, track_running_stats=True)
        (conv3): Conv2d(128, 512, kernel_size=(1, 1), stride=(1, 1), bias=False)
        (bn3): SyncBatchNorm(512, eps=1e-05, momentum=0.1, affine=True, track_running_stats=True)
        (relu): ReLU(inplace=True)
      )
      init_cfg={'type': 'Constant', 'val': 0, 'override': {'name': 'norm3'}}
      (3): Bottleneck(
        (conv1): Conv2d(512, 128, kernel_size=(1, 1), stride=(1, 1), bias=False)
        (bn1): SyncBatchNorm(128, eps=1e-05, momentum=0.1, affine=True, track_running_stats=True)
        (conv2): Conv2d(128, 128, kernel_size=(3, 3), stride=(1, 1), padding=(1, 1), bias=False)
        (bn2): SyncBatchNorm(128, eps=1e-05, momentum=0.1, affine=True, track_running_stats=True)
        (conv3): Conv2d(128, 512, kernel_size=(1, 1), stride=(1, 1), bias=False)
        (bn3): SyncBatchNorm(512, eps=1e-05, momentum=0.1, affine=True, track_running_stats=True)
        (relu): ReLU(inplace=True)
      )
      init_cfg={'type': 'Constant', 'val': 0, 'override': {'name': 'norm3'}}
    )
    (layer3): ResLayer(
      (0): Bottleneck(
        (conv1): Conv2d(512, 256, kernel_size=(1, 1), stride=(2, 2), bias=False)
        (bn1): SyncBatchNorm(256, eps=1e-05, momentum=0.1, affine=True, track_running_stats=True)
        (conv2): ModulatedDeformConv2dPack(
          (conv_offset): Conv2d(256, 27, kernel_size=(3, 3), stride=(1, 1), padding=(1, 1))
        )
        (bn2): SyncBatchNorm(256, eps=1e-05, momentum=0.1, affine=True, track_running_stats=True)
        (conv3): Conv2d(256, 1024, kernel_size=(1, 1), stride=(1, 1), bias=False)
        (bn3): SyncBatchNorm(1024, eps=1e-05, momentum=0.1, affine=True, track_running_stats=True)
        (relu): ReLU(inplace=True)
        (downsample): Sequential(
          (0): Conv2d(512, 1024, kernel_size=(1, 1), stride=(2, 2), bias=False)
          (1): SyncBatchNorm(1024, eps=1e-05, momentum=0.1, affine=True, track_running_stats=True)
        )
      )
      init_cfg={'type': 'Constant', 'val': 0, 'override': {'name': 'norm3'}}
      (1): Bottleneck(
        (conv1): Conv2d(1024, 256, kernel_size=(1, 1), stride=(1, 1), bias=False)
        (bn1): SyncBatchNorm(256, eps=1e-05, momentum=0.1, affine=True, track_running_stats=True)
        (conv2): ModulatedDeformConv2dPack(
          (conv_offset): Conv2d(256, 27, kernel_size=(3, 3), stride=(1, 1), padding=(1, 1))
        )
        (bn2): SyncBatchNorm(256, eps=1e-05, momentum=0.1, affine=True, track_running_stats=True)
        (conv3): Conv2d(256, 1024, kernel_size=(1, 1), stride=(1, 1), bias=False)
        (bn3): SyncBatchNorm(1024, eps=1e-05, momentum=0.1, affine=True, track_running_stats=True)
        (relu): ReLU(inplace=True)
      )
      init_cfg={'type': 'Constant', 'val': 0, 'override': {'name': 'norm3'}}
      (2): Bottleneck(
        (conv1): Conv2d(1024, 256, kernel_size=(1, 1), stride=(1, 1), bias=False)
        (bn1): SyncBatchNorm(256, eps=1e-05, momentum=0.1, affine=True, track_running_stats=True)
        (conv2): ModulatedDeformConv2dPack(
          (conv_offset): Conv2d(256, 27, kernel_size=(3, 3), stride=(1, 1), padding=(1, 1))
        )
        (bn2): SyncBatchNorm(256, eps=1e-05, momentum=0.1, affine=True, track_running_stats=True)
        (conv3): Conv2d(256, 1024, kernel_size=(1, 1), stride=(1, 1), bias=False)
        (bn3): SyncBatchNorm(1024, eps=1e-05, momentum=0.1, affine=True, track_running_stats=True)
        (relu): ReLU(inplace=True)
      )
      init_cfg={'type': 'Constant', 'val': 0, 'override': {'name': 'norm3'}}
      (3): Bottleneck(
        (conv1): Conv2d(1024, 256, kernel_size=(1, 1), stride=(1, 1), bias=False)
        (bn1): SyncBatchNorm(256, eps=1e-05, momentum=0.1, affine=True, track_running_stats=True)
        (conv2): ModulatedDeformConv2dPack(
          (conv_offset): Conv2d(256, 27, kernel_size=(3, 3), stride=(1, 1), padding=(1, 1))
        )
        (bn2): SyncBatchNorm(256, eps=1e-05, momentum=0.1, affine=True, track_running_stats=True)
        (conv3): Conv2d(256, 1024, kernel_size=(1, 1), stride=(1, 1), bias=False)
        (bn3): SyncBatchNorm(1024, eps=1e-05, momentum=0.1, affine=True, track_running_stats=True)
        (relu): ReLU(inplace=True)
      )
      init_cfg={'type': 'Constant', 'val': 0, 'override': {'name': 'norm3'}}
      (4): Bottleneck(
        (conv1): Conv2d(1024, 256, kernel_size=(1, 1), stride=(1, 1), bias=False)
        (bn1): SyncBatchNorm(256, eps=1e-05, momentum=0.1, affine=True, track_running_stats=True)
        (conv2): ModulatedDeformConv2dPack(
          (conv_offset): Conv2d(256, 27, kernel_size=(3, 3), stride=(1, 1), padding=(1, 1))
        )
        (bn2): SyncBatchNorm(256, eps=1e-05, momentum=0.1, affine=True, track_running_stats=True)
        (conv3): Conv2d(256, 1024, kernel_size=(1, 1), stride=(1, 1), bias=False)
        (bn3): SyncBatchNorm(1024, eps=1e-05, momentum=0.1, affine=True, track_running_stats=True)
        (relu): ReLU(inplace=True)
      )
      init_cfg={'type': 'Constant', 'val': 0, 'override': {'name': 'norm3'}}
      (5): Bottleneck(
        (conv1): Conv2d(1024, 256, kernel_size=(1, 1), stride=(1, 1), bias=False)
        (bn1): SyncBatchNorm(256, eps=1e-05, momentum=0.1, affine=True, track_running_stats=True)
        (conv2): ModulatedDeformConv2dPack(
          (conv_offset): Conv2d(256, 27, kernel_size=(3, 3), stride=(1, 1), padding=(1, 1))
        )
        (bn2): SyncBatchNorm(256, eps=1e-05, momentum=0.1, affine=True, track_running_stats=True)
        (conv3): Conv2d(256, 1024, kernel_size=(1, 1), stride=(1, 1), bias=False)
        (bn3): SyncBatchNorm(1024, eps=1e-05, momentum=0.1, affine=True, track_running_stats=True)
        (relu): ReLU(inplace=True)
      )
      init_cfg={'type': 'Constant', 'val': 0, 'override': {'name': 'norm3'}}
      (6): Bottleneck(
        (conv1): Conv2d(1024, 256, kernel_size=(1, 1), stride=(1, 1), bias=False)
        (bn1): SyncBatchNorm(256, eps=1e-05, momentum=0.1, affine=True, track_running_stats=True)
        (conv2): ModulatedDeformConv2dPack(
          (conv_offset): Conv2d(256, 27, kernel_size=(3, 3), stride=(1, 1), padding=(1, 1))
        )
        (bn2): SyncBatchNorm(256, eps=1e-05, momentum=0.1, affine=True, track_running_stats=True)
        (conv3): Conv2d(256, 1024, kernel_size=(1, 1), stride=(1, 1), bias=False)
        (bn3): SyncBatchNorm(1024, eps=1e-05, momentum=0.1, affine=True, track_running_stats=True)
        (relu): ReLU(inplace=True)
      )
      init_cfg={'type': 'Constant', 'val': 0, 'override': {'name': 'norm3'}}
      (7): Bottleneck(
        (conv1): Conv2d(1024, 256, kernel_size=(1, 1), stride=(1, 1), bias=False)
        (bn1): SyncBatchNorm(256, eps=1e-05, momentum=0.1, affine=True, track_running_stats=True)
        (conv2): ModulatedDeformConv2dPack(
          (conv_offset): Conv2d(256, 27, kernel_size=(3, 3), stride=(1, 1), padding=(1, 1))
        )
        (bn2): SyncBatchNorm(256, eps=1e-05, momentum=0.1, affine=True, track_running_stats=True)
        (conv3): Conv2d(256, 1024, kernel_size=(1, 1), stride=(1, 1), bias=False)
        (bn3): SyncBatchNorm(1024, eps=1e-05, momentum=0.1, affine=True, track_running_stats=True)
        (relu): ReLU(inplace=True)
      )
      init_cfg={'type': 'Constant', 'val': 0, 'override': {'name': 'norm3'}}
      (8): Bottleneck(
        (conv1): Conv2d(1024, 256, kernel_size=(1, 1), stride=(1, 1), bias=False)
        (bn1): SyncBatchNorm(256, eps=1e-05, momentum=0.1, affine=True, track_running_stats=True)
        (conv2): ModulatedDeformConv2dPack(
          (conv_offset): Conv2d(256, 27, kernel_size=(3, 3), stride=(1, 1), padding=(1, 1))
        )
        (bn2): SyncBatchNorm(256, eps=1e-05, momentum=0.1, affine=True, track_running_stats=True)
        (conv3): Conv2d(256, 1024, kernel_size=(1, 1), stride=(1, 1), bias=False)
        (bn3): SyncBatchNorm(1024, eps=1e-05, momentum=0.1, affine=True, track_running_stats=True)
        (relu): ReLU(inplace=True)
      )
      init_cfg={'type': 'Constant', 'val': 0, 'override': {'name': 'norm3'}}
      (9): Bottleneck(
        (conv1): Conv2d(1024, 256, kernel_size=(1, 1), stride=(1, 1), bias=False)
        (bn1): SyncBatchNorm(256, eps=1e-05, momentum=0.1, affine=True, track_running_stats=True)
        (conv2): ModulatedDeformConv2dPack(
          (conv_offset): Conv2d(256, 27, kernel_size=(3, 3), stride=(1, 1), padding=(1, 1))
        )
        (bn2): SyncBatchNorm(256, eps=1e-05, momentum=0.1, affine=True, track_running_stats=True)
        (conv3): Conv2d(256, 1024, kernel_size=(1, 1), stride=(1, 1), bias=False)
        (bn3): SyncBatchNorm(1024, eps=1e-05, momentum=0.1, affine=True, track_running_stats=True)
        (relu): ReLU(inplace=True)
      )
      init_cfg={'type': 'Constant', 'val': 0, 'override': {'name': 'norm3'}}
      (10): Bottleneck(
        (conv1): Conv2d(1024, 256, kernel_size=(1, 1), stride=(1, 1), bias=False)
        (bn1): SyncBatchNorm(256, eps=1e-05, momentum=0.1, affine=True, track_running_stats=True)
        (conv2): ModulatedDeformConv2dPack(
          (conv_offset): Conv2d(256, 27, kernel_size=(3, 3), stride=(1, 1), padding=(1, 1))
        )
        (bn2): SyncBatchNorm(256, eps=1e-05, momentum=0.1, affine=True, track_running_stats=True)
        (conv3): Conv2d(256, 1024, kernel_size=(1, 1), stride=(1, 1), bias=False)
        (bn3): SyncBatchNorm(1024, eps=1e-05, momentum=0.1, affine=True, track_running_stats=True)
        (relu): ReLU(inplace=True)
      )
      init_cfg={'type': 'Constant', 'val': 0, 'override': {'name': 'norm3'}}
      (11): Bottleneck(
        (conv1): Conv2d(1024, 256, kernel_size=(1, 1), stride=(1, 1), bias=False)
        (bn1): SyncBatchNorm(256, eps=1e-05, momentum=0.1, affine=True, track_running_stats=True)
        (conv2): ModulatedDeformConv2dPack(
          (conv_offset): Conv2d(256, 27, kernel_size=(3, 3), stride=(1, 1), padding=(1, 1))
        )
        (bn2): SyncBatchNorm(256, eps=1e-05, momentum=0.1, affine=True, track_running_stats=True)
        (conv3): Conv2d(256, 1024, kernel_size=(1, 1), stride=(1, 1), bias=False)
        (bn3): SyncBatchNorm(1024, eps=1e-05, momentum=0.1, affine=True, track_running_stats=True)
        (relu): ReLU(inplace=True)
      )
      init_cfg={'type': 'Constant', 'val': 0, 'override': {'name': 'norm3'}}
      (12): Bottleneck(
        (conv1): Conv2d(1024, 256, kernel_size=(1, 1), stride=(1, 1), bias=False)
        (bn1): SyncBatchNorm(256, eps=1e-05, momentum=0.1, affine=True, track_running_stats=True)
        (conv2): ModulatedDeformConv2dPack(
          (conv_offset): Conv2d(256, 27, kernel_size=(3, 3), stride=(1, 1), padding=(1, 1))
        )
        (bn2): SyncBatchNorm(256, eps=1e-05, momentum=0.1, affine=True, track_running_stats=True)
        (conv3): Conv2d(256, 1024, kernel_size=(1, 1), stride=(1, 1), bias=False)
        (bn3): SyncBatchNorm(1024, eps=1e-05, momentum=0.1, affine=True, track_running_stats=True)
        (relu): ReLU(inplace=True)
      )
      init_cfg={'type': 'Constant', 'val': 0, 'override': {'name': 'norm3'}}
      (13): Bottleneck(
        (conv1): Conv2d(1024, 256, kernel_size=(1, 1), stride=(1, 1), bias=False)
        (bn1): SyncBatchNorm(256, eps=1e-05, momentum=0.1, affine=True, track_running_stats=True)
        (conv2): ModulatedDeformConv2dPack(
          (conv_offset): Conv2d(256, 27, kernel_size=(3, 3), stride=(1, 1), padding=(1, 1))
        )
        (bn2): SyncBatchNorm(256, eps=1e-05, momentum=0.1, affine=True, track_running_stats=True)
        (conv3): Conv2d(256, 1024, kernel_size=(1, 1), stride=(1, 1), bias=False)
        (bn3): SyncBatchNorm(1024, eps=1e-05, momentum=0.1, affine=True, track_running_stats=True)
        (relu): ReLU(inplace=True)
      )
      init_cfg={'type': 'Constant', 'val': 0, 'override': {'name': 'norm3'}}
      (14): Bottleneck(
        (conv1): Conv2d(1024, 256, kernel_size=(1, 1), stride=(1, 1), bias=False)
        (bn1): SyncBatchNorm(256, eps=1e-05, momentum=0.1, affine=True, track_running_stats=True)
        (conv2): ModulatedDeformConv2dPack(
          (conv_offset): Conv2d(256, 27, kernel_size=(3, 3), stride=(1, 1), padding=(1, 1))
        )
        (bn2): SyncBatchNorm(256, eps=1e-05, momentum=0.1, affine=True, track_running_stats=True)
        (conv3): Conv2d(256, 1024, kernel_size=(1, 1), stride=(1, 1), bias=False)
        (bn3): SyncBatchNorm(1024, eps=1e-05, momentum=0.1, affine=True, track_running_stats=True)
        (relu): ReLU(inplace=True)
      )
      init_cfg={'type': 'Constant', 'val': 0, 'override': {'name': 'norm3'}}
      (15): Bottleneck(
        (conv1): Conv2d(1024, 256, kernel_size=(1, 1), stride=(1, 1), bias=False)
        (bn1): SyncBatchNorm(256, eps=1e-05, momentum=0.1, affine=True, track_running_stats=True)
        (conv2): ModulatedDeformConv2dPack(
          (conv_offset): Conv2d(256, 27, kernel_size=(3, 3), stride=(1, 1), padding=(1, 1))
        )
        (bn2): SyncBatchNorm(256, eps=1e-05, momentum=0.1, affine=True, track_running_stats=True)
        (conv3): Conv2d(256, 1024, kernel_size=(1, 1), stride=(1, 1), bias=False)
        (bn3): SyncBatchNorm(1024, eps=1e-05, momentum=0.1, affine=True, track_running_stats=True)
        (relu): ReLU(inplace=True)
      )
      init_cfg={'type': 'Constant', 'val': 0, 'override': {'name': 'norm3'}}
      (16): Bottleneck(
        (conv1): Conv2d(1024, 256, kernel_size=(1, 1), stride=(1, 1), bias=False)
        (bn1): SyncBatchNorm(256, eps=1e-05, momentum=0.1, affine=True, track_running_stats=True)
        (conv2): ModulatedDeformConv2dPack(
          (conv_offset): Conv2d(256, 27, kernel_size=(3, 3), stride=(1, 1), padding=(1, 1))
        )
        (bn2): SyncBatchNorm(256, eps=1e-05, momentum=0.1, affine=True, track_running_stats=True)
        (conv3): Conv2d(256, 1024, kernel_size=(1, 1), stride=(1, 1), bias=False)
        (bn3): SyncBatchNorm(1024, eps=1e-05, momentum=0.1, affine=True, track_running_stats=True)
        (relu): ReLU(inplace=True)
      )
      init_cfg={'type': 'Constant', 'val': 0, 'override': {'name': 'norm3'}}
      (17): Bottleneck(
        (conv1): Conv2d(1024, 256, kernel_size=(1, 1), stride=(1, 1), bias=False)
        (bn1): SyncBatchNorm(256, eps=1e-05, momentum=0.1, affine=True, track_running_stats=True)
        (conv2): ModulatedDeformConv2dPack(
          (conv_offset): Conv2d(256, 27, kernel_size=(3, 3), stride=(1, 1), padding=(1, 1))
        )
        (bn2): SyncBatchNorm(256, eps=1e-05, momentum=0.1, affine=True, track_running_stats=True)
        (conv3): Conv2d(256, 1024, kernel_size=(1, 1), stride=(1, 1), bias=False)
        (bn3): SyncBatchNorm(1024, eps=1e-05, momentum=0.1, affine=True, track_running_stats=True)
        (relu): ReLU(inplace=True)
      )
      init_cfg={'type': 'Constant', 'val': 0, 'override': {'name': 'norm3'}}
      (18): Bottleneck(
        (conv1): Conv2d(1024, 256, kernel_size=(1, 1), stride=(1, 1), bias=False)
        (bn1): SyncBatchNorm(256, eps=1e-05, momentum=0.1, affine=True, track_running_stats=True)
        (conv2): ModulatedDeformConv2dPack(
          (conv_offset): Conv2d(256, 27, kernel_size=(3, 3), stride=(1, 1), padding=(1, 1))
        )
        (bn2): SyncBatchNorm(256, eps=1e-05, momentum=0.1, affine=True, track_running_stats=True)
        (conv3): Conv2d(256, 1024, kernel_size=(1, 1), stride=(1, 1), bias=False)
        (bn3): SyncBatchNorm(1024, eps=1e-05, momentum=0.1, affine=True, track_running_stats=True)
        (relu): ReLU(inplace=True)
      )
      init_cfg={'type': 'Constant', 'val': 0, 'override': {'name': 'norm3'}}
      (19): Bottleneck(
        (conv1): Conv2d(1024, 256, kernel_size=(1, 1), stride=(1, 1), bias=False)
        (bn1): SyncBatchNorm(256, eps=1e-05, momentum=0.1, affine=True, track_running_stats=True)
        (conv2): ModulatedDeformConv2dPack(
          (conv_offset): Conv2d(256, 27, kernel_size=(3, 3), stride=(1, 1), padding=(1, 1))
        )
        (bn2): SyncBatchNorm(256, eps=1e-05, momentum=0.1, affine=True, track_running_stats=True)
        (conv3): Conv2d(256, 1024, kernel_size=(1, 1), stride=(1, 1), bias=False)
        (bn3): SyncBatchNorm(1024, eps=1e-05, momentum=0.1, affine=True, track_running_stats=True)
        (relu): ReLU(inplace=True)
      )
      init_cfg={'type': 'Constant', 'val': 0, 'override': {'name': 'norm3'}}
      (20): Bottleneck(
        (conv1): Conv2d(1024, 256, kernel_size=(1, 1), stride=(1, 1), bias=False)
        (bn1): SyncBatchNorm(256, eps=1e-05, momentum=0.1, affine=True, track_running_stats=True)
        (conv2): ModulatedDeformConv2dPack(
          (conv_offset): Conv2d(256, 27, kernel_size=(3, 3), stride=(1, 1), padding=(1, 1))
        )
        (bn2): SyncBatchNorm(256, eps=1e-05, momentum=0.1, affine=True, track_running_stats=True)
        (conv3): Conv2d(256, 1024, kernel_size=(1, 1), stride=(1, 1), bias=False)
        (bn3): SyncBatchNorm(1024, eps=1e-05, momentum=0.1, affine=True, track_running_stats=True)
        (relu): ReLU(inplace=True)
      )
      init_cfg={'type': 'Constant', 'val': 0, 'override': {'name': 'norm3'}}
      (21): Bottleneck(
        (conv1): Conv2d(1024, 256, kernel_size=(1, 1), stride=(1, 1), bias=False)
        (bn1): SyncBatchNorm(256, eps=1e-05, momentum=0.1, affine=True, track_running_stats=True)
        (conv2): ModulatedDeformConv2dPack(
          (conv_offset): Conv2d(256, 27, kernel_size=(3, 3), stride=(1, 1), padding=(1, 1))
        )
        (bn2): SyncBatchNorm(256, eps=1e-05, momentum=0.1, affine=True, track_running_stats=True)
        (conv3): Conv2d(256, 1024, kernel_size=(1, 1), stride=(1, 1), bias=False)
        (bn3): SyncBatchNorm(1024, eps=1e-05, momentum=0.1, affine=True, track_running_stats=True)
        (relu): ReLU(inplace=True)
      )
      init_cfg={'type': 'Constant', 'val': 0, 'override': {'name': 'norm3'}}
      (22): Bottleneck(
        (conv1): Conv2d(1024, 256, kernel_size=(1, 1), stride=(1, 1), bias=False)
        (bn1): SyncBatchNorm(256, eps=1e-05, momentum=0.1, affine=True, track_running_stats=True)
        (conv2): ModulatedDeformConv2dPack(
          (conv_offset): Conv2d(256, 27, kernel_size=(3, 3), stride=(1, 1), padding=(1, 1))
        )
        (bn2): SyncBatchNorm(256, eps=1e-05, momentum=0.1, affine=True, track_running_stats=True)
        (conv3): Conv2d(256, 1024, kernel_size=(1, 1), stride=(1, 1), bias=False)
        (bn3): SyncBatchNorm(1024, eps=1e-05, momentum=0.1, affine=True, track_running_stats=True)
        (relu): ReLU(inplace=True)
      )
      init_cfg={'type': 'Constant', 'val': 0, 'override': {'name': 'norm3'}}
    )
    (layer4): ResLayer(
      (0): Bottleneck(
        (conv1): Conv2d(1024, 512, kernel_size=(1, 1), stride=(2, 2), bias=False)
        (bn1): SyncBatchNorm(512, eps=1e-05, momentum=0.1, affine=True, track_running_stats=True)
        (conv2): ModulatedDeformConv2dPack(
          (conv_offset): Conv2d(512, 27, kernel_size=(3, 3), stride=(1, 1), padding=(1, 1))
        )
        (bn2): SyncBatchNorm(512, eps=1e-05, momentum=0.1, affine=True, track_running_stats=True)
        (conv3): Conv2d(512, 2048, kernel_size=(1, 1), stride=(1, 1), bias=False)
        (bn3): SyncBatchNorm(2048, eps=1e-05, momentum=0.1, affine=True, track_running_stats=True)
        (relu): ReLU(inplace=True)
        (downsample): Sequential(
          (0): Conv2d(1024, 2048, kernel_size=(1, 1), stride=(2, 2), bias=False)
          (1): SyncBatchNorm(2048, eps=1e-05, momentum=0.1, affine=True, track_running_stats=True)
        )
      )
      init_cfg={'type': 'Constant', 'val': 0, 'override': {'name': 'norm3'}}
      (1): Bottleneck(
        (conv1): Conv2d(2048, 512, kernel_size=(1, 1), stride=(1, 1), bias=False)
        (bn1): SyncBatchNorm(512, eps=1e-05, momentum=0.1, affine=True, track_running_stats=True)
        (conv2): ModulatedDeformConv2dPack(
          (conv_offset): Conv2d(512, 27, kernel_size=(3, 3), stride=(1, 1), padding=(1, 1))
        )
        (bn2): SyncBatchNorm(512, eps=1e-05, momentum=0.1, affine=True, track_running_stats=True)
        (conv3): Conv2d(512, 2048, kernel_size=(1, 1), stride=(1, 1), bias=False)
        (bn3): SyncBatchNorm(2048, eps=1e-05, momentum=0.1, affine=True, track_running_stats=True)
        (relu): ReLU(inplace=True)
      )
      init_cfg={'type': 'Constant', 'val': 0, 'override': {'name': 'norm3'}}
      (2): Bottleneck(
        (conv1): Conv2d(2048, 512, kernel_size=(1, 1), stride=(1, 1), bias=False)
        (bn1): SyncBatchNorm(512, eps=1e-05, momentum=0.1, affine=True, track_running_stats=True)
        (conv2): ModulatedDeformConv2dPack(
          (conv_offset): Conv2d(512, 27, kernel_size=(3, 3), stride=(1, 1), padding=(1, 1))
        )
        (bn2): SyncBatchNorm(512, eps=1e-05, momentum=0.1, affine=True, track_running_stats=True)
        (conv3): Conv2d(512, 2048, kernel_size=(1, 1), stride=(1, 1), bias=False)
        (bn3): SyncBatchNorm(2048, eps=1e-05, momentum=0.1, affine=True, track_running_stats=True)
        (relu): ReLU(inplace=True)
      )
      init_cfg={'type': 'Constant', 'val': 0, 'override': {'name': 'norm3'}}
    )
  )
  init_cfg=[{'type': 'Kaiming', 'layer': 'Conv2d'}, {'type': 'Constant', 'val': 1, 'layer': ['_BatchNorm', 'GroupNorm']}]
  (img_neck): FPN(
    (lateral_convs): ModuleList(
      (0): ConvModule(
        (conv): Conv2d(512, 256, kernel_size=(1, 1), stride=(1, 1))
      )
      (1): ConvModule(
        (conv): Conv2d(1024, 256, kernel_size=(1, 1), stride=(1, 1))
      )
      (2): ConvModule(
        (conv): Conv2d(2048, 256, kernel_size=(1, 1), stride=(1, 1))
      )
    )
    (fpn_convs): ModuleList(
      (0): ConvModule(
        (conv): Conv2d(256, 256, kernel_size=(3, 3), stride=(1, 1), padding=(1, 1))
      )
      (1): ConvModule(
        (conv): Conv2d(256, 256, kernel_size=(3, 3), stride=(1, 1), padding=(1, 1))
      )
      (2): ConvModule(
        (conv): Conv2d(256, 256, kernel_size=(3, 3), stride=(1, 1), padding=(1, 1))
      )
      (3): ConvModule(
        (conv): Conv2d(256, 256, kernel_size=(3, 3), stride=(2, 2), padding=(1, 1))
      )
    )
  )
  init_cfg={'type': 'Xavier', 'layer': 'Conv2d', 'distribution': 'uniform'}
)
2025-06-17 17:07:43,484 - mmdet - INFO - load checkpoint from local path: pretrained/hedres_forced.pth
2025-06-17 17:07:44,625 - mmdet - WARNING - The model and loaded state dict do not match exactly

unexpected key in source state_dict: pts_b
…
