…
          (relu): ReLU(inplace=True)
        )
      )
    )
    (conv_out): SparseSequential(
      (0): SparseConv3d(128, 128, kernel_size=[3, 1, 1], stride=[2, 1, 1], padding=[0, 0, 0], dilation=[1, 1, 1], output_padding=[0, 0, 0], bias=False, algo=ConvAlgo.MaskImplicitGemm)
      (1): SyncBatchNorm(128, eps=0.001, momentum=0.01, affine=True, track_running_stats=True)
      (2): ReLU(inplace=True)
    )
  )
  (pts_backbone): CascadeDEDBackbone(
    (layers): ModuleList(
      (0): DEDBackbone(
        (encoder): ModuleList(
          (0): Sequential(
            (0): BasicBlock(
              (conv1): Conv2d(256, 256, kernel_size=(3, 3), stride=(1, 1), padding=(1, 1), bias=False)
              (bn1): SyncBatchNorm(256, eps=0.001, momentum=0.01, affine=True, track_running_stats=True)
              (relu1): ReLU()
              (conv2): Conv2d(256, 256, kernel_size=(3, 3), stride=(1, 1), padding=(1, 1), bias=False)
              (bn2): SyncBatchNorm(256, eps=0.001, momentum=0.01, affine=True, track_running_stats=True)
              (relu2): ReLU()
            )
            (1): BasicBlock(
              (conv1): Conv2d(256, 256, kernel_size=(3, 3), stride=(1, 1), padding=(1, 1), bias=False)
              (bn1): SyncBatchNorm(256, eps=0.001, momentum=0.01, affine=True, track_running_stats=True)
              (relu1): ReLU()
              (conv2): Conv2d(256, 256, kernel_size=(3, 3), stride=(1, 1), padding=(1, 1), bias=False)
              (bn2): SyncBatchNorm(256, eps=0.001, momentum=0.01, affine=True, track_running_stats=True)
              (relu2): ReLU()
            )
          )
          (1): Sequential(
            (0): BasicBlock(
              (conv1): Conv2d(256, 256, kernel_size=(3, 3), stride=(2, 2), padding=(1, 1), bias=False)
              (bn1): SyncBatchNorm(256, eps=0.001, momentum=0.01, affine=True, track_running_stats=True)
              (relu1): ReLU()
              (conv2): Conv2d(256, 256, kernel_size=(3, 3), stride=(1, 1), padding=(1, 1), bias=False)
              (bn2): SyncBatchNorm(256, eps=0.001, momentum=0.01, affine=True, track_running_stats=True)
              (relu2): ReLU()
              (downsample_layer): Sequential(
                (0): Conv2d(256, 256, kernel_size=(1, 1), stride=(2, 2), bias=False)
                (1): SyncBatchNorm(256, eps=0.001, momentum=0.01, affine=True, track_running_stats=True)
              )
            )
            (1): BasicBlock(
              (conv1): Conv2d(256, 256, kernel_size=(3, 3), stride=(1, 1), padding=(1, 1), bias=False)
              (bn1): SyncBatchNorm(256, eps=0.001, momentum=0.01, affine=True, track_running_stats=True)
              (relu1): ReLU()
              (conv2): Conv2d(256, 256, kernel_size=(3, 3), stride=(1, 1), padding=(1, 1), bias=False)
              (bn2): SyncBatchNorm(256, eps=0.001, momentum=0.01, affine=True, track_running_stats=True)
              (relu2): ReLU()
            )
          )
          (2): Sequential(
            (0): BasicBlock(
              (conv1): Conv2d(256, 256, kernel_size=(3, 3), stride=(2, 2), padding=(1, 1), bias=False)
              (bn1): SyncBatchNorm(256, eps=0.001, momentum=0.01, affine=True, track_running_stats=True)
              (relu1): ReLU()
              (conv2): Conv2d(256, 256, kernel_size=(3, 3), stride=(1, 1), padding=(1, 1), bias=False)
              (bn2): SyncBatchNorm(256, eps=0.001, momentum=0.01, affine=True, track_running_stats=True)
              (relu2): ReLU()
              (downsample_layer): Sequential(
                (0): Conv2d(256, 256, kernel_size=(1, 1), stride=(2, 2), bias=False)
                (1): SyncBatchNorm(256, eps=0.001, momentum=0.01, affine=True, track_running_stats=True)
              )
            )
            (1): BasicBlock(
              (conv1): Conv2d(256, 256, kernel_size=(3, 3), stride=(1, 1), padding=(1, 1), bias=False)
              (bn1): SyncBatchNorm(256, eps=0.001, momentum=0.01, affine=True, track_running_stats=True)
              (relu1): ReLU()
              (conv2): Conv2d(256, 256, kernel_size=(3, 3), stride=(1, 1), padding=(1, 1), bias=False)
              (bn2): SyncBatchNorm(256, eps=0.001, momentum=0.01, affine=True, track_running_stats=True)
              (relu2): ReLU()
            )
          )
        )
        (decoder): ModuleList(
          (0): Sequential(
            (0): ConvTranspose2d(256, 256, kernel_size=(2, 2), stride=(2, 2), bias=False)
            (1): SyncBatchNorm(256, eps=0.001, momentum=0.01, affine=True, track_running_stats=True)
            (2): ReLU()
          )
          (1): Sequential(
            (0): ConvTranspose2d(256, 256, kernel_size=(2, 2), stride=(2, 2), bias=False)
            (1): SyncBatchNorm(256, eps=0.001, momentum=0.01, affine=True, track_running_stats=True)
            (2): ReLU()
          )
        )
        (decoder_norm): ModuleList(
          (0): SyncBatchNorm(256, eps=0.001, momentum=0.01, affine=True, track_running_stats=True)
          (1): SyncBatchNorm(256, eps=0.001, momentum=0.01, affine=True, track_running_stats=True)
        )
      )
      (1): DEDBackbone(
        (encoder): ModuleList(
          (0): Sequential(
            (0): BasicBlock(
              (conv1): Conv2d(256, 256, kernel_size=(3, 3), stride=(1, 1), padding=(1, 1), bias=False)
              (bn1): SyncBatchNorm(256, eps=0.001, momentum=0.01, affine=True, track_running_stats=True)
              (relu1): ReLU()
              (conv2): Conv2d(256, 256, kernel_size=(3, 3), stride=(1, 1), padding=(1, 1), bias=False)
              (bn2): SyncBatchNorm(256, eps=0.001, momentum=0.01, affine=True, track_running_stats=True)
              (relu2): ReLU()
            )
            (1): BasicBlock(
              (conv1): Conv2d(256, 256, kernel_size=(3, 3), stride=(1, 1), padding=(1, 1), bias=False)
              (bn1): SyncBatchNorm(256, eps=0.001, momentum=0.01, affine=True, track_running_stats=True)
              (relu1): ReLU()
              (conv2): Conv2d(256, 256, kernel_size=(3, 3), stride=(1, 1), padding=(1, 1), bias=False)
              (bn2): SyncBatchNorm(256, eps=0.001, momentum=0.01, affine=True, track_running_stats=True)
              (relu2): ReLU()
            )
          )
          (1): Sequential(
            (0): BasicBlock(
              (conv1): Conv2d(256, 256, kernel_size=(3, 3), stride=(2, 2), padding=(1, 1), bias=False)
              (bn1): SyncBatchNorm(256, eps=0.001, momentum=0.01, affine=True, track_running_stats=True)
              (relu1): ReLU()
              (conv2): Conv2d(256, 256, kernel_size=(3, 3), stride=(1, 1), padding=(1, 1), bias=False)
              (bn2): SyncBatchNorm(256, eps=0.001, momentum=0.01, affine=True, track_running_stats=True)
              (relu2): ReLU()
              (downsample_layer): Sequential(
                (0): Conv2d(256, 256, kernel_size=(1, 1), stride=(2, 2), bias=False)
                (1): SyncBatchNorm(256, eps=0.001, momentum=0.01, affine=True, track_running_stats=True)
              )
            )
            (1): BasicBlock(
              (conv1): Conv2d(256, 256, kernel_size=(3, 3), stride=(1, 1), padding=(1, 1), bias=False)
              (bn1): SyncBatchNorm(256, eps=0.001, momentum=0.01, affine=True, track_running_stats=True)
              (relu1): ReLU()
              (conv2): Conv2d(256, 256, kernel_size=(3, 3), stride=(1, 1), padding=(1, 1), bias=False)
              (bn2): SyncBatchNorm(256, eps=0.001, momentum=0.01, affine=True, track_running_stats=True)
              (relu2): ReLU()
            )
          )
          (2): Sequential(
            (0): BasicBlock(
              (conv1): Conv2d(256, 256, kernel_size=(3, 3), stride=(2, 2), padding=(1, 1), bias=False)
              (bn1): SyncBatchNorm(256, eps=0.001, momentum=0.01, affine=True, track_running_stats=True)
              (relu1): ReLU()
              (conv2): Conv2d(256, 256, kernel_size=(3, 3), stride=(1, 1), padding=(1, 1), bias=False)
              (bn2): SyncBatchNorm(256, eps=0.001, momentum=0.01, affine=True, track_running_stats=True)
              (relu2): ReLU()
              (downsample_layer): Sequential(
                (0): Conv2d(256, 256, kernel_size=(1, 1), stride=(2, 2), bias=False)
                (1): SyncBatchNorm(256, eps=0.001, momentum=0.01, affine=True, track_running_stats=True)
              )
            )
            (1): BasicBlock(
              (conv1): Conv2d(256, 256, kernel_size=(3, 3), stride=(1, 1), padding=(1, 1), bias=False)
              (bn1): SyncBatchNorm(256, eps=0.001, momentum=0.01, affine=True, track_running_stats=True)
              (relu1): ReLU()
              (conv2): Conv2d(256, 256, kernel_size=(3, 3), stride=(1, 1), padding=(1, 1), bias=False)
              (bn2): SyncBatchNorm(256, eps=0.001, momentum=0.01, affine=True, track_running_stats=True)
              (relu2): ReLU()
            )
          )
        )
        (decoder): ModuleList(
          (0): Sequential(
            (0): ConvTranspose2d(256, 256, kernel_size=(2, 2), stride=(2, 2), bias=False)
            (1): SyncBatchNorm(256, eps=0.001, momentum=0.01, affine=True, track_running_stats=True)
            (2): ReLU()
          )
          (1): Sequential(
            (0): ConvTranspose2d(256, 256, kernel_size=(2, 2), stride=(2, 2), bias=False)
            (1): SyncBatchNorm(256, eps=0.001, momentum=0.01, affine=True, track_running_stats=True)
            (2): ReLU()
          )
        )
        (decoder_norm): ModuleList(
          (0): SyncBatchNorm(256, eps=0.001, momentum=0.01, affine=True, track_running_stats=True)
          (1): SyncBatchNorm(256, eps=0.001, momentum=0.01, affine=True, track_running_stats=True)
        )
      )
      (2): DEDBackbone(
        (encoder): ModuleList(
          (0): Sequential(
            (0): BasicBlock(
              (conv1): Conv2d(256, 256, kernel_size=(3, 3), stride=(1, 1), padding=(1, 1), bias=False)
              (bn1): SyncBatchNorm(256, eps=0.001, momentum=0.01, affine=True, track_running_stats=True)
              (relu1): ReLU()
              (conv2): Conv2d(256, 256, kernel_size=(3, 3), stride=(1, 1), padding=(1, 1), bias=False)
              (bn2): SyncBatchNorm(256, eps=0.001, momentum=0.01, affine=True, track_running_stats=True)
              (relu2): ReLU()
            )
            (1): BasicBlock(
              (conv1): Conv2d(256, 256, kernel_size=(3, 3), stride=(1, 1), padding=(1, 1), bias=False)
              (bn1): SyncBatchNorm(256, eps=0.001, momentum=0.01, affine=True, track_running_stats=True)
              (relu1): ReLU()
              (conv2): Conv2d(256, 256, kernel_size=(3, 3), stride=(1, 1), padding=(1, 1), bias=False)
              (bn2): SyncBatchNorm(256, eps=0.001, momentum=0.01, affine=True, track_running_stats=True)
              (relu2): ReLU()
            )
          )
          (1): Sequential(
            (0): BasicBlock(
              (conv1): Conv2d(256, 256, kernel_size=(3, 3), stride=(2, 2), padding=(1, 1), bias=False)
              (bn1): SyncBatchNorm(256, eps=0.001, momentum=0.01, affine=True, track_running_stats=True)
              (relu1): ReLU()
              (conv2): Conv2d(256, 256, kernel_size=(3, 3), stride=(1, 1), padding=(1, 1), bias=False)
              (bn2): SyncBatchNorm(256, eps=0.001, momentum=0.01, affine=True, track_running_stats=True)
              (relu2): ReLU()
              (downsample_layer): Sequential(
                (0): Conv2d(256, 256, kernel_size=(1, 1), stride=(2, 2), bias=False)
                (1): SyncBatchNorm(256, eps=0.001, momentum=0.01, affine=True, track_running_stats=True)
              )
            )
            (1): BasicBlock(
              (conv1): Conv2d(256, 256, kernel_size=(3, 3), stride=(1, 1), padding=(1, 1), bias=False)
              (bn1): SyncBatchNorm(256, eps=0.001, momentum=0.01, affine=True, track_running_stats=True)
              (relu1): ReLU()
              (conv2): Conv2d(256, 256, kernel_size=(3, 3), stride=(1, 1), padding=(1, 1), bias=False)
              (bn2): SyncBatchNorm(256, eps=0.001, momentum=0.01, affine=True, track_running_stats=True)
              (relu2): ReLU()
            )
          )
          (2): Sequential(
            (0): BasicBlock(
              (conv1): Conv2d(256, 256, kernel_size=(3, 3), stride=(2, 2), padding=(1, 1), bias=False)
              (bn1): SyncBatchNorm(256, eps=0.001, momentum=0.01, affine=True, track_running_stats=True)
              (relu1): ReLU()
              (conv2): Conv2d(256, 256, kernel_size=(3, 3), stride=(1, 1), padding=(1, 1), bias=False)
              (bn2): SyncBatchNorm(256, eps=0.001, momentum=0.01, affine=True, track_running_stats=True)
              (relu2): ReLU()
              (downsample_layer): Sequential(
                (0): Conv2d(256, 256, kernel_size=(1, 1), stride=(2, 2), bias=False)
                (1): SyncBatchNorm(256, eps=0.001, momentum=0.01, affine=True, track_running_stats=True)
              )
            )
            (1): BasicBlock(
              (conv1): Conv2d(256, 256, kernel_size=(3, 3), stride=(1, 1), padding=(1, 1), bias=False)
              (bn1): SyncBatchNorm(256, eps=0.001, momentum=0.01, affine=True, track_running_stats=True)
              (relu1): ReLU()
              (conv2): Conv2d(256, 256, kernel_size=(3, 3), stride=(1, 1), padding=(1, 1), bias=False)
              (bn2): SyncBatchNorm(256, eps=0.001, momentum=0.01, affine=True, track_running_stats=True)
              (relu2): ReLU()
            )
          )
        )
        (decoder): ModuleList(
          (0): Sequential(
            (0): ConvTranspose2d(256, 256, kernel_size=(2, 2), stride=(2, 2), bias=False)
            (1): SyncBatchNorm(256, eps=0.001, momentum=0.01, affine=True, track_running_stats=True)
            (2): ReLU()
          )
          (1): Sequential(
            (0): ConvTranspose2d(256, 256, kernel_size=(2, 2), stride=(2, 2), bias=False)
            (1): SyncBatchNorm(256, eps=0.001, momentum=0.01, affine=True, track_running_stats=True)
            (2): ReLU()
          )
        )
        (decoder_norm): ModuleList(
          (0): SyncBatchNorm(256, eps=0.001, momentum=0.01, affine=True, track_running_stats=True)
          (1): SyncBatchNorm(256, eps=0.001, momentum=0.01, affine=True, track_running_stats=True)
        )
      )
      (3): DEDBackbone(
        (encoder): ModuleList(
          (0): Sequential(
            (0): BasicBlock(
              (conv1): Conv2d(256, 256, kernel_size=(3, 3), stride=(1, 1), padding=(1, 1), bias=False)
              (bn1): SyncBatchNorm(256, eps=0.001, momentum=0.01, affine=True, track_running_stats=True)
              (relu1): ReLU()
              (conv2): Conv2d(256, 256, kernel_size=(3, 3), stride=(1, 1), padding=(1, 1), bias=False)
              (bn2): SyncBatchNorm(256, eps=0.001, momentum=0.01, affine=True, track_running_stats=True)
              (relu2): ReLU()
            )
            (1): BasicBlock(
              (conv1): Conv2d(256, 256, kernel_size=(3, 3), stride=(1, 1), padding=(1, 1), bias=False)
              (bn1): SyncBatchNorm(256, eps=0.001, momentum=0.01, affine=True, track_running_stats=True)
              (relu1): ReLU()
              (conv2): Conv2d(256, 256, kernel_size=(3, 3), stride=(1, 1), padding=(1, 1), bias=False)
              (bn2): SyncBatchNorm(256, eps=0.001, momentum=0.01, affine=True, track_running_stats=True)
              (relu2): ReLU()
            )
          )
          (1): Sequential(
            (0): BasicBlock(
              (conv1): Conv2d(256, 256, kernel_size=(3, 3), stride=(2, 2), padding=(1, 1), bias=False)
              (bn1): SyncBatchNorm(256, eps=0.001, momentum=0.01, affine=True, track_running_stats=True)
              (relu1): ReLU()
              (conv2): Conv2d(256, 256, kernel_size=(3, 3), stride=(1, 1), padding=(1, 1), bias=False)
              (bn2): SyncBatchNorm(256, eps=0.001, momentum=0.01, affine=True, track_running_stats=True)
              (relu2): ReLU()
              (downsample_layer): Sequential(
                (0): Conv2d(256, 256, kernel_size=(1, 1), stride=(2, 2), bias=False)
                (1): SyncBatchNorm(256, eps=0.001, momentum=0.01, affine=True, track_running_stats=True)
              )
            )
            (1): BasicBlock(
              (conv1): Conv2d(256, 256, kernel_size=(3, 3), stride=(1, 1), padding=(1, 1), bias=False)
              (bn1): SyncBatchNorm(256, eps=0.001, momentum=0.01, affine=True, track_running_stats=True)
              (relu1): ReLU()
              (conv2): Conv2d(256, 256, kernel_size=(3, 3), stride=(1, 1), padding=(1, 1), bias=False)
              (bn2): SyncBatchNorm(256, eps=0.001, momentum=0.01, affine=True, track_running_stats=True)
              (relu2): ReLU()
            )
          )
          (2): Sequential(
            (0): BasicBlock(
              (conv1): Conv2d(256, 256, kernel_size=(3, 3), stride=(2, 2), padding=(1, 1), bias=False)
              (bn1): SyncBatchNorm(256, eps=0.001, momentum=0.01, affine=True, track_running_stats=True)
              (relu1): ReLU()
              (conv2): Conv2d(256, 256, kernel_size=(3, 3), stride=(1, 1), padding=(1, 1), bias=False)
              (bn2): SyncBatchNorm(256, eps=0.001, momentum=0.01, affine=True, track_running_stats=True)
              (relu2): ReLU()
              (downsample_layer): Sequential(
                (0): Conv2d(256, 256, kernel_size=(1, 1), stride=(2, 2), bias=False)
                (1): SyncBatchNorm(256, eps=0.001, momentum=0.01, affine=True, track_running_stats=True)
              )
            )
            (1): BasicBlock(
              (conv1): Conv2d(256, 256, kernel_size=(3, 3), stride=(1, 1), padding=(1, 1), bias=False)
              (bn1): SyncBatchNorm(256, eps=0.001, momentum=0.01, affine=True, track_running_stats=True)
              (relu1): ReLU()
              (conv2): Conv2d(256, 256, kernel_size=(3, 3), stride=(1, 1), padding=(1, 1), bias=False)
              (bn2): SyncBatchNorm(256, eps=0.001, momentum=0.01, affine=True, track_running_stats=True)
              (relu2): ReLU()
            )
          )
        )
        (decoder): ModuleList(
          (0): Sequential(
            (0): ConvTranspose2d(256, 256, kernel_size=(2, 2), stride=(2, 2), bias=False)
            (1): SyncBatchNorm(256, eps=0.001, momentum=0.01, affine=True, track_running_stats=True)
            (2): ReLU()
          )
          (1): Sequential(
            (0): ConvTranspose2d(256, 256, kernel_size=(2, 2), stride=(2, 2), bias=False)
            (1): SyncBatchNorm(256, eps=0.001, momentum=0.01, affine=True, track_running_stats=True)
            (2): ReLU()
          )
        )
        (decoder_norm): ModuleList(
          (0): SyncBatchNorm(256, eps=0.001, momentum=0.01, affine=True, track_running_stats=True)
          (1): SyncBatchNorm(256, eps=0.001, momentum=0.01, affine=True, track_running_stats=True)
        )
      )
    )
  )
  (pts_neck): FPN(
    (lateral_convs): ModuleList(
      (0): ConvModule(
        (conv): Conv2d(256, 256, kernel_size=(1, 1), stride=(1, 1), bias=False)
        (bn): SyncBatchNorm(256, eps=0.001, momentum=0.01, affine=True, track_running_stats=True)
        (activate): ReLU()
      )
    )
    (fpn_convs): ModuleList(
      (0): ConvModule(
        (conv): Conv2d(256, 256, kernel_size=(3, 3), stride=(1, 1), padding=(1, 1), bias=False)
        (bn): SyncBatchNorm(256, eps=0.001, momentum=0.01, affine=True, track_running_stats=True)
        (activate): ReLU()
      )
      (1): ConvModule(
        (conv): Conv2d(256, 256, kernel_size=(3, 3), stride=(2, 2), padding=(1, 1), bias=False)
        (bn): SyncBatchNorm(256, eps=0.001, momentum=0.01, affine=True, track_running_stats=True)
        (activate): ReLU()
      )
      (2): ConvModule(
        (conv): Conv2d(256, 256, kernel_size=(3, 3), stride=(2, 2), padding=(1, 1), bias=False)
        (bn): SyncBatchNorm(256, eps=0.001, momentum=0.01, affine=True, track_running_stats=True)
        (activate): ReLU()
      )
      (3): ConvModule(
        (conv): Conv2d(256, 256, kernel_size=(3, 3), stride=(2, 2), padding=(1, 1), bias=False)
        (bn): SyncBatchNorm(256, eps=0.001, momentum=0.01, affine=True, track_running_stats=True)
        (activate): ReLU()
      )
    )
  )
  init_cfg={'type': 'Xavier', 'layer': 'Conv2d', 'distribution': 'uniform'}
  (pts_bbox_head): FUTR3DHead(
    (loss_cls): FocalLoss()
    (loss_bbox): L1Loss()
    (loss_iou): GIoULoss()
…
    (transformer): FUTR3DTransformer(
      (decoder): FUTR3DTransformerDecoder(
        (layers): ModuleList(
          (0): DetrTransformerDecoderLayer(
            (attentions): ModuleList(
              (0): ModuleList(
                (0): MultiheadAttention(
                  (attn): MultiheadAttention(
                    (out_proj): NonDynamicallyQuantizableLinear(in_features=256, out_features=256, bias=True)
                  )
                  (proj_drop): Dropout(p=0.0, inplace=False)
                  (dropout_layer): Dropout(p=0.1, inplace=False)
                )
                (1): LayerNorm((256,), eps=1e-05, elementwise_affine=True)
                (2): DSS(
                  (layers): ModuleList(
                    (0): ModuleDict(
                      (norm_before): RMSNorm()
                      (mamba): DSSMamba(
                        (in_proj): Linear(in_features=256, out_features=2048, bias=False)
                        (act): SiLU()
                        (x_proj_f): Linear(in_features=512, out_features=144, bias=False)
                        (x_proj_b): Linear(in_features=512, out_features=144, bias=False)
                        (dt_proj_f): Linear(in_features=16, out_features=512, bias=True)
                        (dt_proj_b): Linear(in_features=16, out_features=512, bias=True)
                        (out_proj): Linear(in_features=1024, out_features=256, bias=False)
                        (global_proj): Linear(in_features=1024, out_features=1024, bias=True)
                      )
                      (dropout): Identity()
                      (norm): RMSNorm()
                      (mlp): MLP(
                        (gate_proj): Linear(in_features=256, out_features=1024, bias=False)
                        (up_proj): Linear(in_features=256, out_features=1024, bias=False)
                        (down_proj): Linear(in_features=1024, out_features=256, bias=False)
                        (act_fn): SiLU()
                      )
                      (mlp_norm): RMSNorm()
                    )
                    (1): ModuleDict(
                      (norm_before): RMSNorm()
                      (mamba): DSSMamba(
                        (in_proj): Linear(in_features=256, out_features=2048, bias=False)
                        (act): SiLU()
                        (x_proj_f): Linear(in_features=512, out_features=144, bias=False)
                        (x_proj_b): Linear(in_features=512, out_features=144, bias=False)
                        (dt_proj_f): Linear(in_features=16, out_features=512, bias=True)
                        (dt_proj_b): Linear(in_features=16, out_features=512, bias=True)
                        (out_proj): Linear(in_features=1024, out_features=256, bias=False)
                        (global_proj): Linear(in_features=1024, out_features=1024, bias=True)
                      )
                      (dropout): DropPath(drop_prob=0.300)
                      (norm): RMSNorm()
                      (mlp): MLP(
                        (gate_proj): Linear(in_features=256, out_features=1024, bias=False)
                        (up_proj): Linear(in_features=256, out_features=1024, bias=False)
                        (down_proj): Linear(in_features=1024, out_features=256, bias=False)
                        (act_fn): SiLU()
                      )
                      (mlp_norm): Identity()
                    )
                  )
                  (rope): Identity()
                )
              )
              (1): FUTR3DAttention(
                (dropout): Dropout(p=0.1, inplace=False)
                (sampling_offsets): Linear(in_features=256, out_features=256, bias=True)
                (attention_weights): Linear(in_features=256, out_features=128, bias=True)
                (value_proj): Linear(in_features=256, out_features=256, bias=True)
                (output_proj): Linear(in_features=256, out_features=256, bias=True)
              )
            )
            (ffns): ModuleList(
              (0): FFN(
                (activate): ReLU(inplace=True)
                (layers): Sequential(
                  (0): Sequential(
                    (0): Linear(in_features=256, out_features=1024, bias=True)
                    (1): ReLU(inplace=True)
                    (2): Dropout(p=0.1, inplace=False)
                  )
                  (1): Linear(in_features=1024, out_features=256, bias=True)
                  (2): Dropout(p=0.1, inplace=False)
                )
                (dropout_layer): Identity()
              )
            )
            (norms): ModuleList(
              (0): LayerNorm((256,), eps=1e-05, elementwise_affine=True)
              (1): LayerNorm((256,), eps=1e-05, elementwise_affine=True)
              (2): LayerNorm((256,), eps=1e-05, elementwise_affine=True)
            )
          )
          (1): DetrTransformerDecoderLayer(
            (attentions): ModuleList(
              (0): ModuleList(
                (0): MultiheadAttention(
                  (attn): MultiheadAttention(
                    (out_proj): NonDynamicallyQuantizableLinear(in_features=256, out_features=256, bias=True)
                  )
                  (proj_drop): Dropout(p=0.0, inplace=False)
                  (dropout_layer): Dropout(p=0.1, inplace=False)
                )
                (1): LayerNorm((256,), eps=1e-05, elementwise_affine=True)
                (2): DSS(
                  (layers): ModuleList(
                    (0): ModuleDict(
                      (norm_before): RMSNorm()
                      (mamba): DSSMamba(
                        (in_proj): Linear(in_features=256, out_features=2048, bias=False)
                        (act): SiLU()
                        (x_proj_f): Linear(in_features=512, out_features=144, bias=False)
                        (x_proj_b): Linear(in_features=512, out_features=144, bias=False)
                        (dt_proj_f): Linear(in_features=16, out_features=512, bias=True)
                        (dt_proj_b): Linear(in_features=16, out_features=512, bias=True)
                        (out_proj): Linear(in_features=1024, out_features=256, bias=False)
                        (global_proj): Linear(in_features=1024, out_features=1024, bias=True)
                      )
                      (dropout): Identity()
                      (norm): RMSNorm()
                      (mlp): MLP(
                        (gate_proj): Linear(in_features=256, out_features=1024, bias=False)
                        (up_proj): Linear(in_features=256, out_features=1024, bias=False)
                        (down_proj): Linear(in_features=1024, out_features=256, bias=False)
                        (act_fn): SiLU()
                      )
                      (mlp_norm): RMSNorm()
                    )
                    (1): ModuleDict(
                      (norm_before): RMSNorm()
                      (mamba): DSSMamba(
                        (in_proj): Linear(in_features=256, out_features=2048, bias=False)
                        (act): SiLU()
                        (x_proj_f): Linear(in_features=512, out_features=144, bias=False)
                        (x_proj_b): Linear(in_features=512, out_features=144, bias=False)
                        (dt_proj_f): Linear(in_features=16, out_features=512, bias=True)
                        (dt_proj_b): Linear(in_features=16, out_features=512, bias=True)
                        (out_proj): Linear(in_features=1024, out_features=256, bias=False)
                        (global_proj): Linear(in_features=1024, out_features=1024, bias=True)
                      )
                      (dropout): DropPath(drop_prob=0.300)
                      (norm): RMSNorm()
                      (mlp): MLP(
                        (gate_proj): Linear(in_features=256, out_features=1024, bias=False)
                        (up_proj): Linear(in_features=256, out_features=1024, bias=False)
                        (down_proj): Linear(in_features=1024, out_features=256, bias=False)
                        (act_fn): SiLU()
                      )
                      (mlp_norm): Identity()
                    )
                  )
                  (rope): Identity()
                )
              )
              (1): FUTR3DAttention(
                (dropout): Dropout(p=0.1, inplace=False)
                (sampling_offsets): Linear(in_features=256, out_features=256, bias=True)
                (attention_weights): Linear(in_features=256, out_features=128, bias=True)
                (value_proj): Linear(in_features=256, out_features=256, bias=True)
                (output_proj): Linear(in_features=256, out_features=256, bias=True)
              )
            )
            (ffns): ModuleList(
              (0): FFN(
                (activate): ReLU(inplace=True)
                (layers): Sequential(
                  (0): Sequential(
                    (0): Linear(in_features=256, out_features=1024, bias=True)
                    (1): ReLU(inplace=True)
                    (2): Dropout(p=0.1, inplace=False)
                  )
                  (1): Linear(in_features=1024, out_features=256, bias=True)
                  (2): Dropout(p=0.1, inplace=False)
                )
                (dropout_layer): Identity()
              )
            )
            (norms): ModuleList(
              (0): LayerNorm((256,), eps=1e-05, elementwise_affine=True)
              (1): LayerNorm((256,), eps=1e-05, elementwise_affine=True)
              (2): LayerNorm((256,), eps=1e-05, elementwise_affine=True)
            )
          )
          (2): DetrTransformerDecoderLayer(
            (attentions): ModuleList(
              (0): ModuleList(
                (0): MultiheadAttention(
                  (attn): MultiheadAttention(
                    (out_proj): NonDynamicallyQuantizableLinear(in_features=256, out_features=256, bias=True)
                  )
                  (proj_drop): Dropout(p=0.0, inplace=False)
                  (dropout_layer): Dropout(p=0.1, inplace=False)
                )
                (1): LayerNorm((256,), eps=1e-05, elementwise_affine=True)
                (2): DSS(
                  (layers): ModuleList(
                    (0): ModuleDict(
                      (norm_before): RMSNorm()
                      (mamba): DSSMamba(
                        (in_proj): Linear(in_features=256, out_features=2048, bias=False)
                        (act): SiLU()
                        (x_proj_f): Linear(in_features=512, out_features=144, bias=False)
                        (x_proj_b): Linear(in_features=512, out_features=144, bias=False)
                        (dt_proj_f): Linear(in_features=16, out_features=512, bias=True)
                        (dt_proj_b): Linear(in_features=16, out_features=512, bias=True)
                        (out_proj): Linear(in_features=1024, out_features=256, bias=False)
                        (global_proj): Linear(in_features=1024, out_features=1024, bias=True)
                      )
                      (dropout): Identity()
                      (norm): RMSNorm()
                      (mlp): MLP(
                        (gate_proj): Linear(in_features=256, out_features=1024, bias=False)
                        (up_proj): Linear(in_features=256, out_features=1024, bias=False)
                        (down_proj): Linear(in_features=1024, out_features=256, bias=False)
                        (act_fn): SiLU()
                      )
                      (mlp_norm): RMSNorm()
                    )
                    (1): ModuleDict(
                      (norm_before): RMSNorm()
                      (mamba): DSSMamba(
                        (in_proj): Linear(in_features=256, out_features=2048, bias=False)
                        (act): SiLU()
                        (x_proj_f): Linear(in_features=512, out_features=144, bias=False)
                        (x_proj_b): Linear(in_features=512, out_features=144, bias=False)
                        (dt_proj_f): Linear(in_features=16, out_features=512, bias=True)
                        (dt_proj_b): Linear(in_features=16, out_features=512, bias=True)
                        (out_proj): Linear(in_features=1024, out_features=256, bias=False)
                        (global_proj): Linear(in_features=1024, out_features=1024, bias=True)
                      )
                      (dropout): DropPath(drop_prob=0.300)
                      (norm): RMSNorm()
                      (mlp): MLP(
                        (gate_proj): Linear(in_features=256, out_features=1024, bias=False)
                        (up_proj): Linear(in_features=256, out_features=1024, bias=False)
                        (down_proj): Linear(in_features=1024, out_features=256, bias=False)
                        (act_fn): SiLU()
                      )
                      (mlp_norm): Identity()
                    )
                  )
                  (rope): Identity()
                )
              )
              (1): FUTR3DAttention(
                (dropout): Dropout(p=0.1, inplace=False)
                (sampling_offsets): Linear(in_features=256, out_features=256, bias=True)
                (attention_weights): Linear(in_features=256, out_features=128, bias=True)
                (value_proj): Linear(in_features=256, out_features=256, bias=True)
                (output_proj): Linear(in_features=256, out_features=256, bias=True)
              )
            )
            (ffns): ModuleList(
              (0): FFN(
                (activate): ReLU(inplace=True)
                (layers): Sequential(
                  (0): Sequential(
                    (0): Linear(in_features=256, out_features=1024, bias=True)
                    (1): ReLU(inplace=True)
                    (2): Dropout(p=0.1, inplace=False)
                  )
                  (1): Linear(in_features=1024, out_features=256, bias=True)
                  (2): Dropout(p=0.1, inplace=False)
                )
                (dropout_layer): Identity()
              )
            )
            (norms): ModuleList(
              (0): LayerNorm((256,), eps=1e-05, elementwise_affine=True)
              (1): LayerNorm((256,), eps=1e-05, elementwise_affine=True)
              (2): LayerNorm((256,), eps=1e-05, elementwise_affine=True)
            )
          )
          (3): DetrTransformerDecoderLayer(
            (attentions): ModuleList(
              (0): ModuleList(
                (0): MultiheadAttention(
                  (attn): MultiheadAttention(
                    (out_proj): NonDynamicallyQuantizableLinear(in_features=256, out_features=256, bias=True)
                  )
                  (proj_drop): Dropout(p=0.0, inplace=False)
                  (dropout_layer): Dropout(p=0.1, inplace=False)
                )
                (1): LayerNorm((256,), eps=1e-05, elementwise_affine=True)
                (2): DSS(
                  (layers): ModuleList(
                    (0): ModuleDict(
                      (norm_before): RMSNorm()
                      (mamba): DSSMamba(
                        (in_proj): Linear(in_features=256, out_features=2048, bias=False)
                        (act): SiLU()
                        (x_proj_f): Linear(in_features=512, out_features=144, bias=False)
                        (x_proj_b): Linear(in_features=512, out_features=144, bias=False)
                        (dt_proj_f): Linear(in_features=16, out_features=512, bias=True)
                        (dt_proj_b): Linear(in_features=16, out_features=512, bias=True)
                        (out_proj): Linear(in_features=1024, out_features=256, bias=False)
                        (global_proj): Linear(in_features=1024, out_features=1024, bias=True)
                      )
                      (dropout): Identity()
                      (norm): RMSNorm()
                      (mlp): MLP(
                        (gate_proj): Linear(in_features=256, out_features=1024, bias=False)
                        (up_proj): Linear(in_features=256, out_features=1024, bias=False)
                        (down_proj): Linear(in_features=1024, out_features=256, bias=False)
                        (act_fn): SiLU()
                      )
                      (mlp_norm): RMSNorm()
                    )
                    (1): ModuleDict(
                      (norm_before): RMSNorm()
                      (mamba): DSSMamba(
                        (in_proj): Linear(in_features=256, out_features=2048, bias=False)
                        (act): SiLU()
                        (x_proj_f): Linear(in_features=512, out_features=144, bias=False)
                        (x_proj_b): Linear(in_features=512, out_features=144, bias=False)
                        (dt_proj_f): Linear(in_features=16, out_features=512, bias=True)
                        (dt_proj_b): Linear(in_features=16, out_features=512, bias=True)
                        (out_proj): Linear(in_features=1024, out_features=256, bias=False)
                        (global_proj): Linear(in_features=1024, out_features=1024, bias=True)
                      )
                      (dropout): DropPath(drop_prob=0.300)
                      (norm): RMSNorm()
                      (mlp): MLP(
                        (gate_proj): Linear(in_features=256, out_features=1024, bias=False)
                        (up_proj): Linear(in_features=256, out_features=1024, bias=False)
                        (down_proj): Linear(in_features=1024, out_features=256, bias=False)
                        (act_fn): SiLU()
                      )
                      (mlp_norm): Identity()
                    )
                  )
                  (rope): Identity()
                )
              )
              (1): FUTR3DAttention(
                (dropout): Dropout(p=0.1, inplace=False)
                (sampling_offsets): Linear(in_features=256, out_features=256, bias=True)
                (attention_weights): Linear(in_features=256, out_features=128, bias=True)
                (value_proj): Linear(in_features=256, out_features=256, bias=True)
                (output_proj): Linear(in_features=256, out_features=256, bias=True)
              )
            )
            (ffns): ModuleList(
              (0): FFN(
                (activate): ReLU(inplace=True)
                (layers): Sequential(
                  (0): Sequential(
                    (0): Linear(in_features=256, out_features=1024, bias=True)
                    (1): ReLU(inplace=True)
                    (2): Dropout(p=0.1, inplace=False)
                  )
                  (1): Linear(in_features=1024, out_features=256, bias=True)
                  (2): Dropout(p=0.1, inplace=False)
                )
                (dropout_layer): Identity()
              )
            )
            (norms): ModuleList(
              (0): LayerNorm((256,), eps=1e-05, elementwise_affine=True)
              (1): LayerNorm((256,), eps=1e-05, elementwise_affine=True)
              (2): LayerNorm((256,), eps=1e-05, elementwise_affine=True)
            )
          )
          (4): DetrTransformerDecoderLayer(
            (attentions): ModuleList(
              (0): ModuleList(
                (0): MultiheadAttention(
                  (attn): MultiheadAttention(
                    (out_proj): NonDynamicallyQuantizableLinear(in_features=256, out_features=256, bias=True)
                  )
                  (proj_drop): Dropout(p=0.0, inplace=False)
                  (dropout_layer): Dropout(p=0.1, inplace=False)
                )
                (1): LayerNorm((256,), eps=1e-05, elementwise_affine=True)
                (2): DSS(
                  (layers): ModuleList(
                    (0): ModuleDict(
                      (norm_before): RMSNorm()
                      (mamba): DSSMamba(
                        (in_proj): Linear(in_features=256, out_features=2048, bias=False)
                        (act): SiLU()
                        (x_proj_f): Linear(in_features=512, out_features=144, bias=False)
                        (x_proj_b): Linear(in_features=512, out_features=144, bias=False)
                        (dt_proj_f): Linear(in_features=16, out_features=512, bias=True)
                        (dt_proj_b): Linear(in_features=16, out_features=512, bias=True)
                        (out_proj): Linear(in_features=1024, out_features=256, bias=False)
                        (global_proj): Linear(in_features=1024, out_features=1024, bias=True)
                      )
                      (dropout): Identity()
                      (norm): RMSNorm()
                      (mlp): MLP(
                        (gate_proj): Linear(in_features=256, out_features=1024, bias=False)
                        (up_proj): Linear(in_features=256, out_features=1024, bias=False)
                        (down_proj): Linear(in_features=1024, out_features=256, bias=False)
                        (act_fn): SiLU()
                      )
                      (mlp_norm): RMSNorm()
                    )
                    (1): ModuleDict(
                      (norm_before): RMSNorm()
                      (mamba): DSSMamba(
                        (in_proj): Linear(in_features=256, out_features=2048, bias=False)
                        (act): SiLU()
                        (x_proj_f): Linear(in_features=512, out_features=144, bias=False)
                        (x_proj_b): Linear(in_features=512, out_features=144, bias=False)
                        (dt_proj_f): Linear(in_features=16, out_features=512, bias=True)
                        (dt_proj_b): Linear(in_features=16, out_features=512, bias=True)
                        (out_proj): Linear(in_features=1024, out_features=256, bias=False)
                        (global_proj): Linear(in_features=1024, out_features=1024, bias=True)
                      )
                      (dropout): DropPath(drop_prob=0.300)
                      (norm): RMSNorm()
                      (mlp): MLP(
                        (gate_proj): Linear(in_features=256, out_features=1024, bias=False)
                        (up_proj): Linear(in_features=256, out_features=1024, bias=False)
                        (down_proj): Linear(in_features=1024, out_features=256, bias=False)
                        (act_fn): SiLU()
                      )
                      (mlp_norm): Identity()
                    )
                  )
                  (rope): Identity()
                )
              )
              (1): FUTR3DAttention(
                (dropout): Dropout(p=0.1, inplace=False)
                (sampling_offsets): Linear(in_features=256, out_features=256, bias=True)
                (attention_weights): Linear(in_features=256, out_features=128, bias=True)
                (value_proj): Linear(in_features=256, out_features=256, bias=True)
                (output_proj): Linear(in_features=256, out_features=256, bias=True)
              )
            )
            (ffns): ModuleList(
              (0): FFN(
                (activate): ReLU(inplace=True)
                (layers): Sequential(
                  (0): Sequential(
                    (0): Linear(in_features=256, out_features=1024, bias=True)
                    (1): ReLU(inplace=True)
                    (2): Dropout(p=0.1, inplace=False)
                  )
                  (1): Linear(in_features=1024, out_features=256, bias=True)
                  (2): Dropout(p=0.1, inplace=False)
                )
                (dropout_layer): Identity()
              )
            )
            (norms): ModuleList(
              (0): LayerNorm((256,), eps=1e-05, elementwise_affine=True)
              (1): LayerNorm((256,), eps=1e-05, elementwise_affine=True)
              (2): LayerNorm((256,), eps=1e-05, elementwise_affine=True)
            )
          )
          (5): DetrTransformerDecoderLayer(
            (attentions): ModuleList(
              (0): ModuleList(
                (0): MultiheadAttention(
                  (attn): MultiheadAttention(
                    (out_proj): NonDynamicallyQuantizableLinear(in_features=256, out_features=256, bias=True)
                  )
                  (proj_drop): Dropout(p=0.0, inplace=False)
                  (dropout_layer): Dropout(p=0.1, inplace=False)
                )
                (1): LayerNorm((256,), eps=1e-05, elementwise_affine=True)
                (2): DSS(
                  (layers): ModuleList(
                    (0): ModuleDict(
                      (norm_before): RMSNorm()
                      (mamba): DSSMamba(
                        (in_proj): Linear(in_features=256, out_features=2048, bias=False)
                        (act): SiLU()
                        (x_proj_f): Linear(in_features=512, out_features=144, bias=False)
                        (x_proj_b): Linear(in_features=512, out_features=144, bias=False)
                        (dt_proj_f): Linear(in_features=16, out_features=512, bias=True)
                        (dt_proj_b): Linear(in_features=16, out_features=512, bias=True)
                        (out_proj): Linear(in_features=1024, out_features=256, bias=False)
                        (global_proj): Linear(in_features=1024, out_features=1024, bias=True)
                      )
                      (dropout): Identity()
                      (norm): RMSNorm()
                      (mlp): MLP(
                        (gate_proj): Linear(in_features=256, out_features=1024, bias=False)
                        (up_proj): Linear(in_features=256, out_features=1024, bias=False)
                        (down_proj): Linear(in_features=1024, out_features=256, bias=False)
                        (act_fn): SiLU()
                      )
                      (mlp_norm): RMSNorm()
                    )
                    (1): ModuleDict(
                      (norm_before): RMSNorm()
                      (mamba): DSSMamba(
                        (in_proj): Linear(in_features=256, out_features=2048, bias=False)
                        (act): SiLU()
                        (x_proj_f): Linear(in_features=512, out_features=144, bias=False)
                        (x_proj_b): Linear(in_features=512, out_features=144, bias=False)
                        (dt_proj_f): Linear(in_features=16, out_features=512, bias=True)
                        (dt_proj_b): Linear(in_features=16, out_features=512, bias=True)
                        (out_proj): Linear(in_features=1024, out_features=256, bias=False)
                        (global_proj): Linear(in_features=1024, out_features=1024, bias=True)
                      )
                      (dropout): DropPath(drop_prob=0.300)
                      (norm): RMSNorm()
                      (mlp): MLP(
                        (gate_proj): Linear(in_features=256, out_features=1024, bias=False)
                        (up_proj): Linear(in_features=256, out_features=1024, bias=False)
                        (down_proj): Linear(in_features=1024, out_features=256, bias=False)
                        (act_fn): SiLU()
                      )
                      (mlp_norm): Identity()
                    )
                  )
                  (rope): Identity()
                )
              )
              (1): FUTR3DAttention(
                (dropout): Dropout(p=0.1, inplace=False)
                (sampling_offsets): Linear(in_features=256, out_features=256, bias=True)
                (attention_weights): Linear(in_features=256, out_features=128, bias=True)
                (value_proj): Linear(in_features=256, out_features=256, bias=True)
                (output_proj): Linear(in_features=256, out_features=256, bias=True)
              )
            )
            (ffns): ModuleList(
              (0): FFN(
                (activate): ReLU(inplace=True)
                (layers): Sequential(
                  (0): Sequential(
                    (0): Linear(in_features=256, out_features=1024, bias=True)
                    (1): ReLU(inplace=True)
                    (2): Dropout(p=0.1, inplace=False)
                  )
                  (1): Linear(in_features=1024, out_features=256, bias=True)
                  (2): Dropout(p=0.1, inplace=False)
                )
                (dropout_layer): Identity()
              )
            )
            (norms): ModuleList(
              (0): LayerNorm((256,), eps=1e-05, elementwise_affine=True)
              (1): LayerNorm((256,), eps=1e-05, elementwise_affine=True)
              (2): LayerNorm((256,), eps=1e-05, elementwise_affine=True)
            )
          )
        )
        (query_scale): MLP(
          (layers): ModuleList(
            (0): Linear(in_features=256, out_features=256, bias=True)
            (1): Linear(in_features=256, out_features=256, bias=True)
          )
        )
        (ref_point_head): MLP(
          (layers): ModuleList(
            (0): Linear(in_features=384, out_features=256, bias=True)
            (1): Linear(in_features=256, out_features=256, bias=True)
          )
        )
      )
    )
    (cls_branches): ModuleList(
      (0): MLP(
        (gate_proj): Linear(in_features=256, out_features=1024, bias=False)
        (up_proj): Linear(in_features=256, out_features=1024, bias=False)
        (act_fn): SiLU()
        (down_proj): Linear(in_features=1024, out_features=10, bias=True)
      )
      (1): MLP(
        (gate_proj): Linear(in_features=256, out_features=1024, bias=False)
        (up_proj): Linear(in_features=256, out_features=1024, bias=False)
        (act_fn): SiLU()
        (down_proj): Linear(in_features=1024, out_features=10, bias=True)
      )
      (2): MLP(
        (gate_proj): Linear(in_features=256, out_features=1024, bias=False)
        (up_proj): Linear(in_features=256, out_features=1024, bias=False)
        (act_fn): SiLU()
        (down_proj): Linear(in_features=1024, out_features=10, bias=True)
      )
      (3): MLP(
        (gate_proj): Linear(in_features=256, out_features=1024, bias=False)
        (up_proj): Linear(in_features=256, out_features=1024, bias=False)
        (act_fn): SiLU()
        (down_proj): Linear(in_features=1024, out_features=10, bias=True)
      )
      (4): MLP(
        (gate_proj): Linear(in_features=256, out_features=1024, bias=False)
        (up_proj): Linear(in_features=256, out_features=1024, bias=False)
        (act_fn): SiLU()
        (down_proj): Linear(in_features=1024, out_features=10, bias=True)
      )
      (5): MLP(
        (gate_proj): Linear(in_features=256, out_features=1024, bias=False)
        (up_proj): Linear(in_features=256, out_features=1024, bias=False)
        (act_fn): SiLU()
        (down_proj): Linear(in_features=1024, out_features=10, bias=True)
      )
    )
    (reg_branches): ModuleList(
      (0): Sequential(
        (0): Linear(in_features=256, out_features=256, bias=True)
        (1): ReLU()
        (2): Linear(in_features=256, out_features=256, bias=True)
        (3): ReLU()
        (4): Linear(in_features=256, out_features=10, bias=True)
      )
      (1): Sequential(
        (0): Linear(in_features=256, out_features=256, bias=True)
        (1): ReLU()
        (2): Linear(in_features=256, out_features=256, bias=True)
        (3): ReLU()
        (4): Linear(in_features=256, out_features=10, bias=True)
      )
      (2): Sequential(
        (0): Linear(in_features=256, out_features=256, bias=True)
        (1): ReLU()
        (2): Linear(in_features=256, out_features=256, bias=True)
        (3): ReLU()
        (4): Linear(in_features=256, out_features=10, bias=True)
      )
      (3): Sequential(
        (0): Linear(in_features=256, out_features=256, bias=True)
        (1): ReLU()
        (2): Linear(in_features=256, out_features=256, bias=True)
        (3): ReLU()
        (4): Linear(in_features=256, out_features=10, bias=True)
      )
      (4): Sequential(
        (0): Linear(in_features=256, out_features=256, bias=True)
        (1): ReLU()
        (2): Linear(in_features=256, out_features=256, bias=True)
        (3): ReLU()
        (4): Linear(in_features=256, out_features=10, bias=True)
      )
      (5): Sequential(
        (0): Linear(in_features=256, out_features=256, bias=True)
        (1): ReLU()
        (2): Linear(in_features=256, out_features=256, bias=True)
        (3): ReLU()
        (4): Linear(in_features=256, out_features=10, bias=True)
      )
    )
    (tgt_embed): Embedding(900, 256)
    (refpoint_embed): Embedding(900, 3)
    (aux_head): CenterHead(
      (loss_cls): GaussianFocalLoss()
      (loss_bbox): L1Loss()
      (shared_conv): ConvModule(
        (conv): Conv2d(512, 64, kernel_size=(3, 3), stride=(1, 1), padding=(1, 1), bias=False)
        (bn): SyncBatchNorm(64, eps=1e-05, momentum=0.1, affine=True, track_running_stats=True)
        (activate): ReLU(inplace=True)
      )
      (task_heads): ModuleList(
        (0): SeparateHead(
          (reg): Sequential(
            (0): ConvModule(
              (conv): Conv2d(64, 64, kernel_size=(3, 3), stride=(1, 1), padding=(1, 1), bias=False)
              (bn): SyncBatchNorm(64, eps=1e-05, momentum=0.1, affine=True, track_running_stats=True)
              (activate): ReLU(inplace=True)
            )
            (1): Conv2d(64, 2, kernel_size=(3, 3), stride=(1, 1), padding=(1, 1))
          )
          (height): Sequential(
            (0): ConvModule(
              (conv): Conv2d(64, 64, kernel_size=(3, 3), stride=(1, 1), padding=(1, 1), bias=False)
              (bn): SyncBatchNorm(64, eps=1e-05, momentum=0.1, affine=True, track_running_stats=True)
              (activate): ReLU(inplace=True)
            )
            (1): Conv2d(64, 1, kernel_size=(3, 3), stride=(1, 1), padding=(1, 1))
          )
          (dim): Sequential(
            (0): ConvModule(
              (conv): Conv2d(64, 64, kernel_size=(3, 3), stride=(1, 1), padding=(1, 1), bias=False)
              (bn): SyncBatchNorm(64, eps=1e-05, momentum=0.1, affine=True, track_running_stats=True)
              (activate): ReLU(inplace=True)
            )
            (1): Conv2d(64, 3, kernel_size=(3, 3), stride=(1, 1), padding=(1, 1))
          )
          (rot): Sequential(
            (0): ConvModule(
              (conv): Conv2d(64, 64, kernel_size=(3, 3), stride=(1, 1), padding=(1, 1), bias=False)
              (bn): SyncBatchNorm(64, eps=1e-05, momentum=0.1, affine=True, track_running_stats=True)
              (activate): ReLU(inplace=True)
            )
            (1): Conv2d(64, 2, kernel_size=(3, 3), stride=(1, 1), padding=(1, 1))
          )
          (vel): Sequential(
            (0): ConvModule(
              (conv): Conv2d(64, 64, kernel_size=(3, 3), stride=(1, 1), padding=(1, 1), bias=False)
              (bn): SyncBatchNorm(64, eps=1e-05, momentum=0.1, affine=True, track_running_stats=True)
              (activate): ReLU(inplace=True)
            )
            (1): Conv2d(64, 2, kernel_size=(3, 3), stride=(1, 1), padding=(1, 1))
          )
          (heatmap): Sequential(
            (0): ConvModule(
              (conv): Conv2d(64, 64, kernel_size=(3, 3), stride=(1, 1), padding=(1, 1), bias=False)
              (bn): SyncBatchNorm(64, eps=1e-05, momentum=0.1, affine=True, track_running_stats=True)
              (activate): ReLU(inplace=True)
            )
            (1): Conv2d(64, 1, kernel_size=(3, 3), stride=(1, 1), padding=(1, 1))
          )
        )
        init_cfg={'type': 'Kaiming', 'layer': 'Conv2d'}
        (1): SeparateHead(
          (reg): Sequential(
            (0): ConvModule(
              (conv): Conv2d(64, 64, kernel_size=(3, 3), stride=(1, 1), padding=(1, 1), bias=False)
              (bn): SyncBatchNorm(64, eps=1e-05, momentum=0.1, affine=True, track_running_stats=True)
              (activate): ReLU(inplace=True)
            )
            (1): Conv2d(64, 2, kernel_size=(3, 3), stride=(1, 1), padding=(1, 1))
          )
          (height): Sequential(
            (0): ConvModule(
              (conv): Conv2d(64, 64, kernel_size=(3, 3), stride=(1, 1), padding=(1, 1), bias=False)
              (bn): SyncBatchNorm(64, eps=1e-05, momentum=0.1, affine=True, track_running_stats=True)
              (activate): ReLU(inplace=True)
            )
            (1): Conv2d(64, 1, kernel_size=(3, 3), stride=(1, 1), padding=(1, 1))
          )
          (dim): Sequential(
            (0): ConvModule(
              (conv): Conv2d(64, 64, kernel_size=(3, 3), stride=(1, 1), padding=(1, 1), bias=False)
              (bn): SyncBatchNorm(64, eps=1e-05, momentum=0.1, affine=True, track_running_stats=True)
              (activate): ReLU(inplace=True)
            )
            (1): Conv2d(64, 3, kernel_size=(3, 3), stride=(1, 1), padding=(1, 1))
          )
          (rot): Sequential(
            (0): ConvModule(
              (conv): Conv2d(64, 64, kernel_size=(3, 3), stride=(1, 1), padding=(1, 1), bias=False)
              (bn): SyncBatchNorm(64, eps=1e-05, momentum=0.1, affine=True, track_running_stats=True)
              (activate): ReLU(inplace=True)
            )
            (1): Conv2d(64, 2, kernel_size=(3, 3), stride=(1, 1), padding=(1, 1))
          )
          (vel): Sequential(
            (0): ConvModule(
              (conv): Conv2d(64, 64, kernel_size=(3, 3), stride=(1, 1), padding=(1, 1), bias=False)
              (bn): SyncBatchNorm(64, eps=1e-05, momentum=0.1, affine=True, track_running_stats=True)
              (activate): ReLU(inplace=True)
            )
            (1): Conv2d(64, 2, kernel_size=(3, 3), stride=(1, 1), padding=(1, 1))
          )
          (heatmap): Sequential(
            (0): ConvModule(
              (conv): Conv2d(64, 64, kernel_size=(3, 3), stride=(1, 1), padding=(1, 1), bias=False)
              (bn): SyncBatchNorm(64, eps=1e-05, momentum=0.1, affine=True, track_running_stats=True)
              (activate): ReLU(inplace=True)
            )
            (1): Conv2d(64, 2, kernel_size=(3, 3), stride=(1, 1), padding=(1, 1))
          )
        )
        init_cfg={'type': 'Kaiming', 'layer': 'Conv2d'}
        (2): SeparateHead(
          (reg): Sequential(
            (0): ConvModule(
              (conv): Conv2d(64, 64, kernel_size=(3, 3), stride=(1, 1), padding=(1, 1), bias=False)
              (bn): SyncBatchNorm(64, eps=1e-05, momentum=0.1, affine=True, track_running_stats=True)
              (activate): ReLU(inplace=True)
            )
            (1): Conv2d(64, 2, kernel_size=(3, 3), stride=(1, 1), padding=(1, 1))
          )
          (height): Sequential(
            (0): ConvModule(
              (conv): Conv2d(64, 64, kernel_size=(3, 3), stride=(1, 1), padding=(1, 1), bias=False)
              (bn): SyncBatchNorm(64, eps=1e-05, momentum=0.1, affine=True, track_running_stats=True)
              (activate): ReLU(inplace=True)
            )
            (1): Conv2d(64, 1, kernel_size=(3, 3), stride=(1, 1), padding=(1, 1))
          )
          (dim): Sequential(
            (0): ConvModule(
              (conv): Conv2d(64, 64, kernel_size=(3, 3), stride=(1, 1), padding=(1, 1), bias=False)
              (bn): SyncBatchNorm(64, eps=1e-05, momentum=0.1, affine=True, track_running_stats=True)
              (activate): ReLU(inplace=True)
            )
            (1): Conv2d(64, 3, kernel_size=(3, 3), stride=(1, 1), padding=(1, 1))
          )
          (rot): Sequential(
            (0): ConvModule(
              (conv): Conv2d(64, 64, kernel_size=(3, 3), stride=(1, 1), padding=(1, 1), bias=False)
              (bn): SyncBatchNorm(64, eps=1e-05, momentum=0.1, affine=True, track_running_stats=True)
              (activate): ReLU(inplace=True)
            )
            (1): Conv2d(64, 2, kernel_size=(3, 3), stride=(1, 1), padding=(1, 1))
          )
          (vel): Sequential(
            (0): ConvModule(
              (conv): Conv2d(64, 64, kernel_size=(3, 3), stride=(1, 1), padding=(1, 1), bias=False)
              (bn): SyncBatchNorm(64, eps=1e-05, momentum=0.1, affine=True, track_running_stats=True)
              (activate): ReLU(inplace=True)
            )
            (1): Conv2d(64, 2, kernel_size=(3, 3), stride=(1, 1), padding=(1, 1))
          )
          (heatmap): Sequential(
            (0): ConvModule(
              (conv): Conv2d(64, 64, kernel_size=(3, 3), stride=(1, 1), padding=(1, 1), bias=False)
              (bn): SyncBatchNorm(64, eps=1e-05, momentum=0.1, affine=True, track_running_stats=True)
              (activate): ReLU(inplace=True)
            )
            (1): Conv2d(64, 2, kernel_size=(3, 3), stride=(1, 1), padding=(1, 1))
          )
        )
        init_cfg={'type': 'Kaiming', 'layer': 'Conv2d'}
        (3): SeparateHead(
          (reg): Sequential(
            (0): ConvModule(
              (conv): Conv2d(64, 64, kernel_size=(3, 3), stride=(1, 1), padding=(1, 1), bias=False)
              (bn): SyncBatchNorm(64, eps=1e-05, momentum=0.1, affine=True, track_running_stats=True)
              (activate): ReLU(inplace=True)
            )
            (1): Conv2d(64, 2, kernel_size=(3, 3), stride=(1, 1), padding=(1, 1))
          )
          (height): Sequential(
            (0): ConvModule(
              (conv): Conv2d(64, 64, kernel_size=(3, 3), stride=(1, 1), padding=(1, 1), bias=False)
              (bn): SyncBatchNorm(64, eps=1e-05, momentum=0.1, affine=True, track_running_stats=True)
              (activate): ReLU(inplace=True)
            )
            (1): Conv2d(64, 1, kernel_size=(3, 3), stride=(1, 1), padding=(1, 1))
          )
          (dim): Sequential(
            (0): ConvModule(
              (conv): Conv2d(64, 64, kernel_size=(3, 3), stride=(1, 1), padding=(1, 1), bias=False)
              (bn): SyncBatchNorm(64, eps=1e-05, momentum=0.1, affine=True, track_running_stats=True)
              (activate): ReLU(inplace=True)
            )
            (1): Conv2d(64, 3, kernel_size=(3, 3), stride=(1, 1), padding=(1, 1))
          )
          (rot): Sequential(
            (0): ConvModule(
              (conv): Conv2d(64, 64, kernel_size=(3, 3), stride=(1, 1), padding=(1, 1), bias=False)
              (bn): SyncBatchNorm(64, eps=1e-05, momentum=0.1, affine=True, track_running_stats=True)
              (activate): ReLU(inplace=True)
            )
            (1): Conv2d(64, 2, kernel_size=(3, 3), stride=(1, 1), padding=(1, 1))
          )
          (vel): Sequential(
            (0): ConvModule(
              (conv): Conv2d(64, 64, kernel_size=(3, 3), stride=(1, 1), padding=(1, 1), bias=False)
              (bn): SyncBatchNorm(64, eps=1e-05, momentum=0.1, affine=True, track_running_stats=True)
              (activate): ReLU(inplace=True)
            )
            (1): Conv2d(64, 2, kernel_size=(3, 3), stride=(1, 1), padding=(1, 1))
          )
          (heatmap): Sequential(
            (0): ConvModule(
              (conv): Conv2d(64, 64, kernel_size=(3, 3), stride=(1, 1), padding=(1, 1), bias=False)
              (bn): SyncBatchNorm(64, eps=1e-05, momentum=0.1, affine=True, track_running_stats=True)
              (activate): ReLU(inplace=True)
            )
            (1): Conv2d(64, 1, kernel_size=(3, 3), stride=(1, 1), padding=(1, 1))
          )
        )
        init_cfg={'type': 'Kaiming', 'layer': 'Conv2d'}
        (4): SeparateHead(
          (reg): Sequential(
            (0): ConvModule(
              (conv): Conv2d(64, 64, kernel_size=(3, 3), stride=(1, 1), padding=(1, 1), bias=False)
              (bn): SyncBatchNorm(64, eps=1e-05, momentum=0.1, affine=True, track_running_stats=True)
              (activate): ReLU(inplace=True)
            )
            (1): Conv2d(64, 2, kernel_size=(3, 3), stride=(1, 1), padding=(1, 1))
          )
          (height): Sequential(
            (0): ConvModule(
              (conv): Conv2d(64, 64, kernel_size=(3, 3), stride=(1, 1), padding=(1, 1), bias=False)
              (bn): SyncBatchNorm(64, eps=1e-05, momentum=0.1, affine=True, track_running_stats=True)
              (activate): ReLU(inplace=True)
            )
            (1): Conv2d(64, 1, kernel_size=(3, 3), stride=(1, 1), padding=(1, 1))
          )
          (dim): Sequential(
            (0): ConvModule(
              (conv): Conv2d(64, 64, kernel_size=(3, 3), stride=(1, 1), padding=(1, 1), bias=False)
              (bn): SyncBatchNorm(64, eps=1e-05, momentum=0.1, affine=True, track_running_stats=True)
              (activate): ReLU(inplace=True)
            )
            (1): Conv2d(64, 3, kernel_size=(3, 3), stride=(1, 1), padding=(1, 1))
          )
          (rot): Sequential(
            (0): ConvModule(
              (conv): Conv2d(64, 64, kernel_size=(3, 3), stride=(1, 1), padding=(1, 1), bias=False)
              (bn): SyncBatchNorm(64, eps=1e-05, momentum=0.1, affine=True, track_running_stats=True)
              (activate): ReLU(inplace=True)
            )
            (1): Conv2d(64, 2, kernel_size=(3, 3), stride=(1, 1), padding=(1, 1))
          )
          (vel): Sequential(
            (0): ConvModule(
              (conv): Conv2d(64, 64, kernel_size=(3, 3), stride=(1, 1), padding=(1, 1), bias=False)
              (bn): SyncBatchNorm(64, eps=1e-05, momentum=0.1, affine=True, track_running_stats=True)
              (activate): ReLU(inplace=True)
            )
            (1): Conv2d(64, 2, kernel_size=(3, 3), stride=(1, 1), padding=(1, 1))
          )
          (heatmap): Sequential(
            (0): ConvModule(
              (conv): Conv2d(64, 64, kernel_size=(3, 3), stride=(1, 1), padding=(1, 1), bias=False)
              (bn): SyncBatchNorm(64, eps=1e-05, momentum=0.1, affine=True, track_running_stats=True)
              (activate): ReLU(inplace=True)
            )
            (1): Conv2d(64, 2, kernel_size=(3, 3), stride=(1, 1), padding=(1, 1))
          )
        )
        init_cfg={'type': 'Kaiming', 'layer': 'Conv2d'}
        (5): SeparateHead(
          (reg): Sequential(
            (0): ConvModule(
              (conv): Conv2d(64, 64, kernel_size=(3, 3), stride=(1, 1), padding=(1, 1), bias=False)
              (bn): SyncBatchNorm(64, eps=1e-05, momentum=0.1, affine=True, track_running_stats=True)
              (activate): ReLU(inplace=True)
            )
            (1): Conv2d(64, 2, kernel_size=(3, 3), stride=(1, 1), padding=(1, 1))
          )
          (height): Sequential(
            (0): ConvModule(
              (conv): Conv2d(64, 64, kernel_size=(3, 3), stride=(1, 1), padding=(1, 1), bias=False)
              (bn): SyncBatchNorm(64, eps=1e-05, momentum=0.1, affine=True, track_running_stats=True)
              (activate): ReLU(inplace=True)
            )
            (1): Conv2d(64, 1, kernel_size=(3, 3), stride=(1, 1), padding=(1, 1))
          )
          (dim): Sequential(
            (0): ConvModule(
              (conv): Conv2d(64, 64, kernel_size=(3, 3), stride=(1, 1), padding=(1, 1), bias=False)
              (bn): SyncBatchNorm(64, eps=1e-05, momentum=0.1, affine=True, track_running_stats=True)
              (activate): ReLU(inplace=True)
            )
            (1): Conv2d(64, 3, kernel_size=(3, 3), stride=(1, 1), padding=(1, 1))
          )
          (rot): Sequential(
            (0): ConvModule(
              (conv): Conv2d(64, 64, kernel_size=(3, 3), stride=(1, 1), padding=(1, 1), bias=False)
              (bn): SyncBatchNorm(64, eps=1e-05, momentum=0.1, affine=True, track_running_stats=True)
              (activate): ReLU(inplace=True)
            )
            (1): Conv2d(64, 2, kernel_size=(3, 3), stride=(1, 1), padding=(1, 1))
          )
          (vel): Sequential(
            (0): ConvModule(
              (conv): Conv2d(64, 64, kernel_size=(3, 3), stride=(1, 1), padding=(1, 1), bias=False)
              (bn): SyncBatchNorm(64, eps=1e-05, momentum=0.1, affine=True, track_running_stats=True)
              (activate): ReLU(inplace=True)
            )
            (1): Conv2d(64, 2, kernel_size=(3, 3), stride=(1, 1), padding=(1, 1))
          )
          (heatmap): Sequential(
            (0): ConvModule(
              (conv): Conv2d(64, 64, kernel_size=(3, 3), stride=(1, 1), padding=(1, 1), bias=False)
              (bn): SyncBatchNorm(64, eps=1e-05, momentum=0.1, affine=True, track_running_stats=True)
              (activate): ReLU(inplace=True)
            )
            (1): Conv2d(64, 2, kernel_size=(3, 3), stride=(1, 1), padding=(1, 1))
          )
        )
        init_cfg={'type': 'Kaiming', 'layer': 'Conv2d'}
      )
    )
  )
)
2025-05-19 23:03:04,867 - mmdet - INFO - Start running, host: ubuntu@ubuntu, work_dir: /home/ubuntu/jxcao/hdd/jxc/FUTR3D/work_dirs/lidar_0075v_900q_split14_hednetbackbone4_dss0511_num2_nomorton_noconv_noxy_norope_dp03_HUGE_expand2/cls增强，self-attn堆叠dss
…
